models/fmnist_gen.ckpt (torch_old, 522157 bytes, 305 tensors)

exp_avg f4 [16]
-1.5163684e-05 -2.8899942e-05 5.3580707e-06 -1.9294926e-05 -2.2166952e-05 -2.794381e-05 1.2057813e-05 2.214657e-05
2.5579914e-06 -2.0611784e-05 2.5929647e-05 -1.8312853e-06 4.1950705e-05 1.46004095e-05 2.0220273e-06 9.289153e-06
00000000: 8767 7eb7 276e f2b7 7ac9 b336 8adb a1b7
00000010: 2bf3 b9b7 e068 eab7 ea4b 4a37 66c7 b937
00000020: f5a9 2b36 78e7 acb7 7e83 d937 7cca f5b5
00000030: 3af4 2f38 48f4 7437 2ab2 0736 9cd8 1b37

exp_avg_sq f4 [16]
4.4112962e-08 3.13733e-07 2.975571e-08 2.0626606e-08 1.755375e-07 9.3597095e-08 6.495533e-08 8.209035e-08
1.6056656e-07 6.6222634e-07 6.744537e-08 5.489534e-08 4.4163926e-07 3.196053e-07 2.1560343e-08 3.1718102e-08
00000000: b776 3d33 236f a834 8099 ff32 632e b132
00000010: 617b 3c34 8cff c833 927d 8b33 a649 b033
00000020: 3368 2c34 d9c3 3135 7cd6 9033 11c6 6b33
00000030: 701a ed34 3896 ab34 b233 b932 6c3a 0833

exp_avg f4 [16, 16]
-9.962584e-05 -0.00016141139 -9.7095646e-05 0.00010305902 -0.00010767909 -0.00033681138 0.00016056147 0.00013375841
-1.0076724e-05 -0.00013059 0.00027173673 -0.00012694132 0.00020582153 -1.3294667e-05 9.697757e-05 0.00011161081
2.6569985e-05 -0.00023633134 4.4068896e-05 -7.402142e-05 -7.496243e-05 1.746139e-05 4.2794778e-05 4.749205e-05
0.00019490298 -0.00027508804 4.59872e-05 -7.41468e-05 0.0001886383 0.00015936293 5.082508e-06 -3.7811034e-05
2.431035e-05 -2.823619e-05 1.65875e-05 -3.641337e-05 3.5562607e-05 5.047662e-05 -4.4751114e-06 2.6879516e-05
-2.082016e-05 -4.8495353e-05 5.685204e-07 1.892842e-05 6.7631554e-06 -3.1475607e-05 -1.83393e-05 8.178472e-06
-2.9221814e-05 -5.6940607e-05 -8.5785746e-07 -2.623687e-05 0.00010577694 -5.4752556e-05 0.00011691148 7.49648e-05
-8.729411e-05 -0.00021443378 -8.505541e-05 -0.00016298809 0.00017885366 0.00016641147 -3.0723462e-05 0.000105586616
9.9035366e-05 -0.00014331349 0.000105874424 0.00010186194 6.686415e-05 -6.612581e-05 8.301793e-05 -4.3621316e-05
2.8189159e-05 -0.00029288756 0.00017403801 1.3358723e-05 -5.6744633e-05 -6.514944e-06 -6.4578735e-06 -5.657435e-05
5.198989e-05 -0.000106034444 3.524108e-05 -0.00011047639 -5.3477423e-05 -1.3701582e-05 -8.22117e-05 9.178636e-06
0.00027036204 1.3924856e-05 1.8159877e-06 1.1893795e-05 2.7110582e-05 5.1382358e-05 -1.1242984e-05 -9.575464e-05
7.022927e-05 0.00012918153 2.7367849e-05 -7.065211e-05 2.369863e-06 0.000112691574 -0.00032490137 -9.997043e-05
0.00019491145 0.00042812803 -0.00018404757 0.00019210058 -0.00024059787 -6.952248e-05 -2.3318293e-05 -0.00014397001
2.3259898e-05 0.00016962185 2.2656988e-05 2.0142432e-05 0.00012672198 -2.8683618e-05 -8.7803666e-05 -9.129162e-05
-2.8974617e-05 0.00019809292 -0.000107307904 9.1791044e-05 -0.00019984273 -3.448336e-05 -1.9374178e-05 -5.452538e-05
5.1597904e-06 5.3674434e-05 6.651356e-06 5.600297e-05 1.1648843e-05 -4.7112975e-05 -2.2459477e-05 -4.3086864e-05
-5.7534235e-06 8.1868275e-05 -2.5816802e-05 -3.7077211e-06 -7.943197e-05 2.2477754e-05 5.1249353e-06 -1.5239286e-05
5.4697088e-05 -5.5667966e-05 4.5734072e-05 4.4234e-05 2.9309946e-05 -1.3676437e-05 -6.0484826e-06 -5.1074032e-05
6.399872e-05 -7.09375e-05 3.5430283e-05 1.3644546e-05 -7.723851e-05 5.7256828e-05 -1.8074782e-06 -6.785523e-05
-0.00015588665 0.00020535805 -0.00012027498 0.00025847167 -0.00014300049 7.5629156e-05 2.9932515e-05 4.5943765e-05
-0.00046501373 0.00024894276 5.5159242e-05 2.5419762e-05 5.1753377e-06 -0.00028673705 1.1820661e-05 0.00020905962
-8.786587e-05 -2.1642227e-05 -7.6236574e-05 -3.842053e-06 -0.00011848062 1.632672e-05 -3.095835e-06 8.752647e-05
-2.7066018e-05 4.6996676e-05 -0.00010140855 -0.00013677152 0.00020082136 0.00012982727 -1.0833371e-05 0.00010574395
5.15227e-05 -4.8357604e-05 9.1845155e-05 7.8587e-05 9.7720025e-05 -6.98235e-05 2.2060304e-07 -8.806007e-05
1.6713004e-05 -7.226257e-05 0.00013766153 0.00013207416 -0.00012471963 -0.00010999877 -8.281369e-06 -8.484066e-05
5.310397e-05 0.0001405295 3.0526655e-05 7.6649216e-05 9.236625e-05 -6.764946e-05 -6.728093e-05 -0.000110353234
-1.1783059e-06 0.00016667743 -7.287184e-05 6.756568e-05 -0.0002720978 2.3987133e-05 1.3837096e-05 -7.3811316e-05
0.0001683569 -5.0321374e-05 0.00010204136 -0.000151837 0.00014995573 6.149267e-05 -0.00015781126 -7.6570715e-05
0.0002812969 8.02507e-06 -7.7250785e-05 0.00014760264 -0.00022262246 4.8428923e-05 -3.413587e-05 -0.0001966506
-6.7926876e-06 0.00012169483 -1.4926866e-05 8.121193e-05 7.62574e-05 -8.758249e-06 2.1811931e-07 -1.605873e-05
-0.00019035974 6.231793e-05 -1.4555998e-05 3.096097e-05 -8.13075e-05 -0.00010092503 6.35931e-06 5.4664637e-05
00000000: 37ee d0b8 8a40 29b9 d49f cbb8 6421 d838
00000010: c5d1 e1b8 0f96 b0b9 645c 2839 8041 0c39
00000020: 330f 29b7 fcee 08b9 e377 8e39 8d1b 05b9
00000030: ccd1 5739 290c 5fb7 7060 cb38 9910 ea38
00000040: 9ce2 de37 b6cf 77b9 9ed6 3838 f23b 9bb8
00000050: 2635 9db8 0d7a 9237 8b7e 3338 3332 4738
00000060: df5e 4c39 b139 90b9 61e2 4038 437f 9bb8
00000070: 35cd 4539 a91a 2739 698a aa36 4a97 1eb8
00000080: 14ee cb37 c2dc ecb7 6325 8b37 8fba 18b8
00000090: 0f29 1538 dcb6 5338 ea28 96b6 527b e137
000000a0: f4a6 aeb7 7d67 4bb8 6d9c 1835 79c8 9e37
000000b0: 10ef e236 ad04 04b8 59d7 99b7 4536 0937
000000c0: 5e21 f5b7 83d3 6eb8 8447 66b5 4017 dcb7
000000d0: 90d4 dd38 1ca6 65b8 5f2e f538 6c36 9d38
000000e0: ab11 b7b8 a1d9 60b9 c75f b2b8 c8e7 2ab9
000000f0: aa8a 3b39 bd7e 2e39 11dd 00b8 626e dd38
00000100: 35b1 cf38 6c46 16b9 e608 de38 b69e d538
00000110: 6b39 8c38 06ad 8ab8 e919 ae38 08f6 36b8
00000120: c277 ec37 b48e 99b9 f97d 3639 471f 6037
00000130: 1601 6eb8 f19a dab6 b6b0 d8b6 3f4a 6db8
00000140: b80f 5a38 cf5e deb8 d2cf 1338 8faf e7b8
00000150: f24c 60b8 d9df 65b7 1269 acb8 f1fd 1937
00000160: 61bf 8d39 cd9e 6937 ddbc f335 768b 4737
00000170: 886b e337 6383 5738 40a0 3cb7 e2cf c8b8
00000180: 0d48 9338 e774 0739 0294 e537 102b 94b8
00000190: f009 1f36 d454 ec38 8657 aab9 37a7 d1b8
000001a0: 2561 4c39 5f76 e039 e5fc 40b9 9b6e 4939
000001b0: 0049 7cb9 99cc 91b8 a79b c3b7 a8f6 16b9
000001c0: 401e c337 85dc 3139 830f be37 8bf7 a837
000001d0: ace0 0439 9a9d f0b7 3c23 b8b8 d173 bfb8
000001e0: 840e f3b7 2ab7 4f39 7e0a e1b8 f17f c038
000001f0: e08c 51b9 3aa2 10b8 bb85 a2b7 2eb2 64b8
00000200: 4322 ad36 7c20 6138 b72e df36 bbe4 6a38
00000210: 666f 4337 2c9b 45b8 5c67 bcb7 2bb8 34b8
00000220: 880d c1b6 b2b0 ab38 2991 d8b7 2ad2 78b6
00000230: b794 a6b8 9c8e bc37 dcf6 ab36 3cac 7fb7
00000240: 8d6a 6538 067d 69b8 96d2 3f38 e587 3938
00000250: a1de f537 da73 65b7 12f4 cab6 5338 56b8
00000260: 0d37 8638 48c4 94b8 fa9a 1438 e1ea 6437
00000270: 1cfb a1b8 0d27 7038 7a98 f2b5 804d 8eb8
00000280: 8175 23b9 6255 5739 233c fcb8 7b83 8739
00000290: 67f2 15b9 189b 9e38 9617 fb37 beb3 4038
000002a0: 16cd f3b9 8884 8239 c95a 6738 863c d537
000002b0: d0a7 ad36 3255 96b9 5a51 4637 0437 5b39
000002c0: a144 b8b8 548c b5b7 33e1 9fb8 fcea 80b6
000002d0: cc78 f8b8 5df5 8837 0ac2 4fb6 6a8e b738
000002e0: d50b e3b7 4c1e 4538 4dab d4b8 536a 0fb9
000002f0: 9393 5239 3e22 0839 f9c0 35b7 dac2 dd38
00000300: 141a 5838 95d3 4ab8 fe9c c038 13cf a438
00000310: 0aef cc38 356e 92b8 e7de 6c34 e4ac b8b8
00000320: e732 8c37 ac8b 97b8 3c59 1039 637d 0a39
00000330: 2cc7 02b9 24af e6b8 36f0 0ab7 7cec b1b8
00000340: f4bb 5e38 1a5b 1339 bf09 0038 bcbe a038
00000350: c1b4 c138 07df 8db8 2d19 8db8 716d e7b8
00000360: 4826 9eb5 22c6 2e39 c5d2 98b8 0cb2 8d38
00000370: 59a8 8eb9 fa37 c937 e025 6837 26cb 9ab8
00000380: f688 3039 2a10 53b8 0aff d538 6f36 1fb9
00000390: 6f3d 1d39 a0f5 8038 237a 25b9 9794 a0b8
000003a0: 087b 9339 6aa3 0637 b301 a2b8 c8c5 1a39
000003b0: c36f 69b9 2920 4b38 1c2d 0fb8 fe33 4eb9
000003c0: beec e3b6 6a36 ff38 676e 7ab7 5350 aa38
000003d0: 61ec 9f38 65f0 12b7 2e34 6a34 dcb5 86b7
000003e0: 4e9b 47b9 afb0 8238 8935 74b7 17dc 0138
000003f0: a283 aab8 b7a7 d3b8 0f62 d536 b547 6538

exp_avg_sq f4 [16, 16]
9.800446e-06 2.5589326e-05 5.7711686e-06 1.3662733e-05 5.792008e-06 2.097974e-06 1.1380078e-05 3.488634e-06
5.69816e-05 2.0780533e-05 7.068977e-06 2.985188e-06 1.8581615e-05 1.2985534e-05 4.612291e-07 1.4299987e-05
5.909983e-07 1.6815341e-06 5.434758e-07 2.0179032e-06 1.0005333e-06 1.5179911e-06 1.2311643e-06 3.9966423e-07
5.473058e-06 2.7014926e-06 4.6941747e-07 4.1204123e-07 7.8343476e-07 6.8658875e-07 3.3090824e-08 1.2029909e-06
4.516948e-07 1.0688924e-06 3.204441e-07 8.888111e-07 3.5080777e-07 8.898679e-08 4.62135e-07 1.2633993e-07
4.487923e-06 1.3289625e-06 4.2021665e-07 2.6994644e-07 5.3426675e-07 7.9090097e-07 3.300449e-08 9.1193755e-07
5.393077e-07 2.0418065e-06 4.2221092e-07 9.724527e-07 2.6059015e-06 1.0747509e-06 8.399707e-07 1.5027516e-07
4.75856e-06 1.9005053e-06 2.3345808e-06 1.6220248e-06 4.932412e-07 3.250768e-06 5.3739438e-08 1.4112533e-06
5.545877e-07 1.3405594e-06 4.766593e-07 2.2122877e-06 6.7308605e-07 5.795019e-07 1.1584319e-06 3.9165062e-07
5.701941e-06 2.4421067e-06 1.0667765e-06 1.7078756e-07 9.4137397e-07 5.7934295e-07 3.3190833e-08 1.0617389e-06
3.087691e-07 8.081517e-07 2.2641994e-07 5.36991e-07 3.8945174e-07 3.219875e-07 2.522444e-07 1.2467414e-07
3.4270895e-06 6.4601727e-07 1.17322436e-07 1.9629584e-07 2.6336724e-07 4.33431e-07 1.628658e-08 7.1280976e-07
5.2565525e-07 1.8251587e-06 4.6856957e-07 8.8627195e-07 1.974791e-06 1.7315643e-06 9.920582e-07 1.5158508e-07
4.507502e-06 2.2470301e-06 8.674314e-07 1.2778169e-06 4.9172905e-07 2.4661315e-06 2.9668584e-08 1.1581419e-06
4.1136033e-07 1.2472336e-06 3.5724233e-07 7.127189e-07 1.2264235e-07 4.655116e-08 3.0589925e-07 1.4073323e-07
3.8220433e-06 1.0300273e-06 1.9173844e-07 1.812234e-07 3.899888e-07 5.1083634e-07 1.3862088e-08 9.415249e-07
2.915678e-07 7.5964374e-07 2.1579908e-07 5.269017e-07 2.3799963e-07 2.6976858e-07 1.9933205e-07 1.2098405e-07
2.9337084e-06 4.3617771e-07 1.8183734e-07 1.209199e-07 2.8598254e-07 3.33009e-07 2.4712685e-08 6.585137e-07
7.4147164e-07 1.8723518e-06 6.5631525e-07 2.3992882e-06 8.831808e-07 7.8753334e-07 1.1903895e-06 4.4185484e-07
6.730843e-06 3.0227616e-06 8.6427815e-07 1.9524816e-07 1.0322822e-06 7.775087e-07 4.5604285e-08 1.3686815e-06
5.5653413e-07 2.063212e-06 5.1162976e-07 1.7893676e-06 1.5354965e-06 2.389133e-07 4.8430167e-07 3.0847835e-07
4.4092885e-06 1.626671e-06 3.3586434e-06 1.2674195e-06 8.1465237e-07 2.5568716e-06 9.38846e-08 1.5079615e-06
4.903244e-07 1.1224383e-06 3.726553e-07 1.443597e-06 4.3130657e-07 1.2961985e-07 7.5241127e-07 2.3439755e-07
4.9918795e-06 1.7309108e-06 8.0069975e-07 2.235417e-07 7.31609e-07 7.702972e-07 2.6949968e-08 9.690932e-07
4.4446833e-07 1.2669326e-06 4.184735e-07 1.2296758e-06 1.7057378e-07 5.0311346e-08 3.223369e-07 2.640184e-07
3.635982e-06 1.1968817e-06 8.689371e-07 4.266823e-07 4.706285e-07 7.7300945e-07 3.2944573e-08 9.701284e-07
5.19023e-07 1.668834e-06 5.335427e-07 1.3855351e-06 1.4714427e-06 1.8898253e-06 1.1021206e-06 2.8598015e-07
4.6468253e-06 2.646067e-06 3.309504e-07 8.0179535e-07 5.820311e-07 1.5314266e-06 1.8524256e-08 1.0931846e-06
3.851363e-07 9.168192e-07 2.6679407e-07 6.182731e-07 5.367135e-07 2.3080202e-07 3.6085257e-07 1.0468737e-07
4.199729e-06 1.1813971e-06 1.08113504e-07 2.8849354e-07 3.3236736e-07 5.681374e-07 1.8108894e-08 8.2726984e-07
2.1895617e-07 5.684678e-07 1.602955e-07 3.2470663e-07 9.653562e-08 9.510561e-08 1.2424896e-07 7.227833e-08
1.9116565e-06 3.8116863e-07 9.758208e-08 6.690939e-08 2.1951695e-07 2.2412544e-07 1.4698967e-08 4.5117287e-07
00000000: 986c 2437 a9a8 d637 f6a5 c136 fe38 6537
00000010: f858 c236 ebca 0c36 10ed 3e37 471e 6a36
00000020: 87ff 6e38 db51 ae37 0d32 ed36 2455 4836
00000030: b7df 9b37 72dc 5937 d89e f734 fae9 6f37
00000040: 18a5 1e35 12b1 e135 5fe3 1135 506b 0736
00000050: 104a 8635 c7bd cb35 7c3e a535 6f91 d634
00000060: 36a5 b736 4a4b 3536 3f04 fc34 8436 dd34
00000070: 3a4d 5235 054e 3835 bf1f 0e33 7476 a135
00000080: 7680 f234 dd76 8f35 8009 ac34 a296 6e35
00000090: a756 bc34 0119 bf33 5a1b f834 0ea8 0734
000000a0: f796 9636 ce5e b235 239a e134 28ed 9034
000000b0: 886a 0f35 4d4e 5435 d2c0 0d33 dfcb 7435
000000c0: f1c4 1035 f805 0936 3aac e234 3885 8235
000000d0: 0ce1 2e36 2940 9035 597a 6135 525b 2134
000000e0: b8ab 9f36 dd14 ff35 cbab 1c36 59b4 d935
000000f0: 4767 0435 c527 5a36 23cf 6633 4b6a bd35
00000100: fade 1435 45ed b335 8ee7 ff34 d076 1436
00000110: 1fae 3435 118f 1b35 6b7b 9b35 0d44 d234
00000120: 4d53 bf36 13e3 2336 292e 8f35 ba61 3734
00000130: bab2 7c35 2584 1b35 b58d 0e33 1281 8e35
00000140: e7c4 a534 c3ef 5835 d71d 7334 be25 1035
00000150: d715 d134 a0dd ac34 356c 8734 2bde 0534
00000160: f3fc 6536 f869 2d35 b1f2 fb33 64c5 5234
00000170: eb64 8d34 4eb2 e834 91e6 8b32 ea57 3f35
00000180: c11a 0d35 faf7 f435 b68f fb34 25e8 6d35
00000190: a786 0436 1968 e835 dc26 8535 64c3 2234
000001a0: 263f 9736 afcb 1636 6fd9 6835 7481 ab35
000001b0: 5dff 0335 d17f 2536 e8d9 fe32 7471 9b35
000001c0: efd8 dc34 9f66 a735 03cb bf34 ab51 3f35
000001d0: acaf 0334 8bef 4733 793a a434 751c 1734
000001e0: 1a3f 8036 783f 8a35 a9e0 4d34 4f96 4234
000001f0: a75f d134 6820 0935 1c26 6e32 19bd 7c35
00000200: c688 9c34 52ea 4b35 66b6 6734 6970 0d35
00000210: d78c 7f34 b6d4 9034 fa07 5634 d8e7 0134
00000220: bae0 4436 cf2b ea34 113f 4334 36d6 0134
00000230: 2489 9934 69c8 b234 c547 d432 b8c4 3035
00000240: 8b09 4735 854d fb35 a42d 3035 7503 2136
00000250: b913 6d35 e166 5335 79c5 9f35 1138 ed34
00000260: 80d9 e136 a6da 4a36 be00 6835 68a5 5134
00000270: f28c 8a35 feb5 5035 71de 4333 8ab3 b735
00000280: bc64 1535 b675 0a36 ee56 0935 342a f035
00000290: 4217 ce35 fe43 8034 f500 0235 f19c a534
000002a0: 80f3 9336 fd53 da35 0e65 6136 341c aa35
000002b0: 7cae 5a35 b896 2b36 9b9d c933 2a65 ca35
000002c0: d69e 0335 b0a6 9635 5b11 c834 9dc1 c135
000002d0: 538e e734 a22d 0b34 4ff9 4935 b5ae 7b34
000002e0: eb7f a736 a451 e835 abef 5635 ad06 7034
000002f0: ca63 4435 6cc6 4e35 9b7f e732 ca11 8235
00000300: 439f ee34 790b aa35 8faa e034 570b a535
00000310: f726 3734 e915 5833 a50d ad34 6abe 8d34
00000320: b201 7436 8ba4 a035 e740 6935 c512 e534
00000330: b0aa fc34 ce80 4f35 f17e 0d33 5c35 8235
00000340: fd52 0b35 b3fc df35 c638 0f35 a0f6 b935
00000350: 637e c535 e7a5 fd35 93ec 9335 d088 9934
00000360: edeb 9b36 1693 3136 7aad b134 f53a 5735
00000370: df3c 1c35 6b8b cd35 451f 9f32 89b9 9235
00000380: bbc4 ce34 561b 7635 e63b 8f34 67f7 2535
00000390: ac12 1035 60d2 7734 33bb c134 7ed0 e033
000003a0: 66eb 8c36 7f90 9e35 072c e833 40e2 9a34
000003b0: 3970 b234 1b82 1835 e18d 9b32 8d11 5e35
000003c0: 371a 6b34 cf98 1835 b11d 2c34 5753 ae34
000003d0: 054f cf33 dd3c cc33 4b69 0534 6f37 9b33
000003e0: 024a 0036 6ba3 cc34 518e d133 d3af 8f33
000003f0: 5cb4 6b34 22a7 7034 be86 7c32 ba38 f234

exp_avg f4 [784, 16]
-1.5163684e-05 -2.8899942e-05 5.3580707e-06 -1.9294926e-05 -2.2166952e-05 -2.794381e-05 1.2057813e-05 2.214657e-05
2.5579914e-06 -2.0611784e-05 2.5929647e-05 -1.8312853e-06 4.1950705e-05 1.46004095e-05 2.0220273e-06 9.289153e-06
8.550797e-06 -4.398051e-06 5.0197073e-06 5.926381e-06 2.3673949e-05 -7.890819e-07 -1.09425955e-05 1.3249232e-05
-1.297539e-05 -1.8290602e-06 -5.0307535e-06 2.2816685e-05 -1.579233e-05 -1.4338361e-05 -6.3101484e-06 -6.8309923e-06
-1.9353011e-07 1.6268415e-06 -4.1932935e-06 8.093582e-06 2.139654e-06 -1.224156e-06 2.714892e-07 3.5818807e-06
-1.1807273e-05 2.4216172e-06 6.1956206e-07 4.1842114e-07 9.793491e-07 -7.86351e-06 -9.604967e-07 6.089864e-06
-9.296099e-07 -2.261627e-06 1.3732939e-06 5.7928874e-06 5.641635e-06 2.4651108e-06 -7.16797e-06 4.2469983e-06
-8.2588457e-07 -3.0275366e-06 -3.5156136e-06 1.3078848e-08 -1.0666322e-06 6.5301265e-06 -5.580274e-06 -1.6879804e-06
2.188844e-05 -4.4184276e-06 1.526186e-05 -2.0139798e-05 9.1093045e-07 2.1051465e-06 -7.442386e-06 -1.9860163e-05
3.6738933e-05 2.8232428e-06 4.5290194e-06 -4.4784265e-06 -1.8147222e-05 8.265207e-06 2.9439288e-06 -2.0980275e-05
1.2678566e-05 3.4420882e-05 -8.4218755e-07 -8.905581e-07 1.8193785e-05 -2.4162846e-05 -1.625481e-05 6.4265964e-07
-4.0328337e-06 5.886408e-05 -6.8094582e-06 2.1666154e-05 -4.115334e-05 -4.1911386e-05 -3.5638254e-06 -6.8448635e-06
-7.6074984e-06 3.0697777e-06 -4.0104887e-06 -8.271233e-06 9.061491e-06 -1.5741274e-05 2.3932003e-05 3.095326e-07
-5.1237016e-06 -1.6425302e-05 1.0900812e-06 -2.6123187e-06 -5.664135e-06 2.0598265e-05 1.1480193e-05 -4.0853784e-06
-1.6464639e-06 1.0545218e-05 -5.032706e-06 -2.4854587e-06 6.0514753e-06 1.2340353e-06 -3.1788616e-06 4.0999394e-06
-1.0554901e-05 1.1724013e-05 -3.45395e-06 7.5285006e-06 -6.0289526e-06 -1.0647834e-05 6.0760834e-07 1.2383356e-06
-1.4527748e-07 1.5787811e-05 -5.7073426e-06 5.436743e-06 8.547061e-06 -1.1227038e-06 -1.6413634e-06 2.3925554e-06
-1.970522e-05 1.8620078e-05 -7.985533e-06 9.817599e-06 -1.6616426e-05 -5.9481054e-06 -8.5860967e-07 -8.712691e-07
-1.6545711e-05 2.9130833e-05 -1.9754621e-05 3.4597055e-05 -1.52925e-05 -5.1695392e-06 1.8793527e-05 4.967809e-06
-5.5011922e-05 1.2157416e-05 1.1931726e-05 -9.809328e-06 -1.4066807e-05 -1.2289234e-05 1.0788899e-05 2.5572388e-05
4.4003177e-06 -4.2333308e-05 4.1240128e-07 6.18832e-06 -4.461377e-05 -1.3957138e-06 1.3552605e-05 6.845217e-06
3.0347594e-05 -5.659752e-05 3.5580542e-05 -2.058241e-05 2.9849509e-05 2.2769837e-05 1.806764e-05 -2.4912522e-06
3.5782065e-05 -8.196905e-05 2.9868266e-05 -2.133831e-05 -3.2467942e-05 -1.1798135e-05 -1.684667e-05 -5.188332e-06
0.000118383316 -7.757802e-05 3.181918e-05 -1.146297e-05 3.0277994e-05 4.5997567e-05 1.6942739e-05 -5.0421702e-05
1.8622171e-05 -1.7623144e-05 1.7945787e-05 -7.493402e-06 4.157835e-06 -1.6644724e-05 -1.289317e-05 -1.6277658e-05
4.9464692e-05 -1.3978544e-05 -5.68535e-07 -7.404432e-06 -3.9362203e-06 2.3289349e-05 7.039948e-06 -2.3699968e-05
4.384391e-06 -5.593574e-06 1.6421917e-06 -2.504334e-07 1.0370135e-05 -8.852646e-06 7.123385e-06 1.2732305e-06
-6.5137724e-06 -1.715791e-05 1.19690985e-05 -2.2311242e-06 9.540755e-06 -1.0762167e-05 4.120609e-08 5.0172457e-06
2.321747e-06 1.2606774e-05 -3.2749922e-06 9.823621e-06 -6.145552e-06 -5.4248208e-06 2.5406662e-06 -9.2732225e-06
3.1836523e-06 1.9402813e-05 -1.679283e-06 -7.64178e-06 -2.2253029e-05 6.303779e-06 4.350213e-06 -4.8405823e-06
8.639945e-06 -1.736204e-06 5.1808433e-06 3.0868432e-06 5.954047e-06 -9.034519e-06 -1.3731959e-06 -5.5108585e-06
7.052942e-06 7.1463876e-07 6.180942e-06 4.6638243e-06 -1.1112202e-05 -5.689482e-06 2.0796381e-07 -7.225522e-06
00000000: 8767 7eb7 276e f2b7 7ac9 b336 8adb a1b7
00000010: 2bf3 b9b7 e068 eab7 ea4b 4a37 66c7 b937
00000020: f5a9 2b36 78e7 acb7 7e83 d937 7cca f5b5
00000030: 3af4 2f38 48f4 7437 2ab2 0736 9cd8 1b37
00000040: 6575 0f37 f892 93b6 f56e a836 3adb c636
00000050: 6b97 c637 4cd1 53b5 1796 37b7 0549 5e37
00000060: e0b0 59b7 087e f5b5 d8cd a8b6 7566 bf37
00000070: c579 84b7 cb8e 70b7 c3bb d3b6 c735 e5b6
00000080: 27cd 4fb4 d959 da35 1eb4 8cb6 acc9 0737
00000090: fa96 0f36 ae4d a4b5 31c1 9134 3e60 7036
000000a0: da17 46b7 1183 2236 fb4f 2635 5da3 e034
000000b0: 2e72 8335 85ed 03b7 6aea 80b5 8957 cc36
000000c0: 4e8a 79b5 75c6 17b6 0552 b835 8660 c236
000000d0: 474d bd36 486e 2536 6584 f0b6 7081 8e36
000000e0: 5bb2 5db5 af2c 4bb6 c8ed 6bb6 62b1 6032
000000f0: 3429 8fb5 5c1d db36 303e bbb6 918e e2b5
00000100: 119d b737 0142 94b6 9806 8037 e3f1 a8b7
00000110: aa86 7435 2446 0d36 9cb9 f9b6 6099 a6b7
00000120: 2118 1a38 f176 3d36 fbf7 9736 6445 96b6
00000130: dd3a 98b7 cbaa 0a37 5090 4536 ccfe afb7
00000140: 07b6 5437 245f 1038 b012 62b5 b00e 6fb5
00000150: db9e 9837 51b1 cab7 f05a 88b7 3c83 2c35
00000160: c751 87b6 d3e4 7638 cd7c e4b6 b6bf b537
00000170: 109c 2cb8 02ca 2fb8 0e2a 6fb6 eeac e5b6
00000180: ea43 ffb6 6102 4e36 d691 86b6 adc4 0ab7
00000190: cf06 1837 210c 84b7 96c1 c837 d62d a634
000001a0: 43ec abb6 11c9 89b7 e84e 9235 4b4f 2fb6
000001b0: 8d0e beb6 70ca ac37 0e9b 4037 2215 89b6
000001c0: 12fc dcb5 5eeb 3037 9ede a8b6 dbcb 26b6
000001d0: c70d cb36 21a1 a535 6d54 55b6 3692 8936
000001e0: f414 31b7 41b2 4437 69ca 67b6 549d fc36
000001f0: 4f4c cab6 19a4 32b7 871a 2335 e334 a635
00000200: 92fd 1bb4 1170 8437 b381 bfb6 446d b636
00000210: 5965 0f37 cfaf 96b5 d14c dcb5 ca8f 2036
00000220: a34c a5b7 5032 9c37 9af9 05b7 44b6 2437
00000230: 8163 8bb7 d695 c7b6 357b 66b5 28e1 69b5
00000240: a5cb 8ab7 fd5d f437 bab6 a5b7 4e1c 1138
00000250: 6548 80b7 0176 adb6 cba6 9d37 28b1 a636
00000260: 9abc 66b8 b4f7 4b37 5f2e 4837 be92 24b7
00000270: 7a00 6cb7 dc2d 4eb7 f801 3537 4984 d637
00000280: 71a6 9336 0b8f 31b8 0068 dd34 44a5 cf36
00000290: ac1f 3bb8 5c54 bbb5 ff5f 6337 f7af e536
000002a0: f692 fe37 2063 6db8 513c 1538 64a8 acb7
000002b0: 5565 fa37 da01 bf37 f68f 9737 632f 27b6
000002c0: b314 1638 cce6 abb8 9d8d fa37 acff b2b7
000002d0: 302e 08b8 9bf0 45b7 f351 8db7 6f17 aeb6
000002e0: 8f44 f838 62b1 a2b8 9675 0538 1551 40b7
000002f0: 7ffd fd37 83ed 4038 4120 8e37 e47b 53b8
00000300: cf36 9c37 6ad5 93b7 498a 9637 d56f fbb6
00000310: 8883 8b36 46a0 8bb7 be4f 58b7 018c 88b7
00000320: 4f78 4f38 6485 6ab7 6d9d 18b5 9673 f8b6
00000330: e013 84b6 7f5d c337 b138 ec36 4bcf c6b7
00000340: a21d 9336 6fb0 bbb6 4769 dc35 4e73 86b4
00000350: 64fb 2d37 d385 14b7 6905 ef36 dee3 aa35
00000360: e190 dab6 55ee 8fb7 e3ce 4837 6cba 15b6
00000370: 3b11 2037 288f 34b7 93fa 3033 d059 a836
00000380: 4fcf 1b36 af81 5337 f0c7 5bb6 22d0 2437
00000390: e435 ceb6 db06 b6b6 5080 2a36 3094 1bb7
000003a0: bba6 5536 39c3 a237 b963 e1b5 3235 00b7
000003b0: 04ac bab7 0d85 d336 0cf8 9136 496c a2b6
000003c0: 48f4 1037 8407 e9b5 1bd7 ad36 9027 4f36
000003d0: e0c8 c736 f792 17b7 a74e b8b5 eae9 b8b6
000003e0: 4fa8 ec36 9ad5 3f35 e365 cf36 f27d 9c36
000003f0: 8b6e 3ab7 47e8 beb6 a84c 5f34 c372 f2b6

exp_avg_sq f4 [784, 16]
4.4112962e-08 3.13733e-07 2.975571e-08 2.0626606e-08 1.755375e-07 9.3597095e-08 6.495533e-08 8.209035e-08
1.6056656e-07 6.6222634e-07 6.744537e-08 5.489534e-08 4.4163926e-07 3.196053e-07 2.1560343e-08 3.1718102e-08
2.0495014e-08 2.2096291e-08 2.041963e-08 8.497052e-09 8.061901e-09 3.038486e-09 5.516309e-09 1.2543085e-08
3.4722305e-08 2.0013811e-08 5.3200533e-09 7.464941e-09 2.5727516e-08 1.077839e-08 3.901761e-09 7.747322e-09
8.530847e-10 7.557741e-09 1.0725955e-09 1.3546373e-08 3.4704106e-09 2.904486e-09 8.884348e-09 3.7388546e-09
8.001372e-09 5.375231e-09 4.2086765e-09 6.2363303e-10 4.8060746e-09 6.5984627e-09 6.537122e-10 6.2299508e-09
1.2755657e-08 1.7066395e-08 2.298323e-09 5.162251e-09 8.418584e-09 4.719655e-09 4.990034e-09 8.4722185e-09
3.5978143e-08 1.3733062e-08 2.5976803e-09 1.2715525e-08 3.97747e-08 8.274182e-09 8.3933366e-10 1.5895564e-08
6.7055232e-09 2.584234e-09 3.5102754e-09 8.434664e-09 1.8871618e-09 1.0911954e-09 2.768869e-09 6.7198496e-09
2.8690401e-08 4.5202535e-09 7.3184825e-10 1.2399946e-09 1.020357e-08 3.0238774e-09 4.995031e-10 9.406619e-09
1.3149404e-09 2.8466093e-08 1.5946044e-09 3.8505352e-08 9.793806e-09 1.812262e-08 2.217993e-08 7.474108e-09
3.2444785e-08 3.784193e-08 1.9137328e-08 1.7460682e-08 2.5542827e-08 9.1087166e-08 2.8773584e-09 1.6407915e-08
7.9051885e-09 2.1965349e-08 2.114302e-09 1.4372631e-08 1.4527614e-08 1.0926429e-08 1.3678783e-08 5.0726943e-09
4.1058065e-08 3.1834663e-08 8.415657e-09 3.0227962e-08 3.107453e-08 5.2563962e-08 4.0462855e-09 1.7149484e-08
2.4999216e-09 1.971492e-08 1.3916484e-09 4.052392e-09 4.8462545e-09 1.501093e-09 4.099923e-09 1.3237157e-09
1.706882e-08 2.9936007e-08 5.7642104e-09 1.1694259e-08 3.711367e-08 8.3453955e-09 3.5292114e-10 5.839598e-09
2.4360922e-09 1.0767559e-08 2.2574782e-09 3.269321e-09 4.257225e-09 1.5055265e-09 2.9536422e-09 1.3408967e-09
1.8061927e-08 1.2827374e-08 2.9303153e-09 5.16959e-09 1.4990794e-08 6.6076318e-09 4.425986e-10 3.8729104e-09
5.1982036e-09 1.88511e-08 4.7152593e-09 9.547273e-09 6.429588e-09 1.2712406e-09 5.28695e-09 1.5601419e-09
4.0184585e-08 1.1573039e-08 6.4654726e-09 1.9879587e-09 6.2108887e-09 6.9869626e-09 1.0336971e-09 1.0218344e-08
7.804603e-09 2.5453827e-08 6.1742886e-09 1.0125058e-08 6.9431247e-09 1.4586424e-09 6.0778342e-09 2.0887752e-09
6.35934e-08 1.7916602e-08 5.0020743e-09 1.9993134e-09 9.759136e-09 1.0032473e-08 1.1414137e-09 1.561373e-08
1.0105347e-08 3.9097902e-08 8.141939e-09 8.974204e-09 9.359804e-09 1.8414502e-09 8.971552e-09 3.3396765e-09
8.604014e-08 3.4623223e-08 4.9386824e-09 2.7280658e-09 2.1868143e-08 1.7134372e-08 1.604343e-09 2.0452436e-08
7.3921176e-09 2.0345249e-08 6.3346666e-09 3.4401522e-09 8.338143e-09 2.8717004e-09 8.24651e-09 3.066267e-09
4.0417792e-08 2.1923414e-08 4.3921946e-09 3.0505165e-09 2.019447e-08 8.828183e-09 1.0547608e-09 1.0428097e-08
5.9046754e-09 1.394894e-08 4.345297e-09 2.347831e-09 1.0152764e-08 3.7302783e-09 8.242361e-09 2.932958e-09
2.2429191e-08 1.937717e-08 5.445838e-09 3.6236618e-09 2.3743914e-08 6.7134156e-09 1.164403e-09 6.3846204e-09
5.2284723e-09 3.819537e-09 3.432128e-09 1.5036726e-09 6.6877854e-09 1.9790214e-09 8.826809e-09 2.2432298e-09
6.9597506e-09 1.0881313e-08 4.2649257e-09 3.0677734e-09 1.4273177e-08 2.6454674e-09 3.835248e-10 3.0819807e-09
2.3385165e-09 8.458099e-10 1.2588101e-09 7.1924294e-10 2.162119e-09 5.804598e-10 3.5088226e-09 1.2662391e-09
5.511481e-09 3.3040244e-09 1.4771468e-09 1.4171129e-09 7.313502e-09 1.4010834e-09 1.1761163e-10 2.72607e-09
00000000: b776 3d33 236f a834 8099 ff32 632e b132
00000010: 617b 3c34 8cff c833 927d 8b33 a649 b033
00000020: 3368 2c34 d9c3 3135 7cd6 9033 11c6 6b33
00000030: 701a ed34 3896 ab34 b233 b932 6c3a 0833
00000040: 030d b032 42ce bd32 3e67 af32 6efa 1132
00000050: 9e80 0a32 9ccd 5031 f889 bd31 127d 5732
00000060: 9421 1533 d6ea ab32 afcb b631 283f 0032
00000070: 68ff dc32 dc2b 3932 4110 8631 1519 0532
00000080: 807e 6a30 4cd7 0132 996a 9330 94b9 6832
00000090: 1c7c 6e31 4298 4731 c7a1 1832 5077 8031
000000a0: 6876 0932 08b1 b831 e99b 9031 466c 2b30
000000b0: ae22 a531 b1b8 e231 e8b0 3330 3a0f d631
000000c0: f923 5b32 6699 9232 87f0 1d31 a45f b131
000000d0: 53a1 1032 862a a231 ce74 ab31 368d 1132
000000e0: 6386 1a33 a5ee 6b32 e082 3231 7873 5a32
000000f0: bfd4 2a33 3d26 0e32 dbb6 6630 b78a 8832
00000100: 6866 e631 5396 3131 6b39 7131 0be8 1032
00000110: 4daf 0131 06f9 9530 7546 3e31 6ce4 e631
00000120: dc72 f632 9250 9b31 3e2b 4930 6e6c aa30
00000130: c74b 2f32 9dcc 4f31 684d 0930 bf9a 2132
00000140: 5ab9 b430 9a85 f432 2829 db30 1561 2533
00000150: 9d41 2832 10ac 9b32 2f86 be32 7a67 0032
00000160: 6b59 0b33 a487 2233 6e63 a432 72fc 9532
00000170: 4569 db32 b39b c333 06bb 4531 63f1 8c32
00000180: 63cf 0732 50ae bc32 324b 1131 80eb 7632
00000190: 1f95 7932 f1b6 3b32 edff 6a32 e44b ae31
000001a0: d257 3033 95ba 0833 7394 1032 ffd3 0133
000001b0: cf76 0533 b0c2 6133 8107 8b31 1d50 9332
000001c0: 16cb 2b31 9159 a932 4644 bf30 383d 8b31
000001d0: 1b84 a631 044f ce30 4edf 8c31 1bee b530
000001e0: bb9e 9232 fd92 0033 880e c631 e5e7 4832
000001f0: e966 1f33 705f 0f32 3c05 c22f a6a5 c831
00000200: 3068 2731 3afc 3832 fa21 1b31 81aa 6031
00000210: f246 9231 01eb ce30 06f9 4a31 9c4a b830
00000220: 9926 9b32 635f 5c32 a75e 4931 32a0 b131
00000230: 1bc5 8032 5809 e331 3752 f32f 7b12 8531
00000240: e29b b231 02ee a132 dc03 a231 5a05 2432
00000250: 41eb dc31 cdb7 ae30 81a8 b531 9d6c d630
00000260: 6b97 2c33 c4d2 4632 e626 de31 8a9c 0831
00000270: 8e67 d531 f911 f031 fc11 8e30 c18c 2f32
00000280: 0215 0632 8fa5 da32 9e25 d431 7af2 2d32
00000290: 5f90 ee31 6b79 c830 32d5 d031 1f8a 0f31
000002a0: d790 8833 06e7 9932 b6de ab31 4b64 0931
000002b0: 22a9 2732 485b 2c32 eddf 9c30 f51e 8632
000002c0: c99b 2d32 99ec 2733 a0e0 0b32 f72c 1a32
000002d0: dacc 2032 4516 fd30 4e21 1a32 3680 6531
000002e0: 11c5 b833 a3b4 1433 1cb1 a931 a478 3b31
000002f0: 8ed8 bb32 e22e 9332 cd7f dc30 62af af32
00000300: c1fd fd31 adc3 ae32 51a8 d931 cc67 6c31
00000310: 8a3f 0f32 7d57 4531 89ac 0d32 57b6 5231
00000320: d597 2d33 1952 bc32 27ea 9631 41a1 5131
00000330: 1c78 ad32 c2aa 1732 19f7 9030 4127 3332
00000340: 13e2 ca31 16a4 6f32 a34d 9531 7b57 2131
00000350: 546c 2e32 e02b 8031 499a 0d32 258d 4931
00000360: 50aa c032 d972 a632 191e bb31 2204 7931
00000370: 6bf5 cb32 d4ab e631 ca08 a030 b75f db31
00000380: 21a6 b331 013d 8331 a2da 6b31 c7a9 ce30
00000390: 62ca e531 50ff 0731 b7a4 1732 5127 1a31
000003a0: 9d22 ef31 85f0 3a32 af8a 9231 d7d0 5231
000003b0: 1936 7532 8ecb 3531 51d8 d22f c7ca 5331
000003c0: 9eb3 2031 957e 6830 7102 ad30 39b4 4530
000003d0: 6694 1431 3a8e 1f30 dc1f 7131 d407 ae30
000003e0: 805f bd31 030d 6331 7c04 cb30 3ac4 c230
000003f0: 3e4a fb31 3d90 c030 bb50 012f 8855 3b31

exp_avg f4 [16]
-0.0005938868 -0.0003560831 -0.00070595474 0.0008511279 7.839882e-05 0.00054090394 0.00045598714 -0.00011868086
0.0014470995 9.191079e-05 -0.00043852875 -0.0005855425 -0.0012479003 -0.00062747335 0.0001566778 9.4740855e-05
00000000: 12af 1bba aab0 bab9 d20f 39ba 3a1e 5f3a
00000010: 0c6a a438 73cb 0d3a 8f11 ef39 4de4 f8b8
00000020: 9aac bd3a 3bc0 c038 55ea e5b9 187f 19ba
00000030: 9690 a3ba 067d 24ba e049 2439 9caf c638

exp_avg_sq f4 [16]
4.492459e-05 6.577117e-05 3.9382863e-05 0.00010647718 5.251309e-05 5.6113277e-05 2.767346e-05 2.1688356e-05
8.3021754e-05 8.54182e-05 2.8919008e-05 2.7623968e-05 2.7581858e-05 0.00013543782 5.514507e-06 2.272705e-05
00000000: 696d 3c38 a1ee 8938 072f 2538 804c df38
00000010: 8041 5c38 2c5b 6b38 4e24 e837 64ef b537
00000020: f71b ae38 8c22 b338 1997 f237 05ba e737
00000030: 975f e737 5004 0e39 4109 b936 f8a5 be37

exp_avg f4 [16]
0.00045980737 -9.659356e-05 0.00059354474 0.00057966297 0.0005085675 -0.0006274688 -0.00061317056 -0.00046655384
0.00024102518 0.00018611406 7.298366e-05 0.00059451 -0.0009081758 -8.6676504e-05 -0.00013525123 -0.00044061465
00000000: 4d12 f139 4692 cab8 1d98 1b3a 86f4 173a
00000010: 6351 053a b87c 24ba 2ebd 20ba cc9b f4b9
00000020: b4bb 7c39 9d27 4339 ce0e 9938 e4d8 1b3a
00000030: a512 6eba 18c6 b5b8 3ad2 0db9 4c02 e7b9

exp_avg_sq f4 [16]
2.678151e-05 5.7971338e-05 2.9135494e-05 6.683809e-05 0.00010455533 7.730795e-05 0.000104399725 4.3403954e-05
5.6164947e-05 0.00015453665 9.132743e-05 8.878761e-05 8.668033e-05 0.00012789865 1.03979255e-05 2.4262416e-05
00000000: dba8 e037 4026 7338 ff67 f437 6d2b 8c38
00000010: b744 db38 6420 a238 2df1 da38 a40c 3638
00000020: a792 6b38 1e0b 2239 0a87 bf38 7c33 ba38
00000030: 26c8 b538 881c 0639 c072 2e37 2487 cb37

exp_avg f4 [16]
-0.0001374313 -6.861517e-05 -0.00045237382 0.00073929474 6.0898265e-06 0.00016743307 0.0005291209 -0.00021843868
0.0010826866 -3.5611403e-05 -0.00037306675 -0.0010899808 -0.0007757951 -0.00021995562 0.00022099381 0.00010114517
00000000: 6f1b 10b9 7de5 8fb8 962c edb9 3bcd 413a
00000010: 3657 cc36 f990 2f39 b4b4 0a3a b00c 65b9
00000020: efe8 8d3a 745d 15b8 2c98 c3b9 b0dd 8eba
00000030: ba5e 4bba e3a3 66b9 93ba 6739 e61d d438

exp_avg_sq f4 [16]
1.8534145e-05 3.448373e-05 2.7784077e-05 5.910076e-05 3.304241e-05 2.9795883e-05 3.0818577e-05 1.4392693e-05
4.1394876e-05 6.7823436e-05 2.8430188e-05 1.2567269e-05 2.4490279e-05 0.00014041127 3.9508795e-06 1.4967936e-05
00000000: c679 9b37 a0a2 1038 da11 e937 f5e2 7738
00000010: 0597 0a38 2cf2 f937 3243 0138 2578 7137
00000020: 699f 2d38 6e3c 8e38 5d7d ee37 02d8 5237
00000030: 7970 cd37 5d3b 1339 cc91 8436 cc1e 7b37

exp_avg f4 [16]
0.00059332 0.00012630728 0.00034234632 0.00030178623 0.00026063249 -0.00043049455 -0.00014360648 -0.0006935127
0.00016642494 0.00023018636 -7.362946e-05 0.00041981036 -0.0009444702 -0.000102593556 -1.4271698e-05 -0.000514181
00000000: 0889 1b3a 5a71 0439 f27c b339 1039 9e39
00000010: 80a5 8839 00b4 e1b9 1295 16b9 d9cc 35ba
00000020: 5b82 2e39 2e5e 7139 8469 9ab8 fe19 dc39
00000030: 5296 77ba 7f27 d7b8 7a70 6fb7 1aca 06ba

exp_avg_sq f4 [16]
2.1395996e-05 2.2935043e-05 1.6346254e-05 4.4578654e-05 5.38198e-05 4.3387354e-05 6.577366e-05 2.8855713e-05
6.113479e-05 5.4320226e-05 3.439321e-05 3.7348604e-05 5.145957e-05 8.864027e-05 8.605566e-06 1.6598422e-05
00000000: 8d7b b337 a164 c037 501f 8937 f7f9 3a38
00000010: 92bc 6138 d1fa 3538 f7ef 8938 2c0f f237
00000020: 7e35 8038 e6d5 6338 6e41 1038 c2a6 1c38
00000030: 4bd6 5738 62e4 b938 a060 1037 d73c 8b37

exp_avg f4 [48, 16]
6.161706e-06 -5.851789e-06 1.2196295e-05 -4.2038042e-05 3.132121e-05 5.422274e-06 6.6968796e-06 -2.3470598e-06
-1.1658472e-05 -2.1156427e-06 -4.389477e-06 2.7601145e-05 7.8252e-06 -2.6535334e-05 -1.7523224e-05 1.4942651e-05
-3.2483473e-05 -2.8039034e-05 6.0319253e-05 8.1962635e-06 -5.8805963e-05 2.3194283e-05 6.367124e-05 -1.790115e-05
-8.900751e-05 2.6479593e-05 -5.428738e-05 9.313896e-06 -5.694138e-05 9.873197e-05 4.1949997e-06 -2.7840204e-06
1.361584e-05 8.1703405e-07 -1.5911088e-06 -1.1453536e-06 2.9546874e-05 1.6819351e-05 -4.147214e-05 -1.9348915e-06
2.4897943e-05 -4.1436328e-05 2.697682e-06 3.536531e-05 5.404598e-06 -4.457676e-05 2.8823056e-06 2.9339446e-06
-2.0183263e-05 1.6190645e-06 -4.650691e-06 9.016661e-06 -1.627896e-05 9.5461e-06 3.7018021e-06 1.2182907e-06
-8.584809e-06 -3.5620405e-06 1.0954101e-05 2.8881013e-06 4.8959523e-06 -1.3835695e-06 3.446109e-06 3.5252956e-06
1.3274769e-05 -2.3762956e-05 9.171744e-05 2.8872662e-05 -9.333832e-05 4.3475684e-05 8.941799e-05 -3.9011506e-05
-0.00015666871 2.3854744e-05 -9.488166e-05 9.981303e-07 -0.00011427744 0.00013112494 2.4962084e-05 -1.47666615e-05
3.3372773e-05 -7.686701e-06 2.009453e-05 1.45757385e-05 3.5125144e-05 2.4425008e-06 -1.8409033e-06 -8.401789e-06
-2.923882e-05 -4.8029935e-05 1.2097326e-05 2.7682365e-05 -7.6084402e-06 -5.8708203e-05 9.460354e-06 -1.5699521e-05
1.712254e-05 -1.1744564e-06 8.458731e-06 -3.516107e-05 2.1120364e-05 2.6203174e-05 -1.5139101e-05 3.0211625e-06
-2.0915084e-05 5.8308988e-06 -8.06937e-06 2.5071304e-05 4.7488384e-06 -4.554252e-05 -6.9148205e-06 1.6702697e-05
-3.8705162e-05 -2.6068736e-05 2.7574863e-05 -5.2905148e-06 -1.9137979e-05 -4.927601e-05 4.8418533e-05 6.955091e-06
-2.423752e-06 5.1694828e-05 1.3134015e-05 -4.306783e-05 -3.4684712e-07 6.9581125e-05 -2.1347834e-05 -1.4814019e-06
2.2538468e-05 -6.8169556e-06 6.463702e-06 1.9010273e-05 1.0616677e-05 -3.2485314e-05 1.40472275e-05 -1.8567447e-05
4.4922253e-05 1.0927024e-06 1.0456677e-06 1.0223242e-06 -8.755498e-06 1.8700905e-05 -1.2017501e-05 -4.4505556e-05
8.768526e-05 -4.658489e-05 1.7745873e-05 -0.00010193063 5.512288e-05 9.738827e-06 7.150618e-05 -5.7733236e-05
-1.5342595e-05 4.428803e-07 1.6765758e-05 1.15057965e-05 6.040674e-05 -2.467719e-06 -9.059394e-05 7.970757e-06
5.2359014e-06 -2.1236776e-05 -2.2232447e-05 -1.5653299e-05 1.9369072e-06 4.5240973e-05 1.6285856e-05 3.8603925e-05
-3.0410214e-05 2.0673574e-06 4.166679e-06 -4.185377e-07 5.5461274e-05 -9.873375e-05 1.1522956e-06 1.7284021e-05
-7.605553e-05 6.136654e-05 6.6841035e-06 6.650926e-05 -4.7614627e-05 -3.9199374e-05 -6.1910156e-05 4.1795574e-06
4.445556e-05 -1.8461911e-05 -2.4135155e-05 -7.1688205e-06 -6.758631e-05 0.000112704314 6.109931e-05 -2.697607e-05
-3.1854284e-05 2.0417649e-05 -1.1308192e-05 8.5288026e-05 -5.057651e-05 1.7877905e-05 -5.7102876e-05 7.549147e-05
-3.7370344e-06 -3.007664e-05 -6.554761e-05 4.413861e-06 -0.000102466205 6.699046e-05 8.768159e-05 -5.0533068e-05
-1.5969264e-05 -5.7372774e-05 -6.5129177e-07 -5.7193523e-05 8.2673e-06 9.632684e-05 4.455879e-05 1.765155e-05
-0.00011007116 7.968548e-06 6.302138e-05 2.46384e-06 0.00011630132 -0.00017981305 -4.3428292e-05 0.00010023827
-5.986259e-05 1.3271765e-05 -1.9588735e-05 -6.8504423e-06 -2.135302e-05 7.962076e-05 -2.1193433e-05 5.9257312e-05
-4.4246346e-05 7.47861e-06 -3.0603856e-05 1.1085793e-05 -2.4550556e-05 -3.5175428e-05 4.1176994e-05 2.667666e-05
1.0579824e-05 1.898372e-05 -2.3145062e-06 -6.3229268e-06 -2.9649402e-05 1.1145926e-05 -4.327743e-06 3.1473333e-05
-1.9162017e-06 -3.7088335e-05 -5.0108272e-05 4.2353863e-06 -4.3236312e-05 8.979614e-05 2.5262838e-05 -3.8246857e-05
00000000: a7c0 ce36 7c5a c4b6 b09e 4c37 0152 30b8
00000010: e55e 0338 fbf0 b536 c2b5 e036 2e82 1db6
00000020: c298 43b7 77fa 0db6 5249 93b6 0289 e737
00000030: fa48 0337 3298 deb7 d6fe 92b7 33b2 7a37
00000040: dd3e 08b8 5e35 ebb7 4eff 7c38 af82 0937
00000050: 6ca6 76b8 5891 c237 3d87 8538 6d2a 96b7
00000060: 8ba9 bab8 7e20 de37 a1b2 63b8 e142 1c37
00000070: 57d4 6eb8 530e cf38 c6c2 8c36 1bd5 3ab6
00000080: 966f 6437 2752 5b35 158e d5b5 0dba 99b5
00000090: 6edb f737 4817 8d37 5ff2 2db8 2fd9 01b6
000000a0: eddb d037 ebcb 2db8 d309 3536 3655 1438
000000b0: 2559 b536 eef7 3ab8 a26d 4136 c9e4 4436
000000c0: 3a4f a9b7 a24e d935 220d 9cb6 4446 1737
000000d0: cd8e 88b7 3028 2037 7a6c 7836 2684 a335
000000e0: 7907 10b7 640b 6fb6 81c7 3737 34d1 4136
000000f0: e947 a436 16b3 b9b5 b443 6736 1e94 6c36
00000100: b3b6 5e37 8f56 c7b7 6d58 c038 9233 f237
00000110: a1be c3b8 a959 3638 eb85 bb38 49a0 23b8
00000120: 7047 24b9 ac1b c837 34fb c6b8 7ff7 8535
00000130: 3ca8 efb8 957e 0939 ab65 d137 54be 77b7
00000140: bef9 0b38 21f6 00b7 ad90 a837 528a 7437
00000150: 5653 1338 d8e9 2336 f514 f7b5 69f5 0cb7
00000160: e345 f5b7 c073 49b8 9ff5 4a37 6d37 e837
00000170: 014c ffb6 743d 76b8 e9b7 1e37 77b2 83b7
00000180: 60a2 8f37 04a2 9db5 f9e9 0d37 e979 13b8
00000190: a32b b137 e3ce db37 f2fd 7db7 2dbf 4a36
000001a0: cd72 afb7 0aa7 c336 ae61 07b7 3750 d237
000001b0: 3658 9f36 e904 3fb8 db05 e8b6 c51c 8c37
000001c0: 5a57 22b8 2fae dab7 9150 e737 2d85 b1b6
000001d0: 7f8a a0b7 b6ad 4eb8 0115 4b38 c75f e936
000001e0: bea7 22b6 e6d2 5838 2a5a 5c37 bba3 34b8
000001f0: 4e36 bab4 15ec 9138 2014 b3b7 95d4 c6b5
00000200: fe10 bd37 34bd e4b6 c7e2 d836 4078 9f37
00000210: 481e 3237 d740 08b8 62ac 6b37 4ac1 9bb7
00000220: e76a 3c38 f8a8 9235 de58 8c35 cb36 8935
00000230: 94e4 12b7 e3df 9c37 c69e 49b7 7aab 3ab8
00000240: aae3 b738 2564 43b8 f9dc 9437 97c3 d5b8
00000250: be33 6738 f263 2337 97f5 9538 9726 72b8
00000260: f9b3 80b7 01c5 ed34 31a4 8c37 0509 4137
00000270: 3e5d 7d38 179b 25b6 40fd bdb8 24ba 0537
00000280: 0db0 af36 a125 b2b7 d17f bab7 344f 83b7
00000290: d0fb 0136 20c1 3d38 9c9d 8837 a6ea 2138
000002a0: 7019 ffb7 eebc 0a36 80cf 8b36 62b3 e0b4
000002b0: 179f 6838 470f cfb8 93a8 9a35 27fd 9037
000002c0: 0080 9fb8 e9b1 8038 0348 e036 e37a 8b38
000002d0: d1b5 47b8 026a 24b8 c3d5 81b8 203e 8c36
000002e0: cb75 3a38 a7de 9ab7 da75 cab7 b38b f0b6
000002f0: 20bd 8db8 ab5b ec38 7122 8038 ab4a e2b7
00000300: 479b 05b8 9146 ab37 51b8 3db7 a9dc b238
00000310: 1d22 54b8 82f8 9537 bf81 6fb8 2d51 9e38
00000320: c3c9 7ab6 184d fcb7 9b76 89b8 c71a 9436
00000330: 20e3 d6b8 3b7d 8c38 b2e1 b738 78f3 53b8
00000340: bcf5 85b7 8ca3 70b8 6ed4 2eb5 14e3 6fb8
00000350: c8b3 0a37 1403 ca38 a3e4 3a38 6a12 9437
00000360: 01d6 e6b8 a7b0 0537 592a 8438 7358 2536
00000370: cce6 f338 338c 3cb9 c626 36b8 0337 d238
00000380: f714 7bb8 cca9 5e37 7d52 a4b7 dadc e5b6
00000390: 431f b3b7 12fa a638 8dc8 b1b7 0e8b 7838
000003a0: 2795 39b8 c5f0 fa36 a45c 00b8 1efd 3937
000003b0: ebf1 cdb7 5489 13b8 76b5 2c38 b1c7 df37
000003c0: 0080 3137 3a3f 9f37 ea52 1bb6 8729 d4b6
000003d0: 9bb7 f8b7 63ff 3a37 0837 91b6 3c02 0438
000003e0: 1898 00b6 4c8f 1bb8 592b 52b8 b11d 8e36
000003f0: a358 35b8 f050 bc38 88eb d337 406b 20b8

exp_avg_sq f4 [48, 16]
1.8729706e-08 2.6652591e-08 2.7083514e-08 2.66848e-08 3.167337e-08 4.4837666e-08 1.2025369e-08 1.6219873e-08
1.992734e-08 3.811308e-08 3.3257255e-08 1.6211548e-08 2.5241619e-08 6.6221155e-08 9.976868e-09 1.12496235e-08
2.6394102e-07 3.3112786e-07 2.461434e-07 4.8344e-07 4.4101185e-07 6.151798e-07 2.597448e-07 1.9848977e-07
2.749583e-07 5.8993606e-07 4.950264e-07 2.5815172e-07 2.854294e-07 1.0415216e-06 1.7638177e-07 1.0418864e-07
4.2185764e-08 5.017458e-08 3.781777e-08 5.6428227e-08 5.627071e-08 6.3441604e-08 3.9367364e-08 3.2712926e-08
7.600809e-08 9.385589e-08 4.132326e-08 2.4953879e-08 4.245505e-08 1.193538e-07 2.2824375e-08 2.8472094e-08
7.318691e-09 5.188613e-09 6.238621e-09 1.2002465e-08 1.0615074e-08 1.3151329e-08 5.861254e-09 4.6457695e-09
9.63176e-09 1.3543352e-08 5.4581215e-09 5.6929714e-09 6.007326e-09 2.4402889e-08 5.4773324e-09 3.739017e-09
7.238462e-07 7.4439305e-07 6.9284096e-07 1.2917197e-06 1.2982263e-06 1.8213296e-06 7.383254e-07 4.712698e-07
6.6608436e-07 1.6500709e-06 1.2168175e-06 7.614766e-07 6.7291904e-07 2.9596401e-06 4.833967e-07 2.0846862e-07
2.1715305e-08 2.870438e-08 5.09627e-08 1.18074084e-07 1.1561455e-07 6.404276e-08 1.8382687e-08 3.314403e-08
3.12838e-08 9.3708316e-08 1.5681131e-08 1.2948142e-08 3.067354e-08 2.4440052e-07 4.4704457e-08 4.5446452e-08
1.6182312e-08 2.4207658e-08 3.816599e-08 6.1211125e-08 7.36728e-08 3.269365e-08 1.258167e-08 3.5930114e-08
1.4469709e-08 3.9785597e-08 1.4083408e-08 1.1373661e-08 1.9345624e-08 1.3898511e-07 2.5391152e-08 2.066237e-08
5.658954e-08 9.6731696e-08 7.08309e-08 1.1839728e-07 1.3789692e-07 7.4273665e-08 5.5153276e-08 5.5047575e-08
1.2552323e-07 1.8248603e-07 3.5483946e-08 3.5117818e-08 5.7325707e-08 3.4874788e-07 4.0520003e-08 1.02274385e-07
6.0854575e-08 7.7379084e-08 7.3268154e-08 1.5081717e-07 1.8190771e-07 7.309131e-08 2.6750003e-08 4.2607557e-08
1.2929488e-07 1.1015287e-07 5.0404424e-08 2.9216146e-08 7.156271e-08 4.0301597e-07 8.01191e-08 5.724849e-08
1.9582039e-07 1.6681278e-07 2.1916125e-07 2.968981e-07 3.338328e-07 2.0824817e-07 1.382048e-07 1.2083981e-07
4.0150132e-07 4.3592578e-07 1.2415389e-07 9.34013e-08 2.7956e-07 8.403183e-07 9.2841326e-08 2.1062773e-07
5.767644e-08 6.0197415e-08 5.5684147e-08 1.0385487e-07 8.0494104e-08 5.530766e-08 3.7915488e-08 5.367824e-08
9.077809e-08 9.702226e-08 2.4560942e-08 4.8362885e-08 4.8718668e-08 2.1718898e-07 3.7119964e-08 4.127371e-08
9.590598e-08 1.331282e-07 7.918325e-08 1.9938255e-07 1.7115356e-07 1.4370417e-07 5.5578823e-08 6.386813e-08
9.495522e-08 1.11414295e-07 9.036223e-08 8.619796e-08 1.6595673e-07 3.0003477e-07 6.665764e-08 6.493503e-08
1.1481526e-07 2.2325574e-07 7.566698e-08 3.1086174e-07 8.6597524e-08 1.563779e-07 1.16762244e-07 9.3911424e-08
1.036268e-07 2.4675273e-07 1.5988185e-07 6.396795e-08 2.1983249e-07 3.880238e-07 9.556557e-08 3.270604e-08
9.887509e-08 6.072343e-08 1.2933866e-07 1.6808752e-07 2.0991747e-07 1.454911e-07 6.9146566e-08 7.875773e-08
2.512017e-07 1.7262107e-07 4.3741494e-08 6.630725e-08 1.2368764e-07 5.3004e-07 8.467125e-08 1.3914376e-07
1.0536722e-07 6.9499016e-08 1.219617e-07 1.9213158e-07 2.4100441e-07 1.1570085e-07 6.944528e-08 6.714051e-08
8.957617e-08 1.7328541e-07 3.952288e-08 6.241924e-08 6.699085e-08 4.585219e-07 1.0334197e-07 6.12218e-08
6.3485665e-08 6.058256e-08 7.943124e-08 1.1780099e-07 8.9512355e-08 1.00506e-07 3.5171052e-08 3.440279e-08
9.94885e-08 7.144744e-08 1.09361e-07 3.7696328e-08 9.598022e-08 3.301083e-07 4.2500933e-08 4.8300382e-08
00000000: 0fe3 a032 abf1 e432 47a5 e832 7f38 e532
00000010: 3d09 0833 8993 4033 2298 4e32 e153 8b32
00000020: af2c ab32 c6b1 2333 bdd6 0e33 9241 8b32
00000030: e8d2 d832 7735 8e33 bb66 2b32 5e44 4132
00000040: c7b3 8d34 dec5 b134 b125 8434 bec5 0135
00000050: 35c4 ec34 d522 2535 0e73 8b34 7420 5534
00000060: fb9d 9334 195c 1e35 f5e1 0435 1a98 8a34
00000070: 1e3d 9934 69ca 8b35 7463 3d34 50be df33
00000080: bd2f 3533 897f 5733 146d 2233 7e5b 7233
00000090: 4dae 7133 643d 8833 e014 2933 3e80 0c33
000000a0: e439 a333 d28d c933 687b 3133 295a d632
000000b0: d257 3633 b927 0034 550f c432 cc92 f432
000000c0: e377 fb31 8647 b231 7e5b d631 6633 4e32
000000d0: 975d 3632 28f0 6132 2364 c931 9fa0 9f31
000000e0: ee78 2532 4bac 6832 258a bb31 e89b c331
000000f0: 0069 ce31 859e d132 2033 bc31 be78 8031
00000100: 554e 4235 4dd2 4735 abfb 3935 275f ad35
00000110: b73e ae35 6974 f435 5631 4635 d402 fd34
00000120: f8cc 3235 0178 dd35 8851 a335 4668 4c35
00000130: a5a2 3435 3b9e 4636 c5c2 0135 6bd7 5f34
00000140: 7688 ba32 9991 f632 15e2 5a33 ea8f fd33
00000150: c547 f833 e187 8933 f5e7 9d32 3f5a 0e33
00000160: e75c 0633 b13c c933 2cb3 8632 8872 5e32
00000170: eabd 0333 2736 8334 1201 4033 e730 4333
00000180: 4801 8b32 34f1 cf32 f3eb 2333 2c73 8333
00000190: 0d36 9e33 0c6b 0c33 c526 5832 9451 1a33
000001a0: 7496 7832 bae0 2a33 7cf3 7132 e465 4332
000001b0: 7a2d a632 f03b 1534 bc1b da32 087d b132
000001c0: db0c 7333 d0ba cf33 b31b 9833 9841 fe33
000001d0: d110 1434 6180 9f33 abe1 6c33 736d 6c33
000001e0: 90c7 0634 61f1 4334 0367 1833 73d4 1633
000001f0: 4836 7633 8b3b bb34 3708 2e33 f0a1 db33
00000200: 28af 8233 9a2b a633 9857 9d33 4ff0 2134
00000210: 6952 4334 5ff6 9c33 e1c7 e532 81ff 3633
00000220: 4ed4 0a34 2e8d ec33 407c 5833 fcf6 fa32
00000230: 04ae 9933 185e d834 f10d ac33 61e1 7533
00000240: b342 5234 261d 3334 9652 6b34 5d65 9f34
00000250: a139 b334 d29a 5f34 7265 1434 32c0 0134
00000260: ec8d d734 2f09 ea34 294f 0534 e893 c833
00000270: 6f16 9634 3c92 6135 0f60 c733 e928 6234
00000280: ebb7 7733 e145 8133 5e29 6f33 d206 df33
00000290: 1adc ac33 6a8b 6d33 85d8 2233 d98b 6633
000002a0: c8f1 c233 8d5a d033 15fa d232 8eb7 4f33
000002b0: be3e 5133 7434 6934 d56d 1f33 ed44 3133
000002c0: dff4 cd33 00f2 0e34 740b aa33 dc15 5634
000002d0: 55c6 3734 1a4d 1a34 90b5 6e33 e027 8933
000002e0: 2fea cb33 a842 ef33 290d c233 d41b b933
000002f0: d731 3234 7714 a134 6d25 8f33 6972 8b33
00000300: 5b90 f633 12b8 6f34 5d7e a233 83e4 a634
00000310: 7ef7 b933 d4e8 2734 b9be fa33 5aac c933
00000320: 7089 de33 7079 8434 fdab 2b34 c15e 8933
00000330: 180b 6c34 9651 d034 ba39 cd33 ac78 0c33
00000340: 2855 d433 0f67 8233 57e0 0a34 8c7b 3434
00000350: ad65 6134 4a38 1c34 ba7d 9433 8521 a933
00000360: e6dc 8634 b859 3934 48de 3b33 cc64 8e33
00000370: 00cf 0434 1248 0e35 83d4 b533 8c67 1534
00000380: 3e46 e233 7d3f 9533 94f4 0234 ba4c 4e34
00000390: 6563 8134 3777 f833 f221 9533 e32e 9033
000003a0: 055d c033 5510 3a34 debf 2933 570b 8633
000003b0: 9cdc 8f33 c52a f634 d9ec dd33 0a79 8333
000003c0: 9d55 8833 9d19 8233 c993 aa33 c7f9 fc33
000003d0: f039 c033 c2d5 d733 fb0e 1733 45c2 1333
000003e0: 62a6 d533 a56e 9933 d8d9 ea33 8de7 2133
000003f0: af1d ce33 bd39 b134 458a 3633 d572 4f33

exp_avg f4 [48]
-1.7982818e-05 -0.000100917816 5.6233606e-05 -4.127518e-06 -0.00014652347 2.6925125e-05 1.408144e-06 -6.268832e-05
1.1863139e-05 -0.0001664007 3.163567e-05 7.6742705e-05 0.00010287213 -6.077579e-05 5.103274e-05 -1.3371143e-05
-2.0668842e-11 8.4997925e-11 -7.061787e-11 -1.4393507e-11 7.874297e-11 -6.083597e-11 -8.802881e-12 6.091531e-11
-2.7079113e-11 -3.130914e-10 6.782606e-11 -3.467869e-12 4.5210644e-10 5.370561e-11 2.2839158e-10 3.3400237e-11
-0.00011849314 4.3421962e-05 0.00031885252 -0.00045246896 -6.040746e-05 -0.00016432336 8.009364e-05 -0.00013545956
-1.981482e-05 0.00032966523 -9.797233e-05 5.0670347e-05 -0.00010395713 -0.00015023646 -0.00020592452 -0.00011744783
00000000: cfd9 96b7 d7a3 d3b8 60dc 6b38 1c7f 8ab6
00000010: 18a4 19b9 44dd e137 76ff bc35 8977 83b8
00000020: cb07 4737 d97b 2eb9 8bb0 0438 edf0 a038
00000030: 0ebd d738 82e9 7eb8 fd0b 5638 9f54 60b7
00000040: 18ce b5ad 94e9 ba2e 544a 9bae 9836 7dad
00000050: 5a28 ad2e 9bc7 85ae a7dc 1aad 45f4 852e
00000060: be30 eead b21f acaf ad26 952e 9307 74ac
00000070: 538c f82f 2433 6c2e 841e 7b2f 53e5 122e
00000080: 857f f8b8 fa1f 3638 a92b a739 5b39 edb9
00000090: 045e 7db8 374e 2cb9 f2f7 a738 260a 0eb9
000000a0: 0038 a6b7 ebd6 ac39 7f76 cdb8 df86 5438
000000b0: 8f03 dab8 cb88 1db9 71ed 57b9 534e f6b8

exp_avg_sq f4 [48]
4.4976073e-08 3.7247273e-07 8.249448e-08 8.200194e-09 6.644526e-07 6.455122e-08 5.866007e-08 1.2672311e-07
9.109639e-08 2.217704e-07 1.4536936e-07 1.7923506e-07 4.2625493e-07 1.3812635e-07 1.2491095e-07 9.388771e-08
8.869622e-22 1.403333e-20 1.0344707e-20 5.295224e-22 9.0385105e-21 5.8896754e-21 8.751747e-22 4.437262e-21
2.0484968e-21 1.778358e-19 7.459849e-21 1.3377107e-20 3.261788e-19 9.165387e-21 9.0920475e-20 4.5063192e-21
9.06377e-06 1.6651562e-06 1.7719769e-05 6.7006845e-06 1.5459377e-06 2.3531538e-06 7.0860585e-07 3.5741637e-06
1.860745e-07 7.764686e-06 2.90331e-06 2.5466222e-06 4.0820773e-06 2.064691e-06 6.047792e-06 2.1232613e-06
00000000: b72b 4133 43f8 c734 d227 b133 d6e0 0c32
00000010: d65c 3235 699f 8a33 6ef1 7b33 6211 0834
00000020: c5a0 c333 c91f 6e34 d316 1c34 c273 4034
00000030: 08d8 e434 e24f 1434 431f 0634 509f c933
00000040: b008 861c 838a 841e ef67 431e d009 201c
00000050: 8ebb 2a1e 7281 de1d ae40 841c 91a2 a71d
00000060: b1c7 1a1d 93f3 5120 9ee9 0c1e b8af 7c1e
00000070: bf8a c020 1821 2d1e 0eae d61f 723e aa1d
00000080: 9910 1837 557e df35 eaa4 9437 71d6 e036
00000090: 047e cf35 e0ea 1d36 0637 3e35 aadb 6f36
000000a0: c5cb 4734 1345 0237 7cd6 4236 a3e6 2a36
000000b0: c7f8 8836 1f8f 0a36 23ee ca36 5a7d 0e36
