models/fmnist_gen.ckpt (torch, 574376 bytes, 304 tensors)

exp_avg f4 [16]
-4.174378e-05 7.454413e-06 4.121629e-05 -3.931567e-06 -2.2128024e-05 -3.286942e-05 -2.6028114e-05 3.8450813e-05
4.0824463e-05 -9.82573e-06 -1.4713633e-05 -3.0843297e-05 -1.6192791e-05 -1.7800958e-05 7.544437e-05 1.2686934e-05
00000000: 0b16 2fb8 ec20 fa36 a8df 2c38 e7eb 83b6
00000010: 929f b9b7 45dd 09b8 f356 dab7 3f46 2138
00000020: ef3a 2b38 30d9 24b7 93da 76b7 bd5d 01b8
00000030: c1d5 87b7 4453 95b7 e337 9e38 f7d9 5437

exp_avg_sq f4 [16]
3.562645e-07 2.1695072e-08 3.4637054e-08 7.319971e-08 7.099556e-08 3.5317516e-08 2.7666893e-08 2.4123668e-07
8.9221444e-08 9.502694e-09 3.5441e-08 2.3310074e-08 1.5294131e-07 2.2695154e-08 9.922372e-08 1.3534809e-07
00000000: 9f44 bf34 f85b ba32 d8c3 1433 f731 9d33
00000010: 3976 9833 05b0 1733 24a8 ed32 5183 8134
00000020: 029a bf33 4a41 2332 cb37 1833 653b c832
00000030: 3038 2434 2cf3 c232 d114 d533 3354 1134

exp_avg f4 [16, 16]
7.2422255e-05 8.070768e-05 -0.0001408247 -0.00022009308 -7.7836674e-05 0.00019012821 0.000254804 -0.00014813393
-0.00021325401 -5.233679e-06 -7.719971e-05 -0.00014775226 0.0002506608 -8.45742e-05 0.00022350626 4.2673062e-05
-0.00019531373 4.1596595e-05 2.0349606e-05 4.0229275e-05 0.00012799831 -0.00013982378 0.00015969209 0.00017382005
2.0858639e-05 -2.7193125e-06 0.00012114236 3.5085617e-05 -0.00018430538 0.00019054234 -0.000111256704 -0.0002978961
-0.00019778268 8.492461e-06 0.00013611226 1.12706275e-05 0.00014813083 -0.00024265904 0.00015614869 0.00014923073
-0.00018350958 3.56967e-05 0.00033832274 -6.8327994e-05 4.1154217e-05 3.5998393e-05 -0.00011840774 -0.00024987065
-0.00015962266 3.3795517e-05 9.686877e-05 -0.000100975434 0.00015541307 -0.00027772557 0.000113841714 0.0002479662
-0.00014106033 0.000118342876 0.00036031016 -0.00012159485 2.5416517e-05 -6.643781e-05 -3.656599e-05 -0.00024797174
-3.7403355e-05 -0.00024138759 4.2016927e-05 0.00014441456 -0.00027824243 0.00016372516 6.220299e-05 -0.00015028566
2.2309008e-05 -0.00011974569 -0.0002316537 5.8159225e-05 0.00016047279 6.851565e-05 0.00016217784 0.00017472413
-0.00017278906 -8.072208e-05 0.00014023083 0.00010649143 0.00014100561 -0.00025997384 6.100121e-05 0.00012392466
-6.183094e-05 6.428927e-05 0.00030761678 -3.3779404e-05 -0.00010525267 3.4405708e-05 -6.996633e-05 -0.0001946512
-0.00012170513 -5.730295e-06 -4.894927e-05 6.122264e-05 -5.0519102e-05 -2.5153797e-06 6.041868e-05 0.00010970336
0.0001273564 1.8359846e-05 -9.1889466e-05 4.3943405e-06 -0.00014851641 4.983579e-05 0.00016811385 -0.00012957967
0.00018859043 -4.0162235e-05 -3.4029435e-05 1.9597515e-05 -0.00012947312 0.00021144666 -0.00012357286 -0.00023467255
4.4485958e-05 -8.090896e-05 -0.00024418102 3.1989595e-05 5.558457e-05 -8.766673e-06 8.382049e-05 0.00026025157
0.00015365182 -8.2479084e-05 7.212856e-05 6.0370774e-05 1.7373923e-05 3.1055835e-05 -0.00015193953 -0.00021945134
-3.5981622e-05 -5.7719073e-05 3.263988e-05 5.811976e-05 5.3514967e-05 -1.3876333e-05 -0.0001713247 0.00025391602
0.00039022486 -8.246128e-05 -0.00012525574 9.2842696e-05 -0.00021764816 0.00040045084 -0.00029722266 -0.00048208775
0.00023259429 -0.00018949926 -0.0005096779 0.0001805518 -3.6577607e-05 9.447996e-05 7.907481e-06 0.00054137845
-4.2850254e-05 3.089858e-05 -1.1687014e-06 -9.881864e-05 -4.0128136e-05 8.342608e-05 0.00016517211 1.3624751e-05
-4.421858e-05 -9.713433e-05 -0.000101723344 3.3887602e-06 -3.8576432e-05 0.00018375755 0.00013649437 -0.00015214374
-0.00014849206 -2.023752e-05 0.0001924531 1.1013257e-06 0.0002370741 -0.00033039023 1.8813114e-05 0.00014977384
-0.00018927753 0.0001029654 0.00047454925 -7.884277e-05 4.288409e-06 -6.348721e-05 -0.00017787637 -0.00017241482
5.939094e-05 -5.438228e-05 4.438235e-05 -1.2047959e-06 -4.5310833e-05 0.000108667286 3.5953897e-06 -0.0001680704
-4.3612697e-05 -0.000118119766 -6.5879874e-05 1.5050703e-05 5.6140965e-05 0.00010429293 6.2011836e-06 9.88594e-05
-0.0001644062 -6.5924956e-05 -2.138403e-06 -2.942305e-05 1.9412893e-05 -2.2565493e-05 0.00023769484 9.675015e-05
7.58904e-05 -0.00011016888 -1.9930287e-05 0.000102900274 -0.00018224942 0.0002607141 -6.155421e-06 -0.00019040045
-4.6864163e-05 6.5791624e-05 -7.778876e-05 1.8423569e-05 -7.8285644e-05 4.6393976e-05 2.9820469e-05 9.821687e-05
5.290245e-05 4.5252822e-05 -0.0001201474 -5.0631472e-05 1.2862314e-05 -5.3672662e-05 0.0001488328 -9.1107126e-05
-2.225966e-05 -2.928223e-05 5.0566305e-05 2.254019e-05 2.4347157e-05 -5.0512037e-05 -7.301365e-06 2.911908e-06
-3.3387474e-05 1.0142513e-05 7.594319e-05 2.0045284e-06 8.115186e-06 1.0653621e-05 -6.9040936e-05 4.5593297e-06
00000000: 67e1 9738 9b41 a938 58aa 13b9 c9c8 66b9
00000010: 3f3c a3b8 275d 4739 3797 8539 6654 1bb9
00000020: f09c 5fb9 f69c afb6 47e6 a1b8 f2ed 1ab9
00000030: 206b 8339 6e5d b1b8 015d 6a39 dafb 3238
00000040: 21cd 4cb9 0178 2e38 72b4 aa37 dbbb 2838
00000050: 4937 0639 a99d 12b9 0573 2739 7743 3639
00000060: 96f9 ae37 6f7d 36b6 cf0d fe38 e528 1338
00000070: 1942 41b9 52cc 4739 7d52 e9b8 f02e 9cb9
00000080: e263 4fb9 d87a 0e37 5bb9 0e39 fa16 3d37
00000090: 9153 1b39 4a72 7eb9 d8bb 2339 d27a 1c39
000000a0: 7a6c 40b9 0ab9 1538 e960 b139 504b 8fb8
000000b0: 019d 2c38 fbfc 1638 ac51 f8b8 1201 83b9
000000c0: 6260 27b9 a9bf 0d38 0626 cb38 c6c2 d3b8
000000d0: 61f6 2239 b29b 91b9 4ebe ee38 7601 8239
000000e0: 98e9 13b9 d92e f838 03e8 bc39 bd00 ffb8
000000f0: 8e35 d537 8754 8bb8 6f5e 19b8 3402 82b9
00000100: 8ce1 1cb8 fd1c 7db9 553b 3038 fd6d 1739
00000110: 11e1 91b9 a3ad 2b39 fa72 8238 0096 1db9
00000120: 3b24 bb37 fa1f fbb8 11e8 72b9 feef 7338
00000130: 9644 2839 0fb0 8f38 480e 2a39 2736 3739
00000140: b62e 35b9 5649 a9b8 ed0a 1339 2754 df38
00000150: e8da 1339 194d 88b9 8ddb 7f38 c6f1 0139
00000160: 3cab 81b8 0ad3 8638 a047 a139 5cae 0db8
00000170: 19bb dcb8 d94e 1038 e3ba 92b8 491b 4cb9
00000180: f23b ffb8 dc46 c0b6 e14e 4db8 a864 8038
00000190: 79e4 53b8 e5cd 28b6 106a 7d38 8b10 e638
000001a0: f98a 0539 7803 9a37 c8b4 c0b8 1973 9336
000001b0: 12bb 1bb9 c606 5138 b847 3039 c7df 07b9
000001c0: 5cc0 4539 df73 28b8 d4ba 0eb8 5865 a437
000001d0: 2dc3 07b9 c8b7 5d39 5693 01b9 6f12 76b9
000001e0: 6f96 3a38 abad a9b8 6c05 80b9 912c 0638
000001f0: 7a23 6938 9314 13b7 c8c8 af38 6072 8839
00000200: 991d 2139 9ff8 acb8 ba43 9738 a036 7d38
00000210: 37be 9137 f341 0238 f551 1fb9 851c 66b9
00000220: f9ea 16b8 6217 72b8 cee6 0838 9ec5 7338
00000230: 4275 6038 65ce 68b7 a0a5 33b9 0820 8539
00000240: 1897 cc39 10ef acb8 1557 03b9 8bb4 c238
00000250: 7c38 64b9 9af3 d139 8dd4 9bb9 b9c0 fcb9
00000260: 8ee4 7339 52b4 46b9 e89b 05ba 8152 3d39
00000270: e86a 19b8 8b23 c638 5faa 0437 4beb 0d3a
00000280: 1cba 33b8 1999 0138 46dc 9cb5 da3c cfb8
00000290: 424f 28b8 09f5 ae38 0d32 2d39 dc95 6437
000002a0: 5777 39b8 99b4 cbb8 4e54 d5b8 756a 6336
000002b0: 21cd 21b8 0baf 4039 ee1f 0f39 c688 1fb9
000002c0: 89b4 1bb9 bec3 a9b7 3ccd 4939 43d1 9335
000002d0: 1897 7839 3a38 adb9 dbd0 9d37 9c0c 1d39
000002e0: cd78 46b9 21ef d738 eccc f839 6458 a5b8
000002f0: 27e5 8f36 7024 85b8 5384 3ab9 40ca 34b9
00000300: 891a 7938 8718 64b8 2f27 3a38 79b4 a1b5
00000310: 230c 3eb8 4ee4 e338 5348 7136 0e3c 30b9
00000320: c7ec 36b8 11b7 f7b8 fd28 8ab8 4782 7c37
00000330: e778 6b38 d7b7 da38 c313 d036 bc52 cf38
00000340: 7464 2cb9 3141 8ab8 7c81 0fb6 85d1 f6b7
00000350: dfd8 a237 074b bdb7 b93d 7939 57e6 ca38
00000360: 5927 9f38 780a e7b8 f72f a7b7 2acc d738
00000370: 351a 3fb9 74b0 8839 aa8a ceb6 3ba6 47b9
00000380: 0390 44b8 9cf9 8938 8622 a3b8 508c 9a37
00000390: 492d a4b8 2797 4238 f826 fa37 c8f9 cd38
000003a0: 93e3 5d38 d9cd 3d38 a5f7 fbb8 215d 54b8
000003b0: 38cb 5737 951e 61b8 0010 1c39 c410 bfb8
000003c0: 42ba bab7 1ca3 f5b7 2817 5438 b014 bd37
000003d0: 1f3d cc37 e3dc 53b8 3ffe f4b6 336a 4336
000003e0: 8709 0cb8 c329 2a37 b143 9f38 8985 0636
000003f0: 7526 0837 f4bc 3237 12ca 90b8 58fc 9836

exp_avg_sq f4 [16, 16]
1.2864115e-05 4.1667454e-06 2.3941195e-06 7.712762e-06 1.3538103e-05 1.2329211e-05 7.072886e-06 1.0834539e-05
5.0315443e-06 1.169679e-06 2.3344866e-05 1.8767915e-06 1.007333e-05 4.034683e-06 1.3835939e-05 2.3604134e-05
6.5479054e-07 2.1092141e-07 5.321893e-07 2.5715062e-07 8.5002364e-07 1.7038162e-06 3.4110715e-07 7.0316196e-07
5.935434e-07 4.284189e-07 3.0115152e-06 4.774341e-07 4.0043443e-07 1.1671999e-06 1.5306646e-06 1.1277082e-06
7.012918e-07 4.71926e-07 5.033687e-07 3.44726e-07 7.8012135e-07 1.3927598e-06 4.8347596e-07 7.3183617e-07
5.8444834e-07 2.6576063e-07 2.5888191e-06 1.6489422e-07 2.1841258e-07 3.3197372e-07 4.6567035e-07 1.0771917e-06
7.173434e-07 2.8707996e-07 7.037956e-07 2.8923802e-07 1.0473545e-06 1.987464e-06 4.354629e-07 1.9602785e-06
7.897289e-07 1.2717833e-06 3.5482908e-06 5.181183e-07 8.614778e-07 5.266322e-06 9.4806563e-07 1.542772e-06
7.482594e-07 4.3480563e-07 5.4141736e-07 2.0304542e-07 8.140801e-07 1.4270145e-06 3.878571e-07 6.354835e-07
5.7814515e-07 1.4429448e-07 2.6249534e-06 1.6270236e-07 5.4616083e-07 1.4456096e-07 5.365808e-07 1.0071956e-06
4.6648194e-07 3.0146705e-07 3.3194195e-07 3.2191224e-07 4.756373e-07 9.031142e-07 2.9365955e-07 4.9699526e-07
3.7710709e-07 2.113363e-07 1.7023838e-06 1.7894686e-07 1.9486778e-07 6.431932e-07 4.0753457e-07 7.3864516e-07
6.1548957e-07 2.536874e-07 5.5407276e-07 2.1080247e-07 8.776813e-07 1.8256316e-06 7.215303e-07 1.2272545e-06
6.599933e-07 1.2036352e-06 3.1868456e-06 6.4047157e-07 5.436334e-07 3.6287956e-06 1.263114e-06 1.1552135e-06
5.4307054e-07 1.05200364e-07 4.1760865e-07 9.145665e-08 7.455957e-07 1.5487607e-06 2.0984115e-07 6.3463244e-07
3.778804e-07 2.1106544e-07 2.6798566e-06 1.0221836e-07 1.5045511e-07 1.4129513e-07 5.026752e-07 1.0239836e-06
4.5097406e-07 2.1466977e-07 2.857012e-07 3.0384376e-07 4.8928007e-07 9.107838e-07 2.086679e-07 4.3893465e-07
3.5472124e-07 1.3442117e-07 1.6945594e-06 1.957398e-07 2.9826722e-07 4.0172267e-07 4.7843406e-07 7.158685e-07
8.615944e-07 3.971189e-07 6.613254e-07 2.899571e-07 1.0965341e-06 1.9793379e-06 3.3482286e-07 7.983529e-07
7.6133216e-07 2.4431066e-07 3.6571846e-06 2.9828115e-07 5.7260195e-07 6.0960525e-07 1.076319e-06 1.3185909e-06
7.440844e-07 3.180049e-07 6.733048e-07 3.8171473e-07 9.296681e-07 1.7977916e-06 2.7458393e-07 2.107827e-06
6.270572e-07 9.291084e-07 3.1232844e-06 2.4042498e-07 7.8777487e-07 3.4066409e-06 8.5316793e-07 1.4446102e-06
7.217312e-07 4.6870207e-07 5.248134e-07 2.479655e-07 7.994709e-07 1.4373061e-06 4.3487202e-07 7.0822534e-07
6.1443393e-07 2.281231e-07 2.6224968e-06 1.5521138e-07 4.054584e-07 1.5879309e-07 5.030865e-07 1.1074475e-06
5.11266e-07 2.2617489e-07 5.114156e-07 1.306835e-07 7.3056793e-07 1.3571951e-06 2.1672291e-07 8.3410146e-07
4.216293e-07 2.905245e-07 2.4082856e-06 9.1455384e-08 1.7175006e-07 4.2721862e-07 7.4769395e-07 9.705681e-07
6.1552123e-07 1.5741263e-07 5.050065e-07 2.7274325e-07 8.443043e-07 1.7708505e-06 6.371514e-07 7.8136407e-07
6.013677e-07 7.684328e-07 3.2103123e-06 5.044018e-07 2.989651e-07 1.6733219e-06 1.4499363e-06 1.0721965e-06
5.6131125e-07 3.549291e-07 4.5381648e-07 3.2570762e-07 5.820234e-07 1.1351099e-06 4.024841e-07 6.4563636e-07
4.979162e-07 2.9448495e-07 2.096331e-06 1.4253426e-07 1.6439623e-07 6.828943e-07 4.0384643e-07 9.2239577e-07
4.3625963e-07 8.436429e-08 2.694433e-07 1.4619609e-07 5.5709677e-07 9.868776e-07 1.7915356e-07 4.1251332e-07
3.4611526e-07 9.1249156e-08 1.8146915e-06 7.913165e-08 1.7426018e-07 1.12815506e-07 4.5987008e-07 7.907071e-07
00000000: f4d2 5737 12d0 8b36 a9aa 2036 1066 0137
00000010: b621 6337 8fd9 4e37 a153 ed36 fec5 3537
00000020: a3d4 a836 ddfd 9c35 b8d4 c337 11e6 fb35
00000030: 9f00 2937 aa61 8736 e820 6837 7e01 c637
00000040: ddc4 2f35 a379 6234 c5db 0e35 830e 8a34
00000050: 2e2d 6435 aeae e435 6921 b734 ecc0 3c35
00000060: fe53 1f35 7201 e634 7019 4a36 0629 0035
00000070: 4afb d634 afa8 9c35 3c71 cd35 c25b 9735
00000080: 6840 3c35 045d fd34 3c1f 0735 c812 b934
00000090: 8869 5135 ddee ba35 37c8 0135 6673 4435
000000a0: fce2 1c35 ddad 8e34 93bb 2d36 c70d 3134
000000b0: cb84 6a34 1f3a b234 3f01 fa34 0694 9035
000000c0: 778f 4035 f81f 9a34 77ec 3c35 9248 9b34
000000d0: d492 8c35 5f60 0536 91c9 e934 548d 0336
000000e0: c2fd 5335 24b2 aa35 2c1f 6e36 d214 0b35
000000f0: 4e40 6735 5db5 b036 937e 7e35 3e11 cf35
00000100: ffdb 4835 3b6f e934 eb55 1135 b304 5a34
00000110: 2987 5a35 d887 bf35 ad3a d034 1896 2a35
00000120: d531 1b35 5def 1a34 5b28 3036 49b3 2e34
00000130: e39b 1235 9d38 1b34 8d09 1035 fa2e 8735
00000140: ca70 fa34 51d9 a134 c135 b234 48d3 ac34
00000150: 185b ff34 896d 7235 43a8 9d34 4169 0535
00000160: 3475 ca34 aeeb 6234 767d e435 8a24 4034
00000170: d93c 5134 e6a7 2c35 20cb da34 4f47 4635
00000180: 1f38 2535 8832 8834 97bb 1435 f158 6234
00000190: cd99 6b35 3908 f535 2faf 4135 25b8 a435
000001a0: 652a 3135 978c a135 97dd 5536 dfec 2b35
000001b0: 34ee 1135 3c86 7336 4488 a935 d50c 9b35
000001c0: 86c7 1135 83ea e133 b233 e034 d366 c433
000001d0: f224 4835 03df cf35 b250 6134 9c5b 2a35
000001e0: 7ddf ca34 3aa1 6234 96d7 3336 2383 db33
000001f0: c98c 2134 e9b6 1734 94ef 0635 cf6f 8935
00000200: 671d f234 fa7f 6634 7962 9934 f81f a334
00000210: 1257 0335 967c 7435 320e 6034 b8a6 eb34
00000220: 8470 be34 6955 1034 9e70 e335 8c2c 5234
00000230: 8921 a034 58ac d734 bd6d 0035 1c2a 4035
00000240: 5148 6735 9b33 d534 ef85 3135 66ab 9b34
00000250: a02c 9335 c4d4 0436 b4c1 b334 654e 5635
00000260: 595e 4c35 cd29 8334 f46d 7536 7323 a034
00000270: e8b4 1935 c1a3 2335 0a76 9035 70fa b035
00000280: 17bd 4735 43ba aa34 27bd 3435 79ee cc34
00000290: 4e8e 7935 a64b f135 876a 9334 3174 0d36
000002a0: 0b53 2835 d867 7935 9e99 5136 c213 8134
000002b0: 7a77 5335 a59d 6436 4105 6535 6ee4 c135
000002c0: febc 4135 eca1 fb34 e7e0 0c35 1e20 8534
000002d0: 399b 5635 76e9 c035 5b78 e934 e01c 3e35
000002e0: 94ef 2435 00f2 7434 27fe 2f36 2ea8 2634
000002f0: c7ad d934 b680 2a34 d70b 0735 9ba3 9435
00000300: ef3d 0935 7bda 7234 3648 0935 0252 0c34
00000310: 3f1c 4435 de28 b635 57b4 6834 04e7 5f35
00000320: 4a5c e234 62f9 9b34 089e 2136 2166 c433
00000330: 4c6a 3834 7b5c e534 23b5 4835 7744 8235
00000340: 4c3a 2535 4105 2934 c88f 0735 8c6d 9234
00000350: 26a4 6235 f6ad ed35 b608 2b35 eebe 5135
00000360: ac6d 2135 4d46 4e35 bf70 5736 3a66 0735
00000370: 7381 a034 e796 e035 6f9b c235 64e8 8f35
00000380: 04ad 1635 168d be34 10a4 f334 eadc ae34
00000390: 583c 1c35 145a 9835 fe14 d834 cb4f 2d35
000003a0: 8aa8 0535 b419 9e34 b1ae 0c36 850b 1934
000003b0: e484 3034 2450 3735 3bd0 d834 8e9a 7735
000003c0: 1137 ea34 c22b b533 01a8 9034 13fa 1c34
000003d0: 668b 1535 db74 8435 5b5d 4034 6677 dd34
000003e0: b8d1 b934 c1f4 c333 5390 f335 16ef a933
000003f0: 461c 3b34 fb44 f233 10e4 f634 fa40 5435

exp_avg f4 [784, 16]
-4.174378e-05 7.454413e-06 4.121629e-05 -3.931567e-06 -2.2128024e-05 -3.286942e-05 -2.6028114e-05 3.8450813e-05
4.0824463e-05 -9.82573e-06 -1.4713633e-05 -3.0843297e-05 -1.6192791e-05 -1.7800958e-05 7.544437e-05 1.2686934e-05
5.2639953e-06 -1.2294127e-05 -1.0343563e-05 -2.2173292e-05 -1.786145e-05 6.3492716e-06 -2.3125592e-06 7.778061e-06
2.3410543e-05 -1.6451315e-05 -2.2654325e-05 8.5850725e-06 -1.6759293e-05 -8.0767495e-06 5.4979628e-05 2.2560105e-05
7.281244e-06 -1.554927e-07 -8.563394e-06 -1.3540539e-06 -1.4601355e-05 2.4316e-06 7.188363e-06 -4.63609e-06
5.578999e-08 3.1896403e-07 -2.6329576e-06 -3.0788422e-06 7.0197657e-06 -6.4281076e-06 2.1091433e-05 -3.936857e-06
1.0213479e-05 1.097857e-05 -2.1392952e-06 -1.2065544e-05 -4.7259027e-06 2.6644557e-07 -1.013188e-06 2.8830739e-06
-3.4418616e-07 -2.816258e-06 -2.7744622e-06 -1.2412486e-06 -7.260934e-07 -2.952693e-06 5.811327e-06 6.4597856e-07
1.7051689e-06 -9.419e-06 5.0860194e-06 -5.2133105e-06 -3.0013438e-05 7.5172516e-06 4.2476245e-06 2.2808945e-06
-2.827625e-06 -5.7613993e-06 -9.128241e-06 4.660685e-06 8.679634e-06 -9.606675e-06 3.1223386e-05 6.5690215e-06
-9.960115e-06 -7.467587e-06 5.447382e-06 -3.5568795e-05 -8.332047e-06 7.366335e-06 2.6023725e-05 5.5288904e-08
-1.0750298e-05 -9.022358e-07 5.903002e-06 -2.9605267e-06 -4.563308e-07 2.2045463e-06 3.7362366e-05 -7.9647225e-06
6.368169e-07 -1.6234288e-06 1.0740474e-05 -1.2824053e-05 -1.1052259e-05 1.4949544e-08 5.719163e-06 2.8827783e-06
-7.969575e-06 2.8925979e-06 1.1773352e-05 -8.837123e-06 2.6677747e-06 -1.3074599e-05 2.1535601e-05 -3.4824675e-06
4.5444426e-06 -1.03586435e-05 5.554597e-06 -8.1864414e-07 -1.2903146e-05 -8.8493005e-07 3.0150943e-06 -1.8438158e-06
-2.4863598e-06 -8.6542565e-07 4.9385167e-06 -4.357073e-06 5.489391e-06 -7.5096136e-06 1.3290259e-05 5.1953407e-06
-3.935058e-06 4.8129814e-06 -1.856644e-06 -6.2550794e-06 4.885289e-06 -3.9289675e-06 8.104029e-06 7.277607e-06
-2.7126064e-06 1.3306379e-06 8.7777954e-07 -5.304904e-06 -2.3312134e-07 9.707557e-07 8.222082e-06 -1.22547835e-05
-1.177503e-05 1.7487804e-05 5.5526975e-06 -8.63946e-06 2.8492655e-06 -4.7606004e-06 1.3981874e-05 1.5325764e-05
-1.9163368e-05 1.290619e-06 1.0133265e-05 -1.4359438e-05 1.5507938e-05 -4.5789207e-08 -2.786734e-06 -2.0598807e-05
-1.7144409e-06 7.0145434e-06 4.0010093e-07 3.2086884e-06 -3.4449388e-06 8.040786e-06 7.4132354e-06 -2.0210318e-06
-2.0414169e-05 -4.006856e-06 4.9220307e-07 -4.307438e-06 1.601322e-05 8.932758e-06 -5.5475675e-06 -1.0059092e-05
1.0673017e-07 -9.084963e-06 2.0599546e-05 1.1492112e-05 2.836896e-05 -3.26872e-05 -1.4010646e-05 -3.935945e-07
-1.3427286e-05 9.7802895e-06 4.851502e-05 -1.2819534e-06 -3.1140612e-06 -9.962392e-06 -3.783275e-05 2.9321945e-06
3.7250545e-06 -1.3632646e-05 4.3550826e-05 2.4817203e-07 5.26423e-05 -6.099845e-05 -2.0843587e-05 -3.5437713e-06
-3.7178117e-05 9.773106e-06 9.769494e-05 -4.6818795e-06 4.9350356e-06 -6.3078824e-06 -6.8099514e-05 2.7163956e-06
-2.309121e-05 6.324496e-06 2.7892588e-06 7.814695e-06 -1.8921246e-05 -1.8673459e-06 2.0527257e-05 2.1716043e-05
-8.318354e-06 6.8834283e-06 -4.5018337e-06 -1.6193877e-05 1.6259311e-05 -4.5421357e-06 2.9805817e-05 -3.4684323e-05
2.5294656e-05 -1.6041373e-05 3.7983305e-06 -1.6625962e-06 8.954987e-06 1.8055346e-06 -1.0252296e-05 -3.4663848e-05
-7.706361e-06 5.177748e-07 9.919708e-06 -3.5437378e-07 1.5658596e-05 -5.4313596e-06 -1.1229692e-05 2.1392303e-05
-6.501907e-06 -4.7927942e-06 -1.8245886e-05 2.1724598e-05 3.432208e-05 -5.16301e-05 1.09651255e-05 -1.2575379e-05
2.3177605e-05 1.3915e-05 5.574501e-05 -2.3186778e-05 -1.4701656e-05 -1.0021763e-05 3.0871238e-06 -2.1280282e-05
00000000: 0b16 2fb8 ec20 fa36 a8df 2c38 e7eb 83b6
00000010: 929f b9b7 45dd 09b8 f356 dab7 3f46 2138
00000020: ef3a 2b38 30d9 24b7 93da 76b7 bd5d 01b8
00000030: c1d5 87b7 4453 95b7 e337 9e38 f7d9 5437
00000040: 60a1 b036 e042 4eb7 4489 2db7 c800 bab7
00000050: 2cd5 95b7 d40b d536 7731 1bb6 857e 0237
00000060: c261 c437 ee00 8ab7 cb09 beb7 9b08 1037
00000070: 4f96 8cb7 6081 07b7 ed99 6638 753f bd37
00000080: 6951 f436 82f5 26b4 7fab 0fb7 f0bc b5b5
00000090: 58f8 74b7 922e 2336 9133 f136 b68f 9bb6
000000a0: be9d 6f33 153e ab34 deb1 30b6 1b9e 4eb6
000000b0: 548b eb36 06b1 d7b6 82ed b037 5819 84b6
000000c0: 8f5a 2b37 9930 3837 d090 0fb6 1e6d 4ab7
000000d0: 3293 9eb6 000c 8f34 e0fc 87b5 d57a 4136
000000e0: 96c8 b8b4 f2fe 3cb6 e630 3ab6 fa98 a6b5
000000f0: c2e8 42b5 e126 46b6 ebfe c236 4f67 2d35
00000100: 28dd e435 4c06 1eb7 93a8 aa36 ffed aeb6
00000110: 5ec5 fbb7 b33c fc36 d186 8e36 7811 1936
00000120: 3ac2 3db6 0b52 c1b6 7f25 19b7 fb62 9c36
00000130: bf9e 1137 5b2c 21b7 dbf5 0238 776b dc36
00000140: 5e1a 27b7 1592 fab6 a8c8 b636 b42f 15b8
00000150: dfc9 0bb7 562c f736 864d da37 cb76 6d33
00000160: 2e5c 34b7 2c31 72b5 6712 c636 76ad 46b6
00000170: a1fd f4b4 d1f1 1336 89b5 1c38 39a0 05b7
00000180: b9f1 2a35 97e4 d9b5 fc31 3437 e326 57b7
00000190: 176d 39b7 656a 8032 3ce7 bf36 c175 4136
000001a0: 10b5 05b7 741e 4236 2986 4537 2743 14b7
000001b0: 0508 3336 fa5a 5bb7 5aa7 b437 56b4 69b6
000001c0: 777c 9836 09ca 2db7 a061 ba36 ccc0 5bb5
000001d0: 977a 58b7 ee8b 6db5 ed56 4a36 0779 f7b5
000001e0: 56db 26b6 994f 68b5 89b5 a536 f932 92b6
000001f0: 8231 b836 17fb fbb6 3af9 5e37 a353 ae36
00000200: e409 84b6 327f a136 cd31 f9b5 b9e2 d1b6
00000210: 50ec a336 93d5 83b6 8af6 0737 2b32 f436
00000220: 390a 36b6 5f98 b235 8da0 6b35 c700 b2b6
00000230: e84f 7ab4 e94a 8235 93f1 0937 e599 4db7
00000240: 5e8d 45b7 c6b2 9237 4f51 ba36 33f2 10b7
00000250: 0236 3f36 3fbd 9fb6 b193 6a37 d48f 8037
00000260: 05c1 a0b7 5539 ad35 0b02 2a37 51e9 70b7
00000270: 0b17 8237 c4a9 44b3 ba03 3bb6 9acb acb7
00000280: be1b e6b5 785e eb36 74cd d634 d954 5736
00000290: 992f 67b6 eae6 0637 35bf f836 10a1 07b6
000002a0: 183f abb7 a272 86b6 f01f 0435 9c88 90b6
000002b0: 2154 8637 e7dd 1537 3e25 bab6 79c3 28b7
000002c0: 8833 e533 9e6b 18b7 30cd ac37 3fce 4037
000002d0: e1f9 ed37 9d19 09b8 440f 6bb7 374f d3b4
000002e0: c145 61b7 0616 2437 9b7c 4b38 950f acb5
000002f0: 2afb 50b6 2624 27b7 9bae 1eb8 b8c6 4436
00000300: f3fb 7936 c5b7 64b7 58aa 3638 813c 8534
00000310: 3dcc 5c38 96d8 7fb8 43d9 aeb7 87d1 6db6
00000320: b3ef 1bb8 2cf7 2337 92e1 cc38 0a19 9db6
00000330: a297 a536 4ca8 d3b6 a6d0 8eb8 524b 3636
00000340: ffb3 c1b7 0237 d436 1a2f 3b36 dc1b 0337
00000350: 11b9 9eb7 84a1 fab5 f331 ac37 d92a b637
00000360: 0f8f 0bb7 33f8 e636 750e 97b6 16d8 87b7
00000370: 9b64 8837 a668 98b6 8107 fa37 027a 11b8
00000380: dc2f d437 9690 86b7 d2e6 7e36 5f26 dfb5
00000390: 603d 1637 b255 f235 4701 2cb7 0664 11b8
000003a0: 924a 01b7 37fd 0a35 d26c 2637 c340 beb4
000003b0: 945a 8337 063f b6b6 2967 3cb7 9f73 b337
000003c0: f52a dab6 cad1 a0b6 be0e 99b7 383d b637
000003d0: 0ef5 0f38 668d 58b8 dbf6 3737 d7fa 52b7
000003e0: 876d c237 7874 6937 c0cf 6938 3a81 c2b7
000003f0: 22a7 76b7 2523 28b7 622c 4f36 0f83 b2b7

exp_avg_sq f4 [784, 16]
3.562645e-07 2.1695072e-08 3.4637054e-08 7.319971e-08 7.099556e-08 3.5317516e-08 2.7666893e-08 2.4123668e-07
8.9221444e-08 9.502694e-09 3.5441e-08 2.3310074e-08 1.5294131e-07 2.2695154e-08 9.922372e-08 1.3534809e-07
1.6629077e-08 1.3190799e-08 5.145829e-09 2.6593566e-08 1.1274934e-08 5.1821494e-09 1.0820354e-08 1.6939298e-08
2.9648072e-08 3.1231646e-09 1.374598e-08 5.8806737e-09 5.4228313e-08 7.5515825e-09 6.4122794e-08 2.5150035e-08
2.3484047e-08 4.2886448e-08 4.151404e-09 2.974237e-08 3.7969706e-08 2.125404e-09 2.8351105e-08 3.23781e-09
2.7691089e-08 1.5312946e-09 1.7880405e-09 2.1119226e-09 8.849914e-09 1.1382678e-08 1.2796414e-07 3.580734e-09
1.0967445e-08 2.7094494e-08 2.1158466e-09 6.4727836e-09 6.6095587e-09 6.3427916e-09 5.920212e-09 2.5629394e-09
2.6939011e-08 4.7033972e-09 8.636301e-09 1.432154e-09 3.3606117e-08 8.1588425e-09 3.013352e-08 4.213958e-09
1.6727654e-08 3.064533e-08 3.9503623e-09 1.3750367e-08 4.266769e-08 1.1249282e-08 1.7997278e-08 5.018874e-09
1.0817852e-08 5.0299676e-09 2.1924336e-08 3.6690864e-09 1.532753e-08 1.7904371e-08 7.355243e-08 1.5811949e-08
8.156767e-09 5.8005284e-08 1.0443396e-08 4.0619152e-08 1.9110926e-08 3.772975e-08 3.3914812e-08 1.8781641e-08
2.5873218e-08 1.2177153e-08 2.8322747e-08 2.6938778e-09 3.64111e-08 9.7913215e-09 3.3876944e-08 2.5027473e-08
1.3139078e-08 6.6516246e-09 3.2599803e-09 2.7234151e-08 1.1468161e-08 3.974626e-09 1.158773e-08 4.1932657e-09
2.8980447e-09 1.3454641e-09 2.7743787e-09 3.6363346e-09 1.4501359e-08 4.995567e-09 2.390704e-08 1.0383446e-08
1.0543643e-08 1.2387411e-08 1.9916628e-09 1.2739777e-08 1.5940767e-08 5.8047736e-09 6.187934e-09 3.416651e-09
3.3113392e-09 2.2359772e-09 3.7719357e-09 2.1476976e-09 1.4484052e-08 2.2969164e-09 1.0185829e-08 7.940677e-09
3.5063976e-09 3.6711563e-09 1.5955504e-09 4.2108033e-09 3.1654297e-09 2.7128502e-09 4.302135e-09 2.2422577e-09
2.1960478e-09 4.794073e-10 2.2965756e-09 1.9253372e-09 7.6484605e-09 1.2120441e-09 2.742643e-09 4.9643787e-09
4.071435e-09 6.627475e-09 2.3482674e-09 5.4549716e-09 3.5908103e-09 3.8454964e-09 5.146341e-09 3.8539127e-09
2.9902285e-09 7.6955387e-10 5.4654477e-09 2.378955e-09 6.9368404e-09 9.647327e-10 3.3724088e-09 6.5335075e-09
1.5451059e-08 1.217399e-08 5.3690563e-09 8.20277e-09 9.76334e-09 8.984859e-09 7.2345796e-09 6.6718315e-09
6.2051098e-09 2.8176532e-09 1.4760775e-08 1.4805455e-09 6.603007e-09 2.4093678e-09 6.2021033e-09 1.31417455e-08
5.32979e-09 5.1797024e-09 1.2504935e-08 4.1603747e-09 1.5576221e-08 2.778656e-08 5.093179e-09 3.2591185e-09
8.961953e-09 1.5823198e-09 5.549444e-08 1.6495626e-09 3.7718157e-09 1.939356e-09 1.5039376e-08 7.272117e-09
4.599012e-09 5.2883617e-09 1.2674869e-08 3.7466164e-09 1.3668047e-08 2.1539522e-08 6.6403008e-09 2.7808558e-09
7.3052004e-09 9.0769026e-10 4.799571e-08 1.3243908e-09 3.2795113e-09 2.2622457e-09 2.047204e-08 6.127883e-09
7.139152e-09 5.426479e-09 9.031949e-09 2.7406124e-09 1.1163594e-08 1.22321735e-08 1.0567353e-08 6.7914305e-09
5.614399e-09 5.876712e-10 3.4225117e-08 1.2653931e-09 2.8276352e-09 3.0144562e-09 2.2749267e-08 1.4576571e-08
8.6743395e-09 7.4144975e-09 2.745589e-09 2.2944429e-09 4.56978e-09 6.4576e-09 6.995217e-09 8.184365e-09
2.345086e-09 2.0776607e-09 1.1588438e-08 1.6471857e-09 3.3607848e-09 2.2609152e-09 8.925832e-09 1.255176e-08
1.0893561e-08 1.234928e-08 1.7444076e-08 3.5713896e-08 2.5716012e-08 9.2384944e-08 1.9225187e-08 4.2258943e-08
4.953221e-08 4.7494635e-09 1.06466736e-07 2.7287681e-08 1.6311194e-08 6.881498e-09 1.0663108e-08 2.2576527e-08
00000000: 9f44 bf34 f85b ba32 d8c3 1433 f731 9d33
00000010: 3976 9833 05b0 1733 24a8 ed32 5183 8134
00000020: 029a bf33 4a41 2332 cb37 1833 653b c832
00000030: 3038 2434 2cf3 c232 d114 d533 3354 1134
00000040: bad7 8e32 bf9d 6232 31cf b031 df6f e432
00000050: afb3 4132 ab0e b231 6ce4 3932 e981 9132
00000060: cdac fe32 4b9f 5631 7627 6c32 f40e ca31
00000070: a9e8 6833 36bc 0132 e1b3 8933 8309 d832
00000080: f7b9 c932 2632 3833 23a4 8e31 2a7c ff32
00000090: 2214 2333 810e 1231 bd88 f332 2880 5e31
000000a0: 59dd ed32 a475 d230 15bf f530 5621 1131
000000b0: 550a 1832 8c8d 4332 8466 0934 f010 7631
000000c0: 556b 3c32 6cbd e832 5e66 1131 3567 de31
000000d0: 4b1a e331 c9ef d931 bc6a cb31 b51f 3031
000000e0: 8367 e732 859b a131 da5e 1432 70d5 c430
000000f0: 5156 1033 f82a 0c32 286c 0133 5eca 9031
00000100: 80b0 8f32 e69e 0333 c1bb 8731 c13a 6c32
00000110: 9f41 3733 de42 4132 6f98 9a32 7c72 ac31
00000120: 6bd9 3932 10d4 ac31 2054 bc32 4023 7c31
00000130: 98a9 8332 21cc 9932 e0f3 9d33 d8d2 8732
00000140: d721 0c32 7c21 7933 8b6a 3332 3b75 2e33
00000150: 5f29 a432 4d0c 2233 bba9 1133 4455 a132
00000160: cf3f de32 af33 5132 614a f332 331f 3931
00000170: 6e62 1c33 b036 2832 1880 1133 fffb d632
00000180: 47ba 6132 4f8c e431 2e06 6031 88f0 e932
00000190: 8105 4532 2e91 8831 6013 4732 5b14 9031
000001a0: f126 4731 4feb b830 63a7 3e31 13e3 7931
000001b0: a721 7932 79a5 ab31 235c cd32 e162 3232
000001c0: 6f23 3532 69d0 5432 b4dd 0831 22de 5a32
000001d0: 1eee 8832 5473 c731 a59d d431 5cca 6a31
000001e0: b28d 6331 baa7 1931 4c9a 8131 b296 1331
000001f0: 89d5 7832 c8d7 1d31 c0fd 2e32 776b 0832
00000200: 33f5 7031 aa47 7c31 704a db30 9eae 9031
00000210: d486 5931 f76c 3a31 fbd1 9331 3716 1a31
00000220: 48e9 1631 4ac7 0330 c9d1 1d31 e44e 0431
00000230: 4966 0332 0395 a630 1679 3c31 2393 aa31
00000240: b9e4 8b31 e3b7 e331 285f 2131 706e bb31
00000250: 34c2 7631 5821 8431 b2d3 b031 606b 8431
00000260: a87c 4d31 8a88 5330 96ca bb31 057b 2331
00000270: 1859 ee31 8497 8430 0bc0 6731 577d e031
00000280: 3db9 8432 c625 5132 b87a b831 2aec 0c32
00000290: a0bb 2732 d45b 1a32 0994 f831 0d3e e531
000002a0: b934 d531 aea0 4131 9396 7d32 107c cb30
000002b0: aae0 e231 0c92 2531 471a d531 02c6 6132
000002c0: 5421 b731 25f9 b131 49d5 5632 0bf3 8e31
000002d0: 79cc 8532 4baf ee32 1400 af31 05f7 5f31
000002e0: 16f7 1932 ee78 d930 c858 6e33 d3b6 e230
000002f0: 3e99 8131 8345 0531 f02f 8132 38de f931
00000300: 5605 9e31 ecb4 b531 aac0 5932 96bb 8031
00000310: b5d0 6a32 e905 b932 b428 e431 5519 3f31
00000320: 3901 fb31 0681 7930 d723 4e33 dc05 b630
00000330: c65d 6131 d975 1b31 7eda af32 6e8d d231
00000340: a54c f531 d073 ba31 ef2a 1b32 5d55 3c31
00000350: 01ca 3f32 ab25 5232 b68b 3532 0e5a e931
00000360: c7e8 c031 af89 2130 eafe 1233 10ea ad30
00000370: 4950 4231 e026 4f31 2b6a c332 706c 7a32
00000380: 2606 1532 9cc2 fe31 eaac 3c31 44ac 1d31
00000390: 3604 9d31 a6e1 dd31 945a f031 389b 0c32
000003a0: 3027 2131 98c6 0e31 7d16 4732 3263 e230
000003b0: 8df3 6631 715e 1b31 3958 1932 39a3 5732
000003c0: 6326 3b32 b528 5432 eed7 9532 d863 1933
000003d0: 1ce6 dc32 2965 c633 a224 a532 3380 3533
000003e0: 3ebd 5433 b930 a331 b5a2 e433 3f66 ea32
000003f0: b21c 8c32 4c72 ec31 d830 3732 4fee c132

exp_avg f4 [16]
7.472278e-05 -0.00068011595 8.969889e-05 -0.0006951271 -0.0007437513 0.0006086806 0.0008389387 0.0016745278
-0.00020342715 0.00013923614 0.00047565345 -0.00054103776 -0.00028808418 -0.00023653028 -0.0004957037 9.778708e-05
00000000: 7db4 9c38 cf49 32ba ba1c bc38 3139 36ba
00000010: 4ef8 42ba dd8f 1f3a 39ec 5b3a d47b db3a
00000020: 0f4f 55b9 ebff 1139 2061 f939 6ed4 0dba
00000030: 010a 97b9 1d05 78b9 1df2 01ba 0a13 cd38

exp_avg_sq f4 [16]
3.0313715e-05 2.7381202e-05 2.107774e-05 1.8732586e-05 3.942098e-05 2.9772662e-05 1.4396353e-05 2.8156628e-05
3.277382e-05 2.2580121e-05 5.163329e-05 1.7427798e-05 3.3727945e-05 6.0101822e-05 7.517587e-05 2.3824501e-05
00000000: 354a fe37 afb0 e537 1ad0 b037 ec23 9d37
00000010: f457 2538 4ec0 f937 de87 7137 e631 ec37
00000020: 9f76 0938 716a bd37 d390 5838 e931 9237
00000030: 1b77 0d38 d715 7c38 bda7 9d38 bada c737

exp_avg f4 [16]
-0.00050000154 -0.0006929867 0.00082075427 0.00029874826 -3.398674e-05 -0.00013370607 0.0008643452 -0.00039262933
-0.00045420884 -0.0007173373 0.00030267684 9.595233e-05 -7.171345e-05 0.0011872783 0.00014442623 -0.0002973474
00000000: 8912 03ba 8da9 35ba e327 573a 50a1 9c39
00000010: fc8c 0eb8 7333 0cb9 3995 623a d1d9 cdb9
00000020: e122 eeb9 b10b 3cba 99b0 9e39 043a c938
00000030: de64 96b8 739e 9b3a 1f71 1739 4be5 9bb9

exp_avg_sq f4 [16]
1.9313418e-05 3.7212027e-05 2.9940575e-05 4.5126188e-05 1.8847944e-05 3.202408e-05 2.4014767e-05 4.7875637e-05
1.7382308e-05 5.0446222e-05 2.5763593e-05 3.5104553e-05 4.566049e-05 0.0001745544 4.1791216e-05 2.1837106e-05
00000000: 4003 a237 1c14 1c38 e528 fb37 e045 3d38
00000010: a71b 9e37 9851 0638 5273 c937 13ce 4838
00000020: 39d0 9137 3896 5338 e51e d837 3a3d 1338
00000030: 9483 3f38 9708 3739 fa48 2f38 d42e b737

exp_avg f4 [16]
0.00035994063 -0.0009323633 0.00014983187 -0.000718547 -0.00064233056 0.00025417787 0.0008779348 0.0014509581
0.00016201727 -0.00010113959 0.00046251918 -0.00075105176 -0.00060933945 0.00021579847 -0.00026107364 0.00035836548
00000000: 6ab6 bc39 d869 74ba 301c 1d39 df5c 3cba
00000010: 1362 28ba 2d43 8539 3525 663a 132e be3a
00000020: 2ee3 2939 e71a d4b8 467e f239 3be2 44ba
00000030: 14bc 1fba f647 6239 b6e0 88b9 00e3 bb39

exp_avg_sq f4 [16]
2.0915524e-05 1.8062306e-05 1.6085327e-05 2.6886188e-05 2.710213e-05 2.3890865e-05 1.8422807e-05 2.0048697e-05
2.0356998e-05 1.8041555e-05 3.262836e-05 1.6530315e-05 4.2924756e-05 2.361734e-05 5.048136e-05 1.4544821e-05
00000000: bf73 af37 8284 9737 faee 8637 a689 e137
00000010: 6259 e337 3e69 c837 ad8a 9a37 402e a837
00000020: 52c4 aa37 f257 9737 6fda 0838 95aa 8a37
00000030: 1b0a 3438 da1d c637 f3bb 5338 8805 7437

exp_avg f4 [16]
-0.0004392433 -0.0008982487 0.0008273259 0.00058496214 4.8378253e-05 -0.00036056308 0.0011193432 1.515974e-05
-0.00053070905 -0.0005561064 0.00023017175 -6.2707404e-05 -5.439745e-05 0.00078920275 0.0001346775 -0.00048066815
00000000: 3d4a e6b9 7378 6bba e7e0 583a 2558 193a
00000010: c1e9 4a38 f509 bdb9 edb6 923a 9656 7e37
00000020: 481f 0bba abc7 11ba 425a 7139 c881 83b8
00000030: d128 64b8 80e2 4e3a 3738 0d39 3002 fcb9

exp_avg_sq f4 [16]
1.2149878e-05 2.1373464e-05 2.2144777e-05 2.8965005e-05 2.2945174e-05 3.3717417e-05 2.9435432e-05 3.0889416e-05
2.432936e-05 6.8924215e-05 3.0487578e-05 5.1156916e-05 2.759954e-05 6.6708184e-05 1.1028827e-05 1.5945665e-05
00000000: 54d7 4b37 2a4b b337 8cc3 b937 e0f9 f237
00000010: 637a c037 cd6b 0d38 1cec f637 428f 0138
00000020: e716 cc37 688b 9038 93bf ff37 5291 5638
00000030: 9085 e737 afe5 8b38 7408 3937 0ec3 8537

exp_avg f4 [48, 16]
7.6352335e-06 2.0063278e-05 -4.8570605e-06 -3.904059e-05 1.2578432e-05 -2.8052427e-05 1.2822746e-05 1.2669992e-05
-2.7576027e-05 5.24727e-06 5.0574206e-05 -6.6260163e-06 3.577724e-05 -1.8957118e-05 -1.2125675e-05 -1.3573661e-05
6.607964e-06 -1.2362202e-06 1.958039e-05 -2.7038793e-06 1.5370097e-05 -1.2498958e-05 -3.704567e-05 9.810787e-06
-9.369443e-06 2.1051308e-05 1.5112885e-05 -3.8420862e-06 2.3332364e-05 -3.365677e-05 -2.1866483e-05 4.6683913e-06
4.452609e-05 -2.5670322e-05 1.0764416e-05 2.4960033e-05 -5.5512133e-05 3.6415826e-05 -3.3881566e-05 -3.6409394e-05
2.9873072e-05 -1.584092e-05 -1.5182903e-05 -1.3329526e-05 -1.4893431e-05 -1.5714448e-05 3.476626e-05 5.540549e-05
6.494173e-05 -3.0484982e-05 4.1356023e-05 5.3974625e-05 -1.3143651e-05 -2.3279168e-05 -5.0916882e-05 -4.058826e-05
6.8121635e-06 2.5463341e-05 2.95908e-05 -1.284194e-05 1.7726437e-05 -1.1532937e-06 -8.615901e-05 1.3108321e-05
-5.465442e-07 -3.0516994e-05 -5.944505e-06 4.5721285e-05 -6.8416425e-06 -3.5653895e-05 3.3141334e-06 4.0817864e-05
1.6526976e-05 7.768892e-06 3.2789783e-05 4.804081e-06 -2.149257e-05 -7.5078256e-06 -1.5322685e-05 -2.0335947e-05
2.7906024e-06 2.4327266e-05 -6.5470335e-06 -4.5813114e-05 3.9923e-05 -6.7782756e-05 4.0643066e-05 2.7978427e-05
-5.6823963e-05 2.2692673e-05 7.7728015e-05 8.706307e-06 4.9738675e-05 2.746778e-06 -6.1044935e-05 -6.0231538e-05
-1.8632067e-05 -3.2344666e-05 -8.532766e-06 4.016992e-05 1.8217217e-05 -8.544354e-06 1.0898961e-05 3.177116e-05
9.293541e-06 -1.1047745e-05 -1.3325093e-05 1.3459607e-05 -5.6120713e-05 6.2541408e-06 4.0917206e-05 -1.9122781e-05
-3.669587e-05 3.2584123e-06 -1.160888e-06 2.3595623e-05 -1.5983927e-05 0.000100602745 -2.3451548e-05 -5.6495606e-05
3.8621176e-05 -3.841164e-05 -0.0001264962 -4.642987e-06 -5.5548677e-05 2.0894731e-05 0.000105968844 6.174533e-05
-5.7851544e-06 -2.9535948e-05 4.4598895e-05 4.8771453e-05 1.9186715e-05 -5.6221063e-05 -3.9168855e-05 5.5021833e-06
-2.0619935e-05 4.031434e-05 4.404582e-05 -7.97954e-06 1.035446e-05 -2.4214087e-05 -3.4624114e-05 3.5373362e-06
-1.1799935e-05 -3.075325e-05 3.913183e-05 2.190555e-05 2.1557766e-05 9.601492e-06 -2.488267e-05 -1.8601117e-05
1.4116663e-05 1.4711261e-06 -1.6466454e-05 -2.871241e-06 -2.4370565e-05 2.1718219e-05 9.417276e-06 -1.9231575e-05
4.8321614e-05 -4.2528154e-05 -5.750477e-07 3.9806368e-05 -1.49428615e-05 1.6136628e-05 -5.1241008e-05 -3.8933435e-05
2.2074308e-05 9.118757e-06 -1.43651505e-05 6.581047e-06 9.90047e-06 5.8791825e-06 -4.2264915e-06 5.5983064e-06
-9.88506e-06 4.4484863e-05 7.1341506e-06 -5.20562e-05 4.385254e-05 -4.3780925e-05 3.1101867e-05 4.139574e-05
-4.2030682e-05 -9.7580005e-06 4.5338402e-05 -6.826958e-07 -1.04118935e-05 3.3719111e-06 -3.685414e-05 -1.3009318e-05
-2.6708749e-05 -2.2688007e-06 2.5918393e-06 -1.6987668e-06 2.5737356e-05 -2.5997662e-05 4.053202e-05 1.9998859e-05
-8.605291e-06 -6.132256e-06 7.0678993e-06 1.1672031e-05 -2.6923179e-05 3.400416e-06 -1.2579364e-05 -1.9811232e-06
3.7603993e-06 4.4916986e-05 1.1619104e-05 -3.7562397e-05 -3.2074022e-06 2.1945996e-05 -4.879975e-05 -4.8912803e-05
-2.048099e-05 3.1387586e-05 -4.722561e-06 -5.1000672e-05 4.2495903e-05 2.531262e-05 6.134404e-05 -2.3574505e-05
-4.234884e-06 1.3048744e-05 -2.10296e-05 -2.5489522e-05 -3.4748602e-05 -2.5850136e-06 1.1138196e-05 1.588127e-05
4.9141267e-06 1.6037638e-05 1.2435005e-05 -1.3098649e-05 6.224126e-05 -1.6952434e-05 -3.1563943e-06 -5.8298324e-06
1.8170937e-06 1.7263015e-05 -9.323077e-06 -3.2437285e-05 -4.9403447e-05 -1.341199e-05 -7.904077e-06 7.761431e-06
-1.4612431e-05 4.373988e-05 1.3775828e-05 -1.7489325e-05 9.033603e-05 -3.834572e-05 1.2814302e-05 3.438123e-06
00000000: 1419 0037 904d a837 d5f9 a2b6 84bf 23b8
00000010: f407 5337 2152 ebb7 4621 5737 3491 5437
00000020: 1153 e7b7 b511 b036 a41f 5438 0c55 deb6
00000030: 850f 1638 1a06 9fb7 616f 4bb7 6eba 63b7
00000040: fbb9 dd36 34ec a5b5 9140 a437 4b74 35b6
00000050: 08ef 8037 9eb2 51b7 7c61 1bb8 0299 2437
00000060: 7431 1db7 5797 b037 598d 7d37 45eb 80b6
00000070: dfb9 c337 ae2a 0db8 ea6d b7b7 2da5 9c36
00000080: 86c1 3a38 9956 d7b7 d198 3437 4361 d137
00000090: b3d5 68b8 32bd 1838 0e1c 0eb8 4ab6 18b8
000000a0: ef97 fa37 1ee2 84b7 12ba 7eb7 e1a1 5fb7
000000b0: cdde 79b7 85d2 83b7 fdd1 1138 3163 6838
000000c0: 5331 8838 00ba ffb7 b175 2d38 d062 6238
000000d0: 8d83 5cb7 a247 c3b7 968f 55b8 503d 2ab8
000000e0: 0a94 e436 1c9a d537 c239 f837 b673 57b7
000000f0: 3cb3 9437 dfca 9ab5 44b0 b4b8 cfeb 5b37
00000100: 3bb6 12b5 bffe ffb7 e976 c7b6 dbc4 3f38
00000110: 4391 e5b6 148b 15b8 6168 5e36 d933 2b38
00000120: 69a3 8a37 2357 0237 c387 0938 be32 a136
00000130: f14a b4b7 bbeb fbb6 3789 80b7 1d97 aab7
00000140: 2f46 3b36 6812 cc37 97ae dbb6 7527 40b8
00000150: ff72 2738 9726 8eb8 2978 2a38 37b3 ea37
00000160: 4456 6eb8 255c be37 e901 a338 4e11 1237
00000170: 7f9e 5038 4955 3836 4005 80b8 1fa1 7cb8
00000180: 0f4c 9cb7 d2a9 07b8 f327 0fb7 207c 2838
00000190: 2dd1 9837 b959 0fb7 aeda 3637 0642 0538
000001a0: 74eb 1b37 b459 39b7 d78e 5fb7 92d0 6137
000001b0: 2863 6bb8 a9da d136 849e 2b38 dc69 a0b7
000001c0: e4e9 19b8 19ab 5a36 cfcf 9bb5 37ef c537
000001d0: 3915 86b7 b0fa d238 d1b9 c4b7 b2f5 6cb8
000001e0: 2cfd 2138 2f1c 21b8 11a4 04b9 f4ca 9bb6
000001f0: f0fc 68b8 1847 af37 973b de38 467d 8138
00000200: 191e c2b6 f7c3 f7b7 b30f 3b38 f38f 4c38
00000210: 28f3 a037 e8ce 6bb8 3d49 24b8 659f b836
00000220: f9f8 acb7 3117 2938 d7bd 3838 dddf 05b7
00000230: 11b8 2d37 5b1f cbb7 5c39 11b8 f962 6d36
00000240: 56f8 45b7 0dfd 00b8 7c21 2438 cfc1 b737
00000250: f3d6 b437 1816 2137 20bb d0b7 9809 9cb7
00000260: 9bd6 6c37 8273 c535 7121 8ab7 8baf 40b6
00000270: 646f ccb7 852f b637 e4fe 1d37 7e53 a1b7
00000280: f0ac 4a38 4260 32b8 fa5c 1ab5 c3f5 2638
00000290: 1ab3 7ab7 255d 8737 9deb 56b8 754c 23b8
000002a0: 372c b937 c3fc 1837 da01 71b7 c3d2 dc36
000002b0: 321a 2637 cb45 c536 49d1 8db6 16d9 bb36
000002c0: 02d8 25b7 4295 3a38 e361 ef36 eb56 5ab8
000002d0: 4eee 3738 69a1 37b8 6073 0238 56a0 2d38
000002e0: 1a4a 30b8 4bb6 23b7 bd29 3e38 8042 37b5
000002f0: beae 2eb7 fe48 6236 d593 1ab8 9842 5ab7
00000300: 9a0c e0b7 b341 18b6 76ef 2d36 2f01 e4b5
00000310: 8de6 d737 8e15 dab7 ed00 2a38 39c3 a737
00000320: 725f 10b7 aec3 cdb6 cb28 ed36 fed2 4337
00000330: 16d9 e1b7 b432 6436 f50b 53b7 70f3 04b6
00000340: 2b5b 7c36 3f65 3c38 acef 4237 518c 1db8
00000350: c03e 57b6 ab18 b837 55ae 4cb8 b927 4db8
00000360: 97ce abb7 2aa6 0338 7d76 9eb6 8ee9 55b8
00000370: a13d 3238 7056 d437 d5a5 8038 ddc1 c5b7
00000380: 6019 8eb6 eeeb 5a37 b968 b0b7 55d2 d5b7
00000390: 07bf 11b8 327a 2db6 30de 3a37 c538 8537
000003a0: 07e4 a436 9188 8637 f19f 5037 45c2 5bb7
000003b0: 8687 8238 1335 8eb7 71d2 53b6 e19d c3b6
000003c0: dde2 f335 0bd0 9037 506a 1cb7 450d 08b8
000003d0: 8c36 4fb8 0f04 61b7 c19b 04b7 1837 0237
000003e0: ea27 75b7 5775 3738 bb1e 6737 0ab6 92b7
000003f0: c972 bd38 67d5 20b8 02fd 5637 81ba 6636

exp_avg_sq f4 [48, 16]
2.2218101e-08 3.352593e-08 1.31808955e-08 8.53037e-08 2.3065615e-08 1.5446934e-08 2.2843794e-08 1.9145228e-08
2.8155474e-08 6.339792e-09 1.521094e-07 7.057268e-08 1.8128395e-07 2.060789e-08 3.2671235e-08 4.1146624e-08
1.636389e-08 2.5518606e-08 7.0191617e-09 2.2717872e-08 9.338339e-09 5.8864456e-09 7.669968e-09 9.44623e-09
1.5109133e-08 6.8763257e-09 1.593973e-08 8.482526e-09 3.571001e-08 1.3915184e-08 2.1305963e-08 1.0106497e-08
7.2945845e-08 6.5679345e-08 2.2369683e-08 1.3555055e-07 5.900325e-08 5.045977e-08 3.6738193e-08 7.449391e-08
5.6099456e-08 1.4454599e-08 1.6999786e-07 4.7919006e-08 1.8068545e-07 2.9099848e-08 4.6437812e-08 9.0817316e-08
9.8524005e-08 1.4481596e-07 9.032082e-08 2.444378e-07 7.070586e-08 9.460388e-08 5.2307584e-08 1.093513e-07
9.39591e-08 5.135872e-08 3.9582835e-07 9.389813e-08 3.062777e-07 7.103505e-08 1.6270131e-07 1.11014366e-07
3.9418957e-08 9.363351e-08 1.46006744e-08 1.09260036e-07 6.9563654e-08 4.339133e-08 2.5661105e-08 4.203466e-08
7.259526e-08 1.5283215e-08 9.0616375e-08 7.4299514e-08 3.4563595e-07 4.347274e-08 4.0205872e-08 4.6325063e-08
7.7487606e-08 1.09021315e-07 2.245004e-08 1.1885108e-07 6.375494e-08 6.452609e-08 5.2924754e-08 7.442492e-08
6.0865105e-08 2.5283434e-08 8.238403e-08 7.418985e-08 3.0237842e-07 5.2691195e-08 8.781892e-08 1.2916615e-07
1.829614e-08 3.889642e-08 1.0779351e-08 3.1543554e-08 1.719542e-08 9.149389e-09 1.3731157e-08 1.5591407e-08
1.5925544e-08 9.4008925e-09 1.9222623e-08 1.5380488e-08 4.8484623e-08 2.0157355e-08 3.7108457e-08 1.8556156e-08
1.3125364e-07 2.6915168e-07 3.736724e-08 2.977211e-07 1.5052548e-07 1.1967751e-07 9.817985e-08 1.1015683e-07
1.5485848e-07 7.7526835e-08 2.5696235e-07 2.6061082e-07 9.671353e-07 1.3942305e-07 2.2517655e-07 1.854245e-07
2.8797226e-08 1.0589271e-07 5.379738e-08 2.1512555e-07 7.19396e-08 9.316802e-08 9.463412e-08 4.799167e-08
7.449987e-08 2.0029427e-08 2.2866318e-07 3.546001e-08 8.2753274e-08 5.6719372e-08 2.4698627e-07 3.4576722e-08
4.2657827e-08 1.06067034e-07 2.2062407e-08 9.5959244e-08 2.8732988e-08 4.0660375e-08 3.142301e-08 3.7628507e-08
5.436817e-08 4.0008473e-08 9.477285e-08 3.9326356e-08 8.3627484e-08 7.6267334e-08 4.431598e-08 3.20487e-08
3.81411e-08 7.775898e-08 1.251134e-08 1.2247088e-07 3.899788e-08 1.6768917e-08 2.5118709e-08 3.525812e-08
6.3191194e-08 3.1186385e-08 6.658197e-08 4.873937e-08 1.5577092e-07 5.425755e-08 6.223573e-08 3.3339088e-08
3.8852512e-08 6.7879576e-08 2.9944697e-08 9.2877144e-08 7.8603456e-08 6.280865e-08 6.184659e-08 4.951529e-08
4.0503856e-08 1.8234157e-08 1.247791e-07 2.9612478e-08 9.565016e-08 4.7388223e-08 1.6855664e-07 5.0453934e-08
1.7916586e-08 6.473056e-08 1.6063241e-08 7.038575e-08 3.4218193e-08 1.5019129e-08 5.5586586e-08 3.0003765e-08
3.8285037e-08 1.4049252e-08 5.1397937e-08 3.7494257e-08 1.4011667e-07 4.4699473e-08 1.5213202e-07 2.8958171e-08
7.3835714e-08 2.624354e-07 4.3063746e-08 4.195866e-07 1.2052628e-07 1.445193e-07 1.9366801e-07 7.555241e-08
2.786919e-07 9.226437e-08 4.9843305e-07 2.3820664e-07 7.982108e-07 2.0159564e-07 1.4434603e-07 9.130946e-08
9.417591e-09 2.22857e-08 4.878002e-09 4.3530616e-08 1.6699744e-08 3.5716326e-08 4.9391456e-08 1.4181609e-08
1.8586617e-08 1.0018067e-08 8.746306e-08 2.7409342e-08 8.261063e-08 1.9893795e-08 2.8951359e-08 2.839341e-08
2.8206289e-08 1.0706206e-07 2.6981283e-08 1.4666985e-07 7.5994755e-08 2.8744632e-08 6.417167e-08 3.328821e-08
7.137809e-08 3.3801314e-08 9.709541e-08 4.054736e-08 1.6098664e-07 5.786589e-08 2.2917948e-07 3.4737766e-08
00000000: 1fda be32 26fe 0f33 3172 6232 3430 b733
00000010: d321 c632 2bb0 8432 093a c432 cd74 a432
00000020: 8bda f132 66d5 d931 8353 2334 be8d 9733
00000030: f4a6 4234 3b05 b132 6752 0c33 31b9 3033
00000040: 9390 8c32 0234 db32 332d f131 2125 c332
00000050: 736e 2032 b941 ca31 e0c4 0332 f548 2232
00000060: 56c9 8132 cd44 ec31 d6eb 8832 8bba 1132
00000070: 925f 1933 a00f 6f32 4f04 b732 d8a0 2d32
00000080: 67a6 9c33 9a0b 8d33 7427 c032 da8b 1134
00000090: c26a 7d33 1bb9 5833 12ca 1d33 76f9 9f33
000000a0: 01f2 7033 0054 7832 a888 3634 81cf 4d33
000000b0: 7002 4234 3ef7 f932 ea72 4733 5907 c333
000000c0: 2594 d333 b57e 1b34 65f6 c133 473b 8334
000000d0: f5d6 9733 0829 cb33 cca8 6033 83d4 ea33
000000e0: 90c6 c933 8395 5c33 3c82 d434 0ba5 c933
000000f0: 7d6e a434 ef8b 9833 ffb2 2e34 cb66 ee33
00000100: 9a4d 2933 9113 c933 72d6 7a32 57a2 ea33
00000110: 0663 9533 465d 3a33 5e6d dc32 9989 3433
00000120: abe5 9b33 2548 8332 e198 c233 978e 9f33
00000130: d88f b934 c8b6 3a33 d3ae 2c33 f2f6 4633
00000140: 4367 a633 1a1f ea33 29d8 c032 123b ff33
00000150: a6e9 8833 9891 8a33 624f 6333 88d3 9f33
00000160: f2b4 8233 dc2e d932 19eb b033 4d52 9f33
00000170: 9356 a234 954e 6233 f696 bc33 ecb0 0a34
00000180: a329 9d32 110f 2733 1630 3932 817a 0733
00000190: 21b5 9332 702f 1d32 44e6 6b32 deed 8532
000001a0: a4cc 8832 9081 2132 ff1e a532 0d1e 8432
000001b0: 683d 5033 7e26 ad32 2e61 1f33 6b65 9f32
000001c0: baee 0c34 ed7f 9034 b77d 2033 7ad6 9f34
000001d0: 21a0 2134 b480 0034 f1d6 d233 5c8f ec33
000001e0: 2d47 2634 d47c a633 a3f4 8934 14ea 8b34
000001f0: 84ce 8135 51b4 1534 0fc8 7134 1919 4734
00000200: c55d f732 2267 e333 d80e 6733 43fd 6634
00000210: 377d 9a33 a913 c833 a839 cb33 661f 4e33
00000220: bdfc 9f33 2d0d ac32 7586 7534 b14c 1833
00000230: 18b6 b133 9c9b 7333 8999 8434 8281 1433
00000240: c736 3733 f8c6 e333 bf83 bd32 2712 ce33
00000250: 82d0 f632 8ea2 2e33 f7f5 0633 fb9c 2133
00000260: 6f82 6933 c8d5 2b33 ed85 cb33 c9e7 2833
00000270: b296 b333 69c8 a333 ef55 3e33 eba5 0933
00000280: 95d0 2333 74fc a633 75f1 5632 8a80 0334
00000290: 9f7e 2733 3d0b 9032 a0c4 d732 b76e 1733
000002a0: bab3 8733 cbf1 0533 d3fb 8e33 8155 5133
000002b0: fc41 2734 cf08 6933 74a6 8533 b730 0f33
000002c0: cade 2633 31c5 9133 8b9c 0033 c073 c733
000002d0: b5cc a833 6ce1 8633 86d0 8433 a3aa 5433
000002e0: 76f6 2d33 56a1 9c32 05fb 0534 875e fe32
000002f0: 3b68 cd33 e787 4b33 7ffc 3434 b0b2 5833
00000300: fde6 9932 0002 8b33 71fb 8932 fa26 9733
00000310: 4df7 1233 6a03 8132 19be 6e33 7ddd 0033
00000320: d86e 2433 445d 7132 a1c0 5c33 5f09 2133
00000330: fa72 1634 97fb 3f33 bb59 2334 b1bf f832
00000340: 9d8f 9e33 d9e4 8c34 17f5 3833 8b43 e134
00000350: 036a 0134 2a2d 1b34 0ff3 4f34 603f a233
00000360: 209f 9534 e022 c633 0fcc 0535 bec5 7f34
00000370: a144 5635 3076 5834 89fd 1a34 e815 c433
00000380: 01cb 2132 c66e bf32 5c9b a731 6bf6 3a33
00000390: 2073 8f32 8466 1933 7b22 5433 60a3 7332
000003a0: 67a8 9f32 ed1b 2c32 53d3 bb33 c871 eb32
000003b0: ad67 b133 ebe2 aa32 b6b0 f832 c5e5 f332
000003c0: 494a f232 fde9 e533 78c4 e732 4d7c 1d34
000003d0: 8f32 a333 1dea f632 c0ce 8933 c6f8 0e33
000003e0: 8548 9933 f02c 1133 c482 d033 4b26 2e33
000003f0: acdb 2c34 3888 7833 6014 7634 9432 1533

exp_avg f4 [48]
-2.0836924e-05 -4.2628158e-06 -5.0258386e-05 -3.2365013e-05 -7.528716e-06 3.2940823e-06 1.8159737e-05 3.079825e-05
-1.7104217e-05 -2.2415637e-05 -1.6790496e-05 2.4321516e-05 1.9490271e-05 -5.6199307e-05 9.764111e-06 -6.717887e-06
-3.4368605e-11 -6.646914e-11 -7.9536495e-11 -4.2890488e-10 -7.1235773e-12 1.2436598e-10 6.66903e-12 6.786738e-11
-7.71927e-12 6.146056e-11 -2.0597241e-11 -4.76434e-11 -9.821711e-12 2.4484241e-11 1.0900991e-11 3.6185152e-11
9.6692136e-05 8.035185e-05 -2.1506235e-05 -3.6060643e-05 1.1349332e-05 -0.0001215953 -2.1179385e-05 -0.000103459
0.00015213001 -0.00024010769 -0.00032158234 -1.3093911e-05 4.6244604e-05 3.2999797e-05 -0.0001574157 -7.981423e-05
00000000: f4ca aeb7 4f09 8fb6 88cc 52b8 abbf 07b8
00000010: 2e9f fcb6 e70f 5d36 bd55 9837 5e2d 0138
00000020: 077b 8fb7 3709 bcb7 51d9 8cb7 0f06 cc37
00000030: 0a7f a337 8cb7 6bb8 8ad0 2337 366a e1b6
00000040: 9c27 17ae cd2a 92ae 11e7 aeae ffca ebaf
00000050: 7ba3 faac e9bd 082f 48a5 ea2c f03d 952e
00000060: 80cc 07ad 3827 872e dd2c b5ad b389 51ae
00000070: 0ec9 2cad 9c5d d72d b3c5 3f2d dc24 1f2e
00000080: 32c7 ca38 9282 a838 4a68 b4b7 d23f 17b8
00000090: 0369 3e37 fb00 ffb8 62aa b1b7 21f8 d8b8
000000a0: 1785 1f39 6bc5 7bb9 0d9a a8b9 ebad 5bb7
000000b0: c4f6 4138 4369 0a38 f50f 25b9 f061 a7b8

exp_avg_sq f4 [48]
7.188005e-08 2.7457688e-08 8.01552e-08 5.3205827e-07 3.1958464e-08 7.4616345e-08 2.6808136e-08 1.0554258e-07
9.566747e-08 7.0750936e-08 6.152777e-08 6.3990974e-08 7.264302e-08 2.5320568e-07 2.5327973e-08 8.891643e-08
2.9931102e-21 7.887378e-21 1.4870636e-20 2.0940575e-19 1.4967872e-21 1.2763963e-20 1.6408378e-21 8.748776e-21
1.9611562e-21 4.4800037e-21 5.6226956e-21 1.9317234e-20 5.8319755e-21 5.2128345e-21 1.9266262e-21 2.3111941e-21
8.682687e-07 9.3764993e-07 8.734729e-06 1.1250941e-06 2.8710913e-06 2.0345858e-06 1.8293191e-06 4.2935443e-07
3.6944814e-06 4.210573e-06 5.882182e-06 3.8397775e-06 4.577166e-06 7.0084036e-07 1.8146051e-06 1.7286357e-06
00000000: 7a5c 9a33 18dc eb32 ca21 ac33 c4d2 0e35
00000010: b442 0933 c53c a033 b747 e632 a6a6 e233
00000020: bf71 cd33 bdef 9733 4021 8433 696b 8933
00000030: ecff 9b33 53f0 8734 cd90 d932 53f2 be33
00000040: 2c27 621d 05fd 141e fe72 8c1e 0139 7720
00000050: 2630 e21c bd1a 711e d6f4 f71c 7c42 251e
00000060: 472e 141d f03f a91d 606b d41d 3572 b61e
00000070: 6853 dc1d 71ef c41d 5f92 111d ffa0 2e1d
00000080: f912 6935 d0b2 7b35 608b 1237 f001 9735
00000090: f9ac 4036 eb89 0836 ed86 f535 0682 e634
000000a0: b5ee 7736 8c48 8d36 8f5f c536 70d7 8036
000000b0: 8e95 9936 6221 3c35 5b8d f335 7803 e835
