models/fmnist_gen.ckpt (torch, 568661 bytes, 309 tensors)

exp_avg f4 [16]
00000000: bea7 3238 654c 8f39 a915 6eb8 3324 85b6
00000010: 4651 11b9 a746 7539 f5c0 fa38 7435 09b9
00000020: 55f2 47b9 bddd f8b8 ec00 5739 bef3 5138
00000030: c7b0 1eb9 4cb4 2db7 8d90 1fb9 dc5a f237
4.259473e-05 0.00027332004 -5.6763794e-05 -3.967923e-06 -0.00013858554 0.00023391341 0.0001195687 -0.00013085251
-0.00019068395 -0.000118668635 0.00020504341 5.0056486e-05 -0.00015133909 -1.0353582e-05 -0.00015217271 2.8890958e-05

exp_avg_sq f4 [16]
00000000: 8e04 a634 a133 bc34 7d84 0d33 eb5f 2833
00000010: 0e8f 6234 229d e134 f496 1034 ce1f f833
00000020: 8803 9e34 3712 9133 788b 9935 82c4 8034
00000030: 2d94 2d34 bb46 5135 0002 7434 9de5 9632
3.0923223e-07 3.5055294e-07 3.2949618e-08 3.9202785e-08 2.1099933e-07 4.2023845e-07 1.3465962e-07 1.1554185e-07
2.9432363e-07 6.755402e-08 1.1439979e-06 2.3984836e-07 1.6165787e-07 7.7961494e-07 2.2724998e-07 1.7566714e-08

exp_avg f4 [16, 16]
00000000: 5880 d23a ba6e a639 46ea d5b7 7579 1ab9
00000010: 17ab 233a 4367 ceb9 68b8 043a 51bd 8cb9
00000020: 1bfb 4939 d917 9cb9 78bd fbba 23ad 14bb
00000030: bbcc b5b9 e141 323b 12f0 2539 4c38 efb9
00000040: 0756 b639 d2f5 2739 ee1a 12b9 9d41 1a38
00000050: 4838 3ab9 b2f8 2238 e66d 22b9 dd78 24b9
00000060: ea54 2f39 5a55 0437 34d3 f3b9 6f2a c138
00000070: 5a3b 3eb8 13d2 0f39 db69 6537 9026 1039
00000080: 2d64 0f39 90b2 eeb7 c7d6 dbb8 9cb6 42b7
00000090: 7eb1 51b8 f4d5 6938 7f81 29b8 b618 c8b8
000000a0: 928d ba38 64f6 af38 5280 03b9 56c7 6b38
000000b0: 6afe cab7 f57b 5f38 e94f e9b8 98c3 f438
000000c0: e8a8 b2b9 97e6 a5b9 48ba 5838 0f3b 073a
000000d0: 69c9 0b38 82c0 a0b9 5749 27b9 0856 0b39
000000e0: ddcc b738 4493 d8b8 0680 6839 ec94 1739
000000f0: a52c 08b8 17d2 2bb9 0cce 1138 1f3e 5239
00000100: 9336 ae37 ae95 9ab7 1e1f ac36 0115 74b7
00000110: 81fc 4d38 6d2c e936 1543 2137 7b0e 02b6
00000120: d312 52b8 c33f 8b37 898a a137 2648 a2b8
00000130: 1a5b f737 8881 0338 ef27 f437 50a6 66b8
00000140: 3e66 dcb9 97b9 9cb9 9aa2 f438 74cd 3039
00000150: 4c7c bf38 2a05 91b9 9065 d0b6 e79d 5339
00000160: d939 07b8 716c fc37 981d b739 fa68 1139
00000170: be5e 10b6 62c1 8db9 1496 0538 d84d 3b39
00000180: f700 60b7 e33e 4ab7 8003 2038 5952 0139
00000190: a399 32b7 851c bbb8 9dab d0b8 04b8 9337
000001a0: 3b82 1539 a657 14b8 3603 b0b8 da3e e0b8
000001b0: cb19 9a38 69d3 5538 2d8d 3b38 8223 27b8
000001c0: 9d27 aa38 254b 5a36 5792 a3b7 95b3 9db6
000001d0: 2a32 2b36 5286 3238 d928 3e38 27c8 5db8
000001e0: 023b 9d37 c493 c8b6 dfdd efb8 f35b 2db6
000001f0: 09ce afb8 0619 b838 b408 1cb8 966a 2638
00000200: d7c0 2d39 7aae 8938 f887 a0b8 861d be36
00000210: 9d26 b6b8 dbee 4938 ecdd d9b8 f19c f0b8
00000220: 97d3 9837 e9db fa38 beff 04b9 6e83 04b6
00000230: 9c58 b738 d146 6d35 da01 6a37 eb04 72b7
00000240: 29ae e238 8e94 8638 55f8 40b8 09e7 93b8
00000250: 9dcd ddb8 6bbb 5c39 d43e 6e38 3e39 12b9
00000260: 71ba ee38 2eee dd38 d51b e9b8 fb05 e3b7
00000270: 7a30 1ab8 f57a dd38 84c7 16b9 a6d4 b0b8
00000280: 23d5 26b8 1d01 4ab8 f623 ae37 1568 0039
00000290: 09a6 2038 d736 80b9 b543 85b8 a502 0339
000002a0: 442e 15b8 62e5 25b9 5d0e 3ab6 f85b a738
000002b0: 0de8 43b8 a426 84b8 47fe 2039 a966 2a39
000002c0: 658b cb37 92bd 90b8 8e23 b4b7 8a0a c937
000002d0: 25d2 b138 6405 23b9 c50a 58b8 b60a 7238
000002e0: 109a 1fb8 403c 0cb8 37da f5b6 9bc1 afb4
000002f0: 7220 4638 763f b9b6 84c4 3538 d073 d338
00000300: 2b05 dbb6 42a7 73b8 eaad 14b8 c6d1 ad38
00000310: 25f3 1d37 9917 4338 1713 4eb8 41e0 afb8
00000320: c53d 5fb8 9eac 1639 430b 0e39 a17e 51b7
00000330: 1256 d938 9b25 6db8 95c5 78b8 bb58 e0b8
00000340: af5c 3db9 d287 30b9 fc3b fc38 20e6 1339
00000350: 3aff 6839 8852 c3b9 3980 8f38 2657 7a39
00000360: 3387 b9b7 37c7 bcb9 d956 a436 190a fab7
00000370: 7e0b e3b8 5cb8 f938 6c96 3f39 1660 1739
00000380: 416f 5db9 e530 0db9 395f 7d38 aa86 2e38
00000390: 7efd 2538 b873 d1b8 670a 1d37 ca17 a938
000003a0: 2ec1 3a38 3db8 af38 0b78 2739 2802 02b8
000003b0: 50c5 8338 4897 ccb8 8166 25b8 4d0d 0338
000003c0: d19d e038 68b8 6d38 bad0 4937 eaf1 90b8
000003d0: ee81 c838 2578 1eb9 78b4 12b8 a382 9738
000003e0: 90d6 b3b8 f0ed c0b8 e154 9eb8 fcad 25b9
000003f0: fb1d ea38 7f55 9238 79af 3139 b565 ebb7
0.0016059978 0.00031744485 -2.550067e-05 -0.00014731831 0.0006243451 -0.00039368318 0.0005062879 -0.00026843933
0.00019262398 -0.00029772407 -0.0019206246 -0.0022686205 -0.00034675546 0.0027199911 0.0001582506 -0.00045627577
0.0003477784 0.00016017936 -0.00013933677 3.677757e-05 -0.00017759309 3.8855425e-05 -0.00015490464 -0.00015685284
0.00016720933 7.887686e-06 -0.0004650593 9.210861e-05 -4.5354805e-05 0.00013715801 1.367411e-05 0.00013747276
0.00013674861 -2.845496e-05 -0.00010482739 -1.1605818e-05 -4.9994786e-05 5.575079e-05 -4.0413343e-05 -9.541346e-05
8.895541e-05 8.390544e-05 -0.00012540937 5.6214012e-05 -2.4198747e-05 5.3282787e-05 -0.0001112519 0.00011671259
-0.0003407665 -0.00031643055 5.16719e-05 0.0005158642 3.332776e-05 -0.00030661008 -0.00015953682 0.00013288122
8.764279e-05 -0.00010327113 0.00022172937 0.0001445596 -3.2466505e-05 -0.00016386095 3.476259e-05 0.00020050303
2.076783e-05 -1.842793e-05 5.129622e-06 -1.4548424e-05 4.911097e-05 6.949113e-06 9.611967e-06 -1.9379938e-06
-5.0085433e-05 1.6599783e-05 1.9257206e-05 -7.738201e-05 2.9487117e-05 3.135347e-05 2.9105662e-05 -5.4991164e-05
-0.00042037846 -0.00029892914 0.000116651136 0.00016861205 9.130742e-05 -0.00027660403 -6.2107065e-06 0.00020181351
-3.2240383e-05 3.0091238e-05 0.0003492653 0.00013867384 -2.151282e-06 -0.00027037697 3.1849442e-05 0.00017862709
-1.3351665e-05 -1.205478e-05 3.8150232e-05 0.00012333076 -1.0645398e-05 -8.922167e-05 -9.950178e-05 1.7609455e-05
0.00014258262 -3.536758e-05 -8.392932e-05 -0.00010692859 7.3480966e-05 5.098005e-05 4.4715754e-05 -3.9848972e-05
8.11361e-05 3.2528271e-06 -1.9499259e-05 -4.6998707e-06 2.5510185e-06 4.2563603e-05 4.5337572e-05 -5.2876912e-05
1.8743336e-05 -5.9776667e-06 -0.00011437735 -2.583253e-06 -8.383027e-05 8.778465e-05 -3.7201404e-05 3.967675e-05
0.00016570404 6.565168e-05 -7.654721e-05 5.6658782e-06 -8.6856286e-05 4.8144586e-05 -0.000103887025 -0.000114733244
1.8218341e-05 0.000119618904 -0.00012683772 -1.9746035e-06 8.742625e-05 8.839243e-07 1.3947918e-05 -1.4425469e-05
0.000108089596 6.4172884e-05 -4.6007644e-05 -7.05254e-05 -0.000105764 0.00021050654 5.6802135e-05 -0.0001394497
0.00011383452 0.000105824656 -0.0001111549 -2.7063294e-05 -3.676161e-05 0.00010561004 -0.0001437944 -8.431943e-05
-3.9775983e-05 -4.816159e-05 2.0759162e-05 0.00012245805 3.8301605e-05 -0.0002445492 -6.3545456e-05 0.00012494119
-3.5567457e-05 -0.00015821078 -2.772452e-06 7.980311e-05 -4.6707737e-05 -6.301448e-05 0.00015353515 0.00016250707
2.4264396e-05 -6.901765e-05 -2.1474229e-05 2.3965975e-05 8.47916e-05 -0.000155469 -5.1508443e-05 5.770727e-05
-3.8052036e-05 -3.3434713e-05 -7.3269725e-06 -3.2737157e-07 4.7237096e-05 -5.5208175e-06 4.3336782e-05 0.00010082836
-6.5273102e-06 -5.8091486e-05 -3.544792e-05 8.288356e-05 9.414541e-06 4.65136e-05 -4.9132006e-05 -8.386421e-05
-5.322487e-05 0.0001436942 0.0001354637 -1.2486854e-05 0.00010363398 -5.6540226e-05 -5.931182e-05 -0.0001069768
-0.00018058972 -0.00016835265 0.00012027469 0.0001410474 0.00022220323 -0.0003725479 6.842655e-05 0.00023874323
-2.2116676e-05 -0.0003600658 4.8976913e-06 -2.9807024e-05 -0.00010826344 0.00011907585 0.00018271216 0.00014436277
-0.00021117648 -0.00013465022 6.0408584e-05 4.161025e-05 3.957515e-05 -9.987451e-05 9.360351e-06 8.062979e-05
4.452577e-05 8.378967e-05 0.0001597108 -3.0996423e-05 6.283319e-05 -9.755656e-05 -3.943453e-05 3.124522e-05
0.00010710548 5.6676945e-05 1.20291315e-05 -6.911515e-05 9.5609445e-05 -0.00015112812 -3.4977187e-05 7.224574e-05
-8.5753505e-05 -9.199593e-05 -7.549837e-05 -0.0001580044 0.00011163574 6.9777474e-05 0.00016945404 -2.8061544e-05

exp_avg_sq f4 [16, 16]
00000000: d094 2b37 a524 4236 4304 8935 fc4b 7535
00000010: 3702 3e36 aadd e836 8773 b735 0a41 2236
00000020: 1034 f535 7734 8d36 4274 6337 3437 0b37
00000030: c8d9 5136 d659 8b37 626a 0a36 1e43 3c35
00000040: 07fd f135 57a6 1b35 f8f2 5734 9d3a 6934
00000050: 2d20 e234 8e11 2d35 f6ec 8934 8d23 eb34
00000060: cd1e 9c34 a0a0 2935 4c34 f735 a4da 9834
00000070: de3c 9d34 1d95 9f35 0f58 d334 984e 2c34
00000080: 9721 c235 a2bf 1735 793c 3f34 62d5 1d34
00000090: bf97 9a34 9a52 0635 d59c 1d33 1195 b934
000000a0: 8353 a034 4642 aa34 2533 cf35 bdcd 7334
000000b0: a161 3e34 1b15 4b35 6298 7934 7c74 2a34
000000c0: 3fb4 0b36 68ca 2835 5307 7434 55be de34
000000d0: 4dab e034 4692 5335 29ca 7634 1bf6 0335
000000e0: 0e03 c834 ef38 2b35 4c61 0d36 3c06 ba34
000000f0: 1b2c 9a34 aab3 b335 a654 cc34 10c9 8234
00000100: 7039 cd35 6855 3035 db09 3b34 5c40 2b34
00000110: b5d9 d934 a5d2 0c35 90e1 0d34 2a9e bf34
00000120: 4265 9334 6c1c c134 2db1 d935 c5d7 7f34
00000130: da40 3a34 b58e 6735 5c78 c934 1051 3734
00000140: 50bc a635 f00c f134 4fd4 1f34 0df2 f533
00000150: a92b 4934 7ce7 f134 c6b9 8c33 6234 a034
00000160: f523 9834 6020 a034 ff47 b335 90cf 3c34
00000170: 64ae 4f34 0e07 3a35 b2b9 6e34 4c15 d733
00000180: 959d c435 458b df34 5525 3734 3849 9034
00000190: 37cb 9934 3b4c 0735 20b5 e833 1c23 b434
000001a0: 243b 7734 c96d f834 5e02 c435 749b 7334
000001b0: b1be 2534 85b1 7235 be80 4034 56cb 2234
000001c0: ccb7 dc35 cec2 0b35 e9f8 4234 8cbf 5b34
000001d0: 33fa 7334 cf73 0735 497b 6733 d33a c834
000001e0: 314c 4c34 c66b f834 322b eb35 face 7234
000001f0: 9c5a 4234 9577 7835 ebc3 7634 d4a5 0134
00000200: b483 9d35 981f dd34 22c7 1634 7a4a f533
00000210: 98de 3a34 11fa ea34 d6a8 7933 0b2c 9834
00000220: cf30 8834 1224 8e34 9b66 a535 7f9e 4f34
00000230: a5fb 3a34 9940 3135 a144 7934 c3be c833
00000240: efc8 e235 bc16 2d35 83cd 5b34 c5aa 4034
00000250: cd46 de34 6490 2935 fb1f 6a34 8e0b e134
00000260: cced a034 59f2 f134 a2f7 e835 158c 8434
00000270: 5dd9 6434 368d 8335 ce72 e834 e9df 2f34
00000280: cd5b 0136 ab05 2035 4672 7c34 92ec ba34
00000290: ea3f ce34 2e6e 4c35 fbaf 9c34 1e62 0135
000002a0: c7bb 0735 6ddb 2435 cb2b 0836 b2e4 9734
000002b0: 95bf bd34 8d53 a135 7a38 fb34 769e 5034
000002c0: 833f cc35 4f04 2635 11f9 4534 1ae3 3c34
000002d0: 015b bc34 bca7 1135 128f 9533 4127 c834
000002e0: 48a5 a334 b991 a834 515f d735 2a28 6834
000002f0: 16c3 2d34 931d 5735 76ca a634 67cb 3234
00000300: e59c bf35 0b4e f434 1815 3134 b9ed 5934
00000310: 913c 7d34 184d 0335 6bee e433 a146 ae34
00000320: 5571 8d34 34b2 d434 e950 c335 3358 6e34
00000330: a410 5634 3717 5735 97e7 8d34 db44 0034
00000340: 5756 0e36 4c48 2235 d3d8 8a34 24e5 bc34
00000350: 4548 e434 0c1c 4035 9edd 7734 8476 ff34
00000360: d268 ab34 08c6 5535 c74c 0c36 c9a6 b034
00000370: 70aa 9834 5cfa b335 a296 a234 00c9 4234
00000380: f2d0 b035 0096 0535 91ac 2e34 3c80 0434
00000390: 0285 7534 af58 f634 d2c2 3633 f523 ac34
000003a0: 0d48 a434 412a a734 8904 c035 ca2b 5434
000003b0: 5c23 4734 a9d7 4235 e52e 6334 1bb6 0834
000003c0: f975 8e35 c57e be34 adc5 e433 2d9f d833
000003d0: ccab 1834 c404 d334 c5ee 2033 6230 8834
000003e0: 642d 3b34 1731 8134 ba7e 9135 619f 2e34
000003f0: c213 0234 18b0 2d35 f224 4134 d6d1 a533
1.0227042e-05 2.8929583e-06 1.0208536e-06 9.1380184e-07 2.8313495e-06 6.939944e-06 1.3668185e-06 2.4177739e-06
1.8269075e-06 4.208235e-06 1.3557323e-05 8.297899e-06 3.1270192e-06 1.6611924e-05 2.0625525e-06 7.0133126e-07
1.802954e-06 5.7984056e-07 2.0111827e-07 2.172114e-07 4.211919e-07 6.447307e-07 2.569065e-07 4.3798028e-07
2.9079675e-07 6.3191146e-07 1.8418154e-06 2.8471288e-07 2.9287816e-07 1.1889821e-06 3.9365884e-07 1.604734e-07
1.4463902e-06 5.6530746e-07 1.7810261e-07 1.4699393e-07 2.8795145e-07 5.003909e-07 3.669705e-08 3.4567395e-07
2.9863085e-07 3.1713188e-07 1.5437587e-06 2.2705986e-07 1.7730646e-07 7.5654106e-07 2.3245369e-07 1.587486e-07
2.081753e-06 6.2879417e-07 2.2726935e-07 4.1489207e-07 4.184789e-07 7.881648e-07 2.2984081e-07 4.9159434e-07
3.7255126e-07 6.3785313e-07 2.1067272e-06 3.4649736e-07 2.8716826e-07 1.3388828e-06 3.805955e-07 2.436068e-07
1.5290407e-06 6.568939e-07 1.7419318e-07 1.594903e-07 4.0577802e-07 5.246059e-07 1.3213707e-07 3.5691602e-07
2.7454558e-07 3.596973e-07 1.6219325e-06 2.3827222e-07 1.7346193e-07 8.626187e-07 3.752674e-07 1.7072693e-07
1.242277e-06 4.489916e-07 1.4885266e-07 1.145273e-07 1.8735467e-07 4.5058175e-07 6.55305e-08 2.9840436e-07
2.8338368e-07 2.9825878e-07 1.3357493e-06 1.7584375e-07 1.934182e-07 6.9300665e-07 2.2233033e-07 1.00155916e-07
1.4649e-06 4.163832e-07 1.7056784e-07 2.6875364e-07 2.864633e-07 5.040235e-07 1.0836288e-07 3.3553158e-07
2.3025183e-07 4.627348e-07 1.4603827e-06 2.2687692e-07 1.5436196e-07 9.041035e-07 1.792823e-07 1.5161399e-07
1.6444769e-06 5.2065013e-07 1.8158211e-07 2.0465649e-07 2.272216e-07 5.045994e-07 5.3896006e-08 3.7295703e-07
1.9026699e-07 4.6272015e-07 1.7521436e-06 2.2613304e-07 1.8100621e-07 9.2561214e-07 2.298181e-07 1.2074389e-07
1.1735742e-06 4.1187445e-07 1.4042283e-07 1.1422249e-07 1.7403579e-07 4.3767844e-07 5.8128386e-08 2.8344252e-07
2.5367487e-07 2.6475806e-07 1.232332e-06 1.9336038e-07 1.7414148e-07 6.603164e-07 2.3214899e-07 9.347925e-08
1.6896792e-06 6.4480605e-07 2.0470729e-07 1.7943519e-07 4.1402237e-07 6.316752e-07 2.1804583e-07 4.1917923e-07
2.9975342e-07 4.506608e-07 1.7357418e-06 2.468884e-07 2.1313231e-07 9.801358e-07 4.32969e-07 1.6379603e-07
1.9275933e-06 5.961289e-07 2.3510901e-07 3.4817327e-07 3.8416994e-07 7.6156255e-07 2.9185307e-07 4.8199024e-07
5.056467e-07 6.141407e-07 2.029107e-06 2.829234e-07 3.5343388e-07 1.2019751e-06 4.6793485e-07 1.9429157e-07
1.5217669e-06 6.184609e-07 1.8437665e-07 1.7591483e-07 3.5083943e-07 5.4260795e-07 6.9643775e-08 3.7281464e-07
3.0481374e-07 3.1398466e-07 1.6046489e-06 2.1621295e-07 1.6182852e-07 8.013678e-07 3.106722e-07 1.6651539e-07
1.4276271e-06 4.5505325e-07 1.6492083e-07 2.0296183e-07 2.3584495e-07 4.891349e-07 1.0660445e-07 3.2461415e-07
2.6345757e-07 3.9617737e-07 1.455218e-06 2.2197564e-07 1.9936357e-07 8.0127523e-07 2.64318e-07 1.1945978e-07
2.1209905e-06 6.045491e-07 2.5862263e-07 3.518445e-07 4.2520892e-07 7.156639e-07 2.3084291e-07 4.7583683e-07
3.19275e-07 7.9636857e-07 2.0906316e-06 3.2903907e-07 2.8436216e-07 1.3409403e-06 3.028445e-07 1.8140781e-07
1.3173833e-06 4.976464e-07 1.6267792e-07 1.234011e-07 2.2865791e-07 4.5885596e-07 4.2552365e-08 3.206366e-07
3.0599804e-07 3.1136918e-07 1.4306435e-06 1.9759969e-07 1.8546183e-07 7.258446e-07 2.1158083e-07 1.2732237e-07
1.0614159e-06 3.5482495e-07 1.06530344e-07 1.0087238e-07 1.4218602e-07 3.930528e-07 3.7470063e-08 2.5367177e-07
1.7432245e-07 2.406384e-07 1.0840224e-06 1.6262995e-07 1.2114381e-07 6.470377e-07 1.7987966e-07 7.72158e-08

exp_avg f4 [784, 16]
00000000: bea7 3238 654c 8f39 a915 6eb8 3324 85b6
00000010: 4651 11b9 a746 7539 f5c0 fa38 7435 09b9
00000020: 54f2 47b9 bedd f8b8 eb00 5739 c2f3 5138
00000030: c7b0 1eb9 46b4 2db7 8c90 1fb9 df5a f237
00000040: d843 1eb6 584f 68b6 b74b 4236 5dea 74b7
00000050: 8893 abb7 ba83 c135 6691 a936 8524 21b7
00000060: 2d65 8737 330d 4538 ee5e 5237 efc7 36b6
00000070: f9e1 5235 1d50 9db7 75da 80b7 934c c635
00000080: 7ed6 a1b3 15dd ab36 6517 cd35 538f a335
00000090: 5cf1 0ab7 58bd 49b6 6b81 f036 d441 9736
000000a0: 89bf bcb6 3165 a436 e251 28b5 fdbf 14b6
000000b0: 9dd7 2cb7 fdfd 00b4 b7f5 6435 bd5b a636
000000c0: 2d5a b635 316c a934 8855 1737 069d c4b6
000000d0: 1a5e d136 53b7 a3b7 2602 f5b6 636d 2c37
000000e0: fb3d e2b7 e264 ea37 ff56 cb37 fdf2 2ab8
000000f0: ef8a e337 0064 28b7 cf52 9737 aed1 6cb7
00000100: 741a a636 3cb1 5236 6c25 13b6 1a8e 7cb4
00000110: 23f3 1eb7 b6ae ae34 ec15 6cb5 6f4a bcb6
00000120: 460c 2e37 dad9 7837 7c72 44b7 666f b0b6
00000130: 0ca7 a3b6 620e 1137 2854 1bb6 bb91 9834
00000140: 9b81 c436 3a70 70b6 51ee a5b5 5463 52b7
00000150: 71e5 e237 968c 3436 50b0 d037 86f4 1836
00000160: ab67 a0b1 f8b3 42b7 d798 9eb7 3305 07b8
00000170: e56a c7b7 d416 4838 11d6 bb36 94f1 4cb7
00000180: 7952 7d36 3ddc e2b5 2e27 2936 afea ebb6
00000190: 8a04 db36 cff6 9fb5 6ba5 d135 6a8d 5136
000001a0: 1aa9 9135 e42f b537 3bd8 7836 8f42 28b8
000001b0: 7d89 b137 a7c6 9c36 3258 1337 14fc eeb7
000001c0: b84b 5636 5861 b8b5 d9f5 7c36 0715 c0b4
000001d0: 466d 0e37 28e1 12b7 96dc 6937 6f93 2036
000001e0: 8598 0e36 77bb feb6 bf47 98b7 9abe 63b7
000001f0: 12f6 a9b7 8c43 be37 957a a636 4ddc 0e37
00000200: c454 86b7 6271 55b7 e5f0 3a37 6c47 8d35
00000210: d5a1 9b37 8bd8 e1b7 6455 dc36 70fa 8437
00000220: 98c1 50b7 9e4b 03b7 c263 2737 d96a 65b7
00000230: 3e33 adb5 660e 8236 f305 8537 9476 0637
00000240: 2faa 1eb7 6bea b7b6 6402 5437 a3ed 68b6
00000250: af1e 5437 c194 dab7 7bef 68b6 22df 6137
00000260: 5421 b4b7 564f 3337 6e19 5037 0615 9ab7
00000270: 8f72 9437 7c83 51b7 78bd bf37 9d62 0eb6
00000280: 3c82 2b36 191f 8c35 ac7e 9936 0833 06b6
00000290: 152c dd36 a012 2eb7 87d9 d836 e161 7c36
000002a0: ee29 29b7 50b8 4736 a7a5 46b6 22b4 7fb7
000002b0: 8223 80b6 aa82 2737 f163 0f37 8b6c 07b6
000002c0: c462 ab38 626b 4038 0a17 a0b7 8880 1bb7
000002d0: 51f7 8ab7 a6e2 ec37 c66f b236 827a 01b8
000002e0: 19d8 fc36 0498 8bb7 1c47 beb8 2ffc b0b7
000002f0: 0af2 f9b7 e0e2 8b38 f7df 7935 ab55 18b6
00000300: 1258 3038 26ed 9737 1289 35b6 5be1 a3b7
00000310: b111 8437 3810 6fb7 ba24 bf37 1886 ad35
00000320: 2647 6cb7 5576 edb7 dec8 65b8 281b e9b7
00000330: 817d b5b7 52e4 5638 8d3f ca37 3455 0237
00000340: 0dab 08b8 5a70 7bb7 01b3 3d37 a92b 8237
00000350: a9c3 6ab7 0fe2 83b7 9e5d 71b5 77e1 a736
00000360: 1fad 0537 7a35 1d38 4f1f a137 9efb 4fb7
00000370: c1fa f736 ef2c 94b7 ad06 9936 dd6d 4bb4
00000380: 9ba9 6f37 6fee 4eb6 78ca 9035 af72 91b6
00000390: 8cf4 4d36 06ef 1e36 97e8 cd36 2853 51b7
000003a0: e3f9 5b36 6e4a ad37 de45 dcb6 2e13 f6b7
000003b0: c511 5db4 bf53 eb37 277b d6b6 d4b3 8ab7
000003c0: 1a48 ac37 9da2 4537 0b24 a236 4634 5736
000003d0: b4ba 98b6 d1e4 18b8 da6c 51b7 68f9 3f37
000003e0: c37d 9436 03e7 c9b6 4744 25b8 d65f dbb6
000003f0: b274 56b7 a2fe 9337 7352 0038 64f5 6637
4.259473e-05 0.00027332004 -5.6763794e-05 -3.967923e-06 -0.00013858554 0.00023391341 0.0001195687 -0.00013085251
-0.00019068393 -0.00011866864 0.0002050434 5.00565e-05 -0.00015133909 -1.0353577e-05 -0.0001521727 2.8890963e-05
-2.3583325e-06 -3.4616878e-06 2.8952325e-06 -1.45981e-05 -2.0453488e-05 1.4417958e-06 5.053519e-06 -9.604851e-06
1.6140368e-05 4.6980753e-05 1.2539078e-05 -2.723649e-06 7.855993e-07 -1.8753164e-05 -1.5360516e-05 1.4774436e-06
-7.5361626e-08 5.1219345e-06 1.5280499e-06 1.2186159e-06 -8.281637e-06 -3.0061547e-06 7.1676236e-06 4.507814e-06
-5.6251342e-06 4.899361e-06 -6.270403e-07 -2.216547e-06 -1.03022e-05 -1.201333e-07 8.529418e-07 4.9578653e-06
1.3586301e-06 3.1557423e-07 9.020216e-06 -5.859535e-06 6.2396402e-06 -1.9516481e-05 -7.301819e-06 1.02774675e-05
-2.6970161e-05 2.7941951e-05 2.4239996e-05 -4.075746e-05 2.7125205e-05 -1.0036863e-05 1.8039163e-05 -1.4115516e-05
4.950265e-06 3.1395602e-06 -2.192649e-06 -2.3521025e-07 -9.474144e-06 3.2537145e-07 -8.794875e-07 -5.611502e-06
1.0374066e-05 1.4832674e-05 -1.1709166e-05 -5.258177e-06 -4.8772254e-06 8.646022e-06 -2.3145785e-06 2.841824e-07
5.8563433e-06 -3.5828111e-06 -1.2362817e-06 -1.2540102e-05 2.7048141e-05 2.6903922e-06 2.4877634e-05 2.2792096e-06
-4.6683986e-09 -1.1605203e-05 -1.890624e-05 -3.219135e-05 -2.3772425e-05 4.7704976e-05 5.597955e-06 -1.2215594e-05
3.7747943e-06 -1.690241e-06 2.5205768e-06 -7.0308665e-06 6.527237e-06 -1.1918254e-06 1.5619856e-06 3.122574e-06
1.0852557e-06 2.1599182e-05 3.7080742e-06 -4.011631e-05 2.1164067e-05 4.6722885e-06 8.782417e-06 -2.8489194e-05
3.193256e-06 -1.3737399e-06 3.7694028e-06 -3.5778086e-07 8.489302e-06 -8.754701e-06 1.3939241e-05 2.3927676e-06
2.1248427e-06 -7.5916137e-06 -1.8153221e-05 -1.3574632e-05 -2.0260955e-05 2.2681219e-05 4.961456e-06 8.515152e-06
-1.6013517e-05 -1.2722188e-05 1.1142552e-05 1.0526105e-06 1.8552799e-05 -2.6922926e-05 6.5664517e-06 1.5852245e-05
-1.2442841e-05 -7.8258145e-06 9.977202e-06 -1.3674341e-05 -1.2904418e-06 3.875978e-06 1.5857606e-05 8.014631e-06
-9.457158e-06 -5.481115e-06 1.2636741e-05 -3.4709017e-06 1.2643329e-05 -2.6056894e-05 -3.471009e-06 1.3462997e-05
-2.1473192e-05 1.0687703e-05 1.2403687e-05 -1.836802e-05 1.769632e-05 -1.2487984e-05 2.2857203e-05 -2.121705e-06
2.5556792e-06 1.0439863e-06 4.574502e-06 -1.999726e-06 6.591445e-06 -1.0375545e-05 6.462625e-06 3.76079e-06
-1.00829475e-05 2.9760595e-06 -2.9600722e-06 -1.5241125e-05 -3.818831e-06 9.984398e-06 8.546734e-06 -2.0179748e-06
8.172312e-05 4.5876375e-05 -1.9084215e-05 -9.268646e-06 -1.6566048e-05 2.8238934e-05 5.3178255e-06 -3.087009e-05
7.5353423e-06 -1.6640879e-05 -9.073151e-05 -2.1098267e-05 -2.9795821e-05 6.670295e-05 9.308564e-07 -2.269963e-06
4.204369e-05 1.8111034e-05 -2.7050887e-06 -1.9536054e-05 1.5743864e-05 -1.4249286e-05 2.2786076e-05 1.2928531e-06
-1.4083262e-05 -2.8307704e-05 -5.4784927e-05 -2.778841e-05 -2.1635324e-05 5.1234216e-05 2.410987e-05 7.768442e-06
-3.258423e-05 -1.4986925e-05 1.13069555e-05 1.5517538e-05 -1.3993043e-05 -1.5721684e-05 -8.9915727e-07 5.0032354e-06
7.967726e-06 3.748152e-05 1.9207275e-05 -1.2396746e-05 7.390365e-06 -1.7663899e-05 4.5605325e-06 -1.8945816e-07
1.4284999e-05 -3.0835179e-06 1.0787762e-06 -4.3346877e-06 3.0689725e-06 2.3682965e-06 6.136553e-06 -1.2476732e-05
3.2778996e-06 2.0657866e-05 -6.5646445e-06 -2.9334416e-05 -2.0588693e-07 2.805318e-05 -6.392034e-06 -1.6534621e-05
2.0537573e-05 1.1779976e-05 4.832172e-06 3.2067924e-06 -4.551688e-06 -3.6452726e-05 -1.2482715e-05 1.1442557e-05
4.4253843e-06 -6.01716e-06 -3.9402654e-05 -6.5378654e-06 -1.2782564e-05 1.7642338e-05 3.0594365e-05 1.3766203e-05

exp_avg_sq f4 [784, 16]
00000000: 8e04 a634 a133 bc34 7c84 0d33 ec5f 2833
00000010: 0e8f 6234 239d e134 f496 1034 ce1f f833
00000020: 8803 9e34 3812 9133 788b 9935 82c4 8034
00000030: 2d94 2d34 bb46 5135 0102 7434 9ee5 9632
00000040: 7b72 ad32 ec04 e531 7397 8930 1dc5 ae30
00000050: 3aff d831 7473 0f32 8d38 8b31 aab6 fa31
00000060: 6edf 0a32 4409 a632 2cd2 0233 2960 6932
00000070: fcaf 2831 e5a8 5733 f32c af31 ce4f dd30
00000080: 009c 2f32 5402 3331 0395 8330 9543 f32f
00000090: 3544 9631 41be 1932 1742 0631 dc48 2d31
000000a0: 4998 9031 9d7e d031 40dc a332 c8b1 5f32
000000b0: f9e9 9331 2880 bf32 0626 2931 6e47 9530
000000c0: e5db 8031 49c2 dc30 2b95 f630 c7e5 5131
000000d0: a06f 7a31 3499 2d32 a8fb 7c31 9dc8 c330
000000e0: 2e6b 0b32 e0e8 8d32 6096 ec32 f179 9132
000000f0: 3ab1 9632 9f38 6632 0cd3 8531 2dab 4531
00000100: cb55 2631 a37f bd2f 0196 5730 cb19 6330
00000110: c370 0231 1f05 5131 3cc8 b230 7cdd 7530
00000120: 1cbd 0431 b594 7a31 b04f c531 0987 8c31
00000130: 52a0 7131 2be9 f631 b1dc a430 3984 5e30
00000140: a894 ab30 8095 6030 9cea 0f31 0cd5 c931
00000150: 4cd3 a731 33c6 0a32 c1a7 e831 b667 c630
00000160: 4411 7132 075f 0b33 6300 0133 2e2d fd32
00000170: 22fc 3533 131f df32 ce93 5831 eac0 8e31
00000180: e399 4f31 34a4 e230 f8df 1331 3630 7c31
00000190: 614c 5a31 8230 b031 0399 0132 3391 5931
000001a0: e9da 8f31 1ce3 a732 3d11 fe32 9c23 0833
000001b0: ad9b 8033 96e0 cd32 0acf b031 6858 c432
000001c0: 7812 0731 96e8 4430 8ebe 1530 6255 3b30
000001d0: 864e 6631 9212 3631 80ea 9e31 62f5 8b30
000001e0: b146 f730 2c0c 3732 c015 3232 4c14 2531
000001f0: e4f8 6c32 4457 5332 aaae bc30 6ee3 3231
00000200: bc86 ed31 b614 0431 6535 2b30 338a 2630
00000210: 1d93 3e31 ca02 c231 3187 9d31 dbd2 3131
00000220: 661a 1131 1f14 a532 b689 ae32 9731 0a31
00000230: c4c4 ce32 b15a b132 ed55 4431 aa17 7231
00000240: 8737 6032 175f b731 d8b9 d630 8f8e 8930
00000250: 5e22 2f31 8090 2432 21a3 4331 8719 8d31
00000260: 597e 3f31 b81f d931 f55f ae32 0dec 2431
00000270: 7ad8 2132 4486 8e32 2c48 4931 5230 0c31
00000280: d594 cd32 559b 1d32 c1cb 1b31 c90c 0831
00000290: e209 6d31 0d23 2832 6b61 db30 9e45 b731
000002a0: e521 5031 c4d4 9c31 a9aa f632 bfb3 2e31
000002b0: 29f1 aa31 fc00 8132 44d9 6b31 969f 3531
000002c0: cba4 1633 6aed 5b32 34a0 2531 5a3c 6c31
000002d0: 9258 5e31 2006 0b32 06f8 2931 7171 aa31
000002e0: 5680 a231 4bac ff31 a8ab 2833 b859 8c31
000002f0: 69db c231 3626 b732 e528 7831 685e 4a31
00000300: 3520 ea32 0ac8 2032 3dad f830 6188 2531
00000310: 088d 4531 ca44 ab31 23b0 2431 b86e 4c31
00000320: d6e3 6b31 f48f 4b32 af1f fb32 610b 6531
00000330: 44b4 aa31 a78a a232 7957 8b31 6699 3d31
00000340: 3743 a032 059e af31 efb3 9d30 9b11 0231
00000350: a4ce 5731 f101 a431 d875 5831 e104 2431
00000360: 5cbe 7831 1881 5f32 ae3c 9632 89fd b231
00000370: 1a9a 8631 7769 a032 fc29 9231 8b1e 5031
00000380: cda7 8a31 ce2d a130 7d8e c42f 2b31 6430
00000390: fbc5 3531 f711 6531 807e ff30 2276 a430
000003a0: a9d5 1e31 680c 9531 e183 9431 29e0 8331
000003b0: 02ad ba30 c22f e531 778a 2a31 8cd3 0231
000003c0: 4d51 1a31 b245 3130 0820 ed2f 4daa 2830
000003d0: b240 e430 0183 4031 a568 4c30 d604 8130
000003e0: c4c1 d930 b34d 0031 a837 7c31 75e5 3c31
000003f0: 51f1 9530 c982 6531 65b6 2f31 80b1 a530
3.0923223e-07 3.5055294e-07 3.2949615e-08 3.920279e-08 2.1099933e-07 4.2023848e-07 1.3465962e-07 1.1554185e-07
2.9432363e-07 6.7554026e-08 1.1439979e-06 2.3984836e-07 1.6165787e-07 7.7961494e-07 2.2725e-07 1.7566716e-08
2.019191e-08 6.6653367e-09 1.0011106e-09 1.2716189e-09 6.3154433e-09 8.3499465e-09 4.0518615e-09 7.296724e-09
8.083459e-09 1.9329157e-08 3.0459134e-08 1.3584249e-08 2.4547253e-09 5.0212197e-08 5.0982805e-09 1.6102548e-09
1.0221811e-08 2.6049252e-09 9.573856e-10 4.4249462e-10 4.373329e-09 8.949031e-09 1.9537134e-09 2.521623e-09
4.2082644e-09 6.067991e-09 1.9075856e-08 1.3020731e-08 4.3048627e-09 2.2293605e-08 2.461435e-09 1.0861478e-09
3.7502894e-09 1.6062326e-09 1.7941252e-09 3.0544116e-09 3.644324e-09 1.010476e-08 3.6813876e-09 1.4245135e-09
8.115235e-09 1.652046e-08 2.7542399e-08 1.6935674e-08 1.7542892e-08 1.3400636e-08 3.8948027e-09 2.8764575e-09
2.4204947e-09 3.446959e-10 7.842971e-10 8.2618773e-10 1.8981587e-09 3.0416414e-09 1.3008115e-09 8.944523e-10
1.9316024e-09 3.6464318e-09 5.742514e-09 4.089888e-09 3.5161247e-09 7.1860504e-09 1.1995295e-09 8.095103e-10
1.2484138e-09 8.170318e-10 2.0942599e-09 5.8740905e-09 4.8843614e-09 8.0777225e-09 6.77116e-09 1.4435872e-09
1.4031972e-08 3.2449886e-08 3.0035505e-08 2.9473622e-08 4.237166e-08 2.5974748e-08 3.1516154e-09 4.1546757e-09
3.020994e-09 1.6490334e-09 2.1518627e-09 3.6698231e-09 3.1766592e-09 5.127789e-09 7.543579e-09 3.1660192e-09
4.186735e-09 1.9544636e-08 2.957733e-08 3.1697354e-08 5.988782e-08 2.396727e-08 5.1458118e-09 2.2857606e-08
1.9655584e-09 7.163491e-10 5.447668e-10 6.815154e-10 3.351404e-09 2.6495042e-09 4.6250648e-09 1.0183323e-09
1.7991707e-09 1.06547695e-08 1.0365909e-08 2.4022198e-09 1.3793599e-08 1.2301658e-08 1.3728443e-09 2.6031688e-09
6.9129253e-09 1.92203e-09 6.2285316e-10 6.058684e-10 2.7732263e-09 5.64646e-09 4.584671e-09 2.5876747e-09
2.1115283e-09 1.9217678e-08 2.031889e-08 2.0109832e-09 2.4071035e-08 2.0646754e-08 2.8570597e-09 3.5229086e-09
1.30511415e-08 5.3368114e-09 1.5623369e-09 1.000858e-09 2.5485387e-09 9.578912e-09 2.8468963e-09 4.106542e-09
2.7865978e-09 6.319137e-09 2.0299902e-08 2.399932e-09 9.4206545e-09 1.6592033e-08 2.9290375e-09 2.0400148e-09
2.3932822e-08 9.173921e-09 2.267129e-09 1.9797872e-09 3.4493657e-09 9.786857e-09 1.5962035e-09 5.3339155e-09
3.028725e-09 4.564386e-09 2.8715776e-08 2.5422506e-09 4.975068e-09 1.5018024e-08 3.4320502e-09 2.642968e-09
3.5074475e-08 1.28014594e-08 2.4101725e-09 3.4376826e-09 3.2355598e-09 8.0922575e-09 2.4733722e-09 4.960548e-09
4.7294106e-09 7.441064e-09 3.927167e-08 4.084736e-09 5.671087e-09 2.132138e-08 3.6111996e-09 2.9448533e-09
2.7255831e-08 9.358709e-09 1.8093612e-09 2.4088183e-09 2.874744e-09 4.9845754e-09 2.3965263e-09 2.9748843e-09
3.432651e-09 1.1848886e-08 2.9234654e-08 3.3330354e-09 4.968145e-09 1.8922334e-08 4.055377e-09 2.7590317e-09
1.8657017e-08 5.111135e-09 1.1474394e-09 1.8927497e-09 3.140408e-09 4.773249e-09 3.1499123e-09 2.3867914e-09
3.6196957e-09 1.3009661e-08 1.7489892e-08 5.2093054e-09 3.9174326e-09 1.8674411e-08 4.2539323e-09 3.0285345e-09
4.0354053e-09 1.172731e-09 3.5753436e-10 8.301579e-10 2.6451505e-09 3.3334098e-09 1.8589645e-09 1.1966146e-09
2.3113478e-09 4.337881e-09 4.32236e-09 3.838086e-09 1.3582453e-09 6.6702066e-09 2.4816964e-09 1.903774e-09
2.2456164e-09 6.449127e-10 4.3132808e-10 6.1360056e-10 1.6607571e-09 2.8014144e-09 7.4363476e-10 9.38736e-10
1.58439e-09 1.8670618e-09 3.6702463e-09 2.7488032e-09 1.0909763e-09 3.3398229e-09 2.556953e-09 1.2055779e-09

exp_avg f4 [16]
00000000: ea1f 453a 821e 303a fcb4 2338 f16b 29ba
00000010: 74c4 b438 803f d03a b281 95b9 542d 95ba
00000020: c90a 4f3a c743 97b9 f1b5 47ba caf5 1338
00000030: 4164 1eb9 7bd3 beba 8d3c 283a 6185 7d3a
0.0007519709 0.0006718413 3.9030783e-05 -0.0006462923 8.619661e-05 0.0015888065 -0.00028516125 -0.0011381307
0.00078980305 -0.00028851462 -0.0007618359 3.527644e-05 -0.00015105402 -0.0014558876 0.0006417714 0.0009671059

exp_avg_sq f4 [16]
00000000: 2658 8938 7d51 c337 9e1c 4637 8a3b 2637
00000010: 76a7 7437 7bc4 a737 f1b1 d236 e993 ab37
00000020: 9f49 5837 dc34 6537 58ca 1538 fccb 6237
00000030: b175 0438 2b3d f637 4a06 7d37 ccd8 3537
6.549088e-05 2.3283757e-05 1.1808383e-05 9.908234e-06 1.4582523e-05 1.9999445e-05 6.279203e-06 2.0453665e-05
1.28917445e-05 1.3661771e-05 3.5712816e-05 1.35181435e-05 3.158086e-05 2.9353969e-05 1.5081439e-05 1.0838918e-05

exp_avg f4 [16]
00000000: 6fe6 063b 4efa abb9 3c60 7738 908d d63a
00000010: 75d7 b83a 3b06 24bb ffd4 a239 0fdf c239
00000020: d583 6b3a 2d31 23ba 3ff6 2cbb 7cc5 5fbb
00000030: 0bb8 50b8 f6ae 883b d4fd 343a 8a34 5b3a
0.0020584126 -0.00032802153 5.8979014e-05 0.0016369093 0.0014102297 -0.0025028128 0.00031057742 0.00037168755
0.0008984183 -0.00062252843 -0.0026391891 -0.003414481 -4.9762468e-05 0.0041712476 0.00069042784 0.0008362016

exp_avg_sq f4 [16]
00000000: 8970 b737 a6a1 0537 71c0 2936 0c56 cc36
00000010: d8ab b737 6590 da37 7faf 1737 48cf d136
00000020: c441 3437 faeb 7337 a82c de37 0ab3 0c38
00000030: 8d82 1d37 6787 4838 17eb 5737 dfa0 ae36
2.1867703e-05 7.9650545e-06 2.5294978e-06 6.089691e-06 2.1895321e-05 2.6054864e-05 9.041162e-06 6.252816e-06
1.0744148e-05 1.4538871e-05 2.6485257e-05 3.3545344e-05 9.388325e-06 4.780982e-05 1.2869735e-05 5.204332e-06

exp_avg f4 [16]
00000000: 6219 39ba 73a8 00b9 0731 9fb9 9adc 09ba
00000010: ddfe 04b9 ae29 2f3a af33 87b8 6a9e 25ba
00000020: 50b7 c739 1abc 05b6 5ea9 4bba 8c92 0e3a
00000030: 088e 203a 56da cab6 70ac 853a bcb9 653a
-0.0007060972 -0.00012269783 -0.00030363371 -0.00052590074 -0.00012683445 0.0006681931 -6.4469285e-05 -0.0006317856
0.00038092816 -1.9928034e-06 -0.0007769073 0.00054387073 0.000612468 -6.0454868e-06 0.0010198485 0.00087633333

exp_avg_sq f4 [16]
00000000: 273a 9e37 5bfc 3137 fb42 8436 fa56 ee36
00000010: 9431 8036 744e d336 9492 1c36 f891 ce36
00000020: 7553 9a36 6d51 0737 d73d 3837 3345 0237
00000030: b73f ef36 c2df 0f37 faf7 cf36 1c09 c336
1.8862147e-05 1.0608778e-05 3.941704e-06 7.103078e-06 3.820469e-06 6.297423e-06 2.3331131e-06 6.1562714e-06
4.5992733e-06 8.0655855e-06 1.0981653e-05 7.7647155e-06 7.1301724e-06 8.575562e-06 6.197949e-06 5.8125133e-06

exp_avg f4 [16]
00000000: 5bf4 1b39 4722 afb7 d464 b8b9 9140 253a
00000010: 0ddb 1a3a 5f60 14ba 24bf c1b9 a4ea fc39
00000020: aba6 9e39 bb7d aaba 6d78 3eba 0fcf e339
00000030: 1fdd 0bba 5818 1338 c580 2838 f5a6 753a
0.00014872981 -2.0877587e-05 -0.00035170338 0.00063038716 0.0005907275 -0.00056601124 -0.0003695424 0.00048240006
0.00030260286 -0.0013007441 -0.00072658696 0.00043451085 -0.0005335379 3.5070203e-05 4.0174247e-05 0.0009370887

exp_avg_sq f4 [16]
00000000: 7ecc c236 c6ab 8936 9924 2836 ce2b 4036
00000010: 307b a036 7cae b336 b4bb a436 d83b 4936
00000020: 1db7 6836 e685 0137 fd63 8b36 d5a9 1a36
00000030: 39a1 a536 5656 5a36 e178 9636 4d3d 9636
5.8054566e-06 4.102915e-06 2.5055253e-06 2.8635727e-06 4.7827125e-06 5.3549284e-06 4.9094324e-06 2.9986168e-06
3.467728e-06 7.720175e-06 4.154163e-06 2.3046643e-06 4.936152e-06 3.2534786e-06 4.4844205e-06 4.4774847e-06

exp_avg f4 [48, 16]
00000000: 60dd 5439 5d25 b5b8 a45b e538 75e6 e3b7
00000010: 2a1f 2739 98ac 17b9 9282 1b39 e083 b736
00000020: 6cda a0b9 ad4e 51b8 df47 c7b8 90fb ec38
00000030: 286a 98b8 98ba db38 0184 43b9 6e27 a838
00000040: defc 7eb8 859b 0137 c982 a8b7 f116 d237
00000050: d822 75b8 b79c 9338 201b c7b7 11ba aa36
00000060: 632f d638 7387 f637 44af 7837 06ec 9ab8
00000070: 2dcf 1d37 dfcc a7b5 7e33 fa37 3e67 2db8
00000080: a5ff 84b6 9486 0138 a014 3237 bed0 25b8
00000090: 12c7 0238 b739 6437 ccff 0bb6 bd24 d937
000000a0: 409c c337 4bed 40b8 5db0 bcb6 76a3 b1b6
000000b0: 4d44 2a37 d539 86b8 6abb 80b6 0356 1637
000000c0: 41d4 c2b7 e742 c437 6bb9 0ab8 dbcc 1db8
000000d0: 4b80 77b6 571f 5836 e648 3ab8 0407 1437
000000e0: 470e 4438 387b 98b7 a890 2d38 797b 9f37
000000f0: 9fa9 8fb7 a310 8cb8 73d6 3638 43ff 6938
00000100: b375 ab39 6160 10b9 c8e4 8a39 d067 4eb8
00000110: 892b a539 2b53 99b9 b38a 7739 7c26 e237
00000120: c764 01ba d077 bfb8 52ed 52b9 816c 6439
00000130: 2b84 4fb9 61b5 1a39 7107 a1b9 36bd 0c39
00000140: 4e78 db38 e18c c038 94d3 6938 b29d 11b9
00000150: e099 2439 0625 25b9 86c9 58b8 915c a237
00000160: 4198 ebb8 ea47 27b7 dddc aab8 148c 2439
00000170: f422 be37 3b4d 15b9 f469 67b7 1552 8938
00000180: 9757 63b8 922a 66b8 b129 27b7 70f8 9738
00000190: 6f84 61b8 7597 0139 e512 e437 debf 5238
000001a0: 8758 0e39 8bd3 aeb6 f3d1 0337 6090 25b9
000001b0: a5c0 df37 d197 07b7 7ba7 6036 4f60 c6b8
000001c0: 7114 4237 f549 4735 6748 61b6 cf89 8636
000001d0: 5382 93b7 d046 3438 1972 f9b7 5f70 0c38
000001e0: 4c40 1538 3854 e437 ba9c 1bb5 c085 42b8
000001f0: c619 2938 a718 1fb8 f7eb 9ab6 f54d 43b8
00000200: 1324 c338 ae08 11b8 9db5 58b7 cb0b ddb8
00000210: b24c 8937 da6d 51b8 028d 5035 e0df e3b7
00000220: fc9d 8cb7 970d e2b5 f0a6 e236 c5f5 6138
00000230: 3904 b838 9398 c3b7 d946 1ab8 ab93 5938
00000240: f115 fb38 f4ec 0bb7 dc23 4638 3795 2bb8
00000250: 8e87 5438 0b84 4eb9 5ce6 c2b8 aa3d bfb8
00000260: 32c2 54b9 9ec9 e4b8 0800 1239 bb6e dd39
00000270: 6008 57b9 3e59 5ab9 229e 4039 82e0 2d39
00000280: c239 7ab7 fa99 b7b7 b3dd d937 7409 3c38
00000290: 7220 e3b7 cc8b 89b8 c4b3 73b8 7134 f036
000002a0: 813f 0335 a4dc 7135 4f9e 2438 c457 d638
000002b0: 1042 f237 3c26 f0b8 ee13 4c38 b275 ee36
000002c0: 10ff ecb8 6efb 8ab8 bf36 1838 e257 0638
000002d0: 512d f337 127a f838 6711 f738 fb5f 8a38
000002e0: 34c7 73b7 1d83 03b7 aa82 15b8 b378 deb8
000002f0: 7b83 28b9 9e6f 1539 efad acb8 b09a 3f37
00000300: 07ea 1bb8 c64c ebb7 70a6 efb6 7238 9238
00000310: ef86 58b7 2640 0938 0aa9 f137 c789 48b7
00000320: 3f38 9636 880a 8ab8 e265 8538 9d7e 4337
00000330: b5e8 a5b8 26a6 2e38 d799 3fb7 530c e3b5
00000340: 538f a438 0c91 1837 c92f 28b7 eb48 94b8
00000350: f08e 58b7 3589 31b8 8365 1fb7 9311 6a36
00000360: 757f 9838 5c35 9d37 6336 1bb8 76e4 bcb8
00000370: 0fbc 6239 e4c4 e436 d813 97b8 2487 35b8
00000380: 0697 03b9 b682 f7b7 adfd 81b8 9b2e 6138
00000390: ebcf 01b8 9caa 9239 2c93 1039 fb39 fb38
000003a0: f8ed 3639 3061 9838 57d7 0fb9 aadd f0b9
000003b0: 9e1d f038 1270 8e39 53b9 6cb9 2225 12b9
000003c0: aef1 86b8 56d5 e4b7 6c03 02b7 3e0b 3338
000003d0: a0fc 0cb7 3113 cd38 232a f537 3f7b 8238
000003e0: 129d 5538 efd0 2537 763d 18b7 6b97 f0b8
000003f0: 7ffa 00b8 4be3 a038 8b45 70b8 7827 54b8
0.00020300364 -8.637712e-05 0.0001093664 -2.7167824e-05 0.0001593797 -0.00014464778 0.00014830593 5.4691773e-06
-0.00030680315 -4.9902756e-05 -9.5024465e-05 0.00011300214 -7.267698e-05 0.000104774896 -0.00018645824 8.0182086e-05
-6.079382e-05 7.725209e-06 -2.0088062e-05 2.5044634e-05 -5.8445003e-05 7.038697e-05 -2.373528e-05 5.088056e-06
0.00010213142 2.9388559e-05 1.4822759e-05 -7.387255e-05 9.406166e-06 -1.2502095e-06 2.98263e-05 -4.1342566e-05
-3.9636675e-06 3.0881332e-05 1.0614429e-05 -3.9533472e-05 3.1179814e-05 1.3603297e-05 -2.0861507e-06 2.5885523e-05
2.3318571e-05 -4.5997363e-05 -5.623368e-06 -5.2940404e-06 1.0148692e-05 -6.40039e-05 -3.836515e-06 8.960723e-06
-2.322544e-05 2.3396175e-05 -3.3074448e-05 -3.7622503e-05 -3.6880544e-06 3.220475e-06 -4.4413748e-05 8.823121e-06
4.674334e-05 -1.817719e-05 4.1381136e-05 1.9011773e-05 -1.7125914e-05 -6.678819e-05 4.3591903e-05 5.578926e-05
0.00032703354 -0.00013768814 0.00026491866 -4.921091e-05 0.0003150369 -0.000292444 0.00023607425 2.695922e-05
-0.00049359765 -9.1299065e-05 -0.0002011557 0.00021784195 -0.00019790295 0.00014754153 -0.00030713857 0.00013421927
0.00010465142 9.181514e-05 5.5748576e-05 -0.00013887024 0.00015697582 -0.00015749419 -5.1686096e-05 1.935501e-05
-0.00011234033 -9.9707195e-06 -8.147371e-05 0.00015692442 2.2666041e-05 -0.00014238518 -1.3793342e-05 6.547958e-05
-5.4202592e-05 -5.487592e-05 -9.963683e-06 7.246516e-05 -5.376752e-05 0.00012358821 2.7188516e-05 5.0246592e-05
0.00013575154 -5.210231e-06 7.857091e-06 -0.0001578941 2.6673379e-05 -8.081975e-06 3.3476088e-06 -9.4593146e-05
1.15680605e-05 7.42409e-07 -3.3569756e-06 4.0095542e-06 -1.7584453e-05 4.2981294e-05 -2.9736244e-05 3.3483255e-05
3.558425e-05 2.7218935e-05 -5.7970067e-07 -4.637777e-05 4.0316743e-05 -3.7931513e-05 -4.6170276e-06 -4.6564226e-05
9.305044e-05 -3.4578778e-05 -1.2916888e-05 -0.00010540298 1.6367387e-05 -4.993179e-05 7.769123e-07 -2.7164759e-05
-1.6762868e-05 -1.6842267e-06 6.754759e-06 5.387307e-05 8.77459e-05 -2.331686e-05 -3.6782443e-05 5.1874358e-05
0.000119726996 -8.340216e-06 4.7240275e-05 -4.0908544e-05 5.0670984e-05 -0.00019694881 -9.293549e-05 -9.1190755e-05
-0.00020290239 -0.00010909441 0.00013923657 0.00042234905 -0.00020507118 -0.00020823345 0.00018369456 0.00016582201
-1.4914609e-05 -2.1887001e-05 2.5971653e-05 4.4831497e-05 -2.7075617e-05 -6.558708e-05 -5.8103135e-05 7.1586624e-06
4.8893713e-07 9.010057e-07 3.9248083e-05 0.00010220663 2.887941e-05 -0.000114512135 4.865595e-05 7.1066543e-06
-0.00011300866 -6.627185e-05 3.629061e-05 3.2029937e-05 2.898896e-05 0.00011848299 0.00011781119 6.5982305e-05
-1.4530309e-05 -7.838736e-06 -3.564606e-05 -0.00010608267 -0.00016070709 0.00014251328 -8.233997e-05 1.1420503e-05
-3.7172835e-05 -2.8049933e-05 -7.142131e-06 6.972336e-05 -1.290602e-05 3.272309e-05 2.8808154e-05 -1.1953008e-05
4.4768963e-06 -6.5823144e-05 6.360911e-05 1.1652385e-05 -7.911158e-05 4.163957e-05 -1.1420306e-05 -1.6916405e-06
7.8468256e-05 9.093677e-06 -1.0024706e-05 -7.070772e-05 -1.29078835e-05 -4.2327873e-05 -9.500774e-06 3.4878947e-06
7.2716655e-05 1.8740706e-05 -3.700553e-05 -9.007093e-05 0.00021623097 6.8178506e-06 -7.203937e-05 -4.3279622e-05
-0.00012549394 -2.9505562e-05 -6.19845e-05 5.3687585e-05 -3.0949635e-05 0.00027974404 0.00013787736 0.000119794124
0.00017445523 7.2660274e-05 -0.00013717763 -0.0004594152 0.000114496084 0.0002716785 -0.00022575753 -0.00013937478
-6.434634e-05 -2.727906e-05 -7.7494005e-06 4.2687396e-05 -8.403469e-06 9.7787364e-05 2.9225897e-05 6.2218394e-05
5.092944e-05 9.8834125e-06 -9.074216e-06 -0.000114722956 -3.075087e-05 7.671731e-05 -5.7285226e-05 -5.0581497e-05

exp_avg_sq f4 [48, 16]
00000000: 1f8f 4435 0938 2835 ec04 0e35 f1e1 7b35
00000010: 6789 f934 73b9 bb34 e798 d534 ad75 2435
00000020: fd19 0935 34d7 4e35 20d8 e434 4e77 1435
00000030: e907 b535 ed47 dc34 79d3 5035 eda0 4235
00000040: 02df 9233 d025 6b33 0d4d 5033 c361 bb33
00000050: 3d0b 3b33 c2fd 1233 0d9d 1a33 eda6 7133
00000060: a72b 4633 b9a0 9e33 8424 2233 600e 4e33
00000070: 57a8 0334 8959 1b33 3652 9433 3e97 8a33
00000080: 5409 1633 afff 9b32 8761 5432 4268 f032
00000090: 4008 5032 89f3 5c32 3ae3 3d32 ce58 5c32
000000a0: 8b42 6932 8706 9632 59ac 4c32 d081 a532
000000b0: 7a56 6133 d466 5532 b019 9132 6f4c 9432
000000c0: 94fe 1433 fb94 ed32 f433 bd32 be7a 3333
000000d0: 1bf5 ab32 6f11 8d32 d32d 8d32 bfd3 ca32
000000e0: ca66 be32 d17b 1333 6b84 a732 1201 1733
000000f0: 80f0 7833 810e a732 14b1 1533 e9d4 0d33
00000100: d203 1236 82a9 fb35 6d58 c735 f9a3 3536
00000110: 2a97 ac35 a7ba 8435 ce12 9d35 3bd0 e535
00000120: d9eb c035 b979 0936 4829 a135 e8d9 cb35
00000130: 4641 8c36 a6ab a035 319b 1236 98af 0836
00000140: baf9 a534 64bc 3534 0017 e533 3301 8d34
00000150: f152 c533 aec8 0234 0cf7 e633 0324 d033
00000160: d0bd e033 b1e4 1d34 63a1 b033 bbd6 df33
00000170: 55de fd34 8849 d933 11b5 1034 072f fb33
00000180: 64c7 9d33 b1d9 7233 60cb 7233 20a2 d933
00000190: f640 5a33 f6b5 2233 336b 2633 8c21 8b33
000001a0: dd1a 5e33 d9d6 ba33 c021 2d33 37d6 a133
000001b0: fb13 1434 2654 3a33 edbb a033 4c98 a933
000001c0: 0108 1233 1add bc32 95cc c532 4035 3b33
000001d0: 3f50 bb32 7ea9 8932 35ec 8c32 2918 d932
000001e0: 646b c232 ff4e 1433 ed4f 9732 3c11 0033
000001f0: ffc8 8133 5306 ad32 4b02 1033 537f 1333
00000200: 5538 0f33 1830 ad32 49ac 6632 b399 1033
00000210: 8b83 6a32 b42a a632 4e71 5e32 c4f4 2832
00000220: d2be ae32 9bda 0e33 7757 9d32 b0bc 0733
00000230: fb6a 8133 0fb0 4a32 8715 e932 a460 be32
00000240: 9699 6834 1010 0534 1c70 2034 ad71 8d34
00000250: 53ce ce33 eec8 3b34 e103 b333 5c98 c233
00000260: 1baa 2634 68c1 c834 6f29 2f34 af5c 0835
00000270: 6470 0135 7828 0034 e4f6 4b34 eae9 4734
00000280: 8253 3f33 4da3 7b32 48bd 8732 d2cb 0633
00000290: 142d 2c32 efaa 0233 c6b6 8b32 0515 6732
000002a0: c54d 5f32 d29a 0033 e4d1 0033 51dc 3d33
000002b0: 64c4 a433 ed85 1f33 5170 7932 192a 8432
000002c0: a16c 1e34 8cf4 5733 da5c c532 4cbc d033
000002d0: bcf0 a232 45eb aa33 9073 5233 c9ca cf32
000002e0: 33a2 0733 9b98 4233 385d 1c33 aa8e 8933
000002f0: 2cb7 7934 88e1 7533 6cce fe32 e9c3 eb32
00000300: 7654 1a33 ddef 8132 7feb 8f32 b862 3733
00000310: 85af 4f32 32eb aa32 0fe4 3b32 8c0c b232
00000320: ab35 a232 d5fe 1133 a2f7 9232 d2ce 2133
00000330: 953d 9533 9211 8b32 1c9b 9d32 efad cf32
00000340: a88e 3434 fc4b 2633 d2e6 fa32 3498 f733
00000350: bf5f 9432 dc28 6433 13a4 4233 7b4d c432
00000360: 0c4f fe32 bae5 3333 b364 de32 5262 a033
00000370: 09f3 8934 0ed0 3633 73b0 2633 44c1 3233
00000380: e8a3 2834 4558 d833 44cb ff33 f427 7634
00000390: e76e aa33 4a3f 5134 5854 a133 18dc b133
000003a0: 8a5d 1734 4692 7e34 a586 2434 1a16 f734
000003b0: 5c70 c834 d944 1e34 95d5 1e34 337e 2334
000003c0: 89f2 7c33 27c5 ae32 3830 9132 ffbf 8733
000003d0: 3ec2 6a32 ee1a 2133 979f 9032 ac92 b332
000003e0: 0111 9c32 4d0d ea32 f86c 8532 31c8 5033
000003f0: 906d c333 5d4f e032 c9cc d032 fdb2 0433
7.322396e-07 6.266642e-07 5.2906285e-07 9.3833575e-07 4.6479838e-07 3.4966396e-07 3.9785593e-07 6.1266e-07
5.1074295e-07 7.705414e-07 4.262556e-07 5.530791e-07 1.3487853e-06 4.1030526e-07 7.779377e-07 7.250481e-07
6.83922e-08 5.474959e-08 4.849885e-08 8.725649e-08 4.354955e-08 3.4224065e-08 3.5998756e-08 5.6264003e-08
4.614017e-08 7.3866836e-08 3.7751775e-08 4.7976187e-08 1.2261567e-07 3.617018e-08 6.906741e-08 6.4536366e-08
3.493308e-08 1.8160646e-08 1.2362199e-08 2.7987088e-08 1.2109069e-08 1.2861059e-08 1.1052913e-08 1.2825877e-08
1.3577515e-08 1.7465267e-08 1.191355e-08 1.926756e-08 5.2465545e-08 1.2421612e-08 1.6891903e-08 1.7264226e-08
3.4690473e-08 2.765818e-08 2.2026121e-08 4.178832e-08 2.0018481e-08 1.6422488e-08 1.6435399e-08 2.3612186e-08
2.2165654e-08 3.4338715e-08 1.9501575e-08 3.51584e-08 5.7960733e-08 1.9447954e-08 3.4852818e-08 3.302276e-08
2.175792e-06 1.875029e-06 1.4852391e-06 2.7066546e-06 1.2858993e-06 9.889089e-07 1.1702884e-06 1.7122433e-06
1.4373755e-06 2.0485443e-06 1.2007449e-06 1.5188098e-06 4.179924e-06 1.1970885e-06 2.1846029e-06 2.0367788e-06
3.0915345e-07 1.6925475e-07 1.0667827e-07 2.626417e-07 9.188614e-08 1.21802e-07 1.0755147e-07 9.692305e-08
1.04653395e-07 1.4704962e-07 8.224995e-08 1.0423306e-07 4.728669e-07 1.0118225e-07 1.3476917e-07 1.16966525e-07
7.347151e-08 5.6543005e-08 5.6529984e-08 1.013434e-07 5.0816162e-08 3.7884057e-08 3.8747384e-08 6.478794e-08
5.1712835e-08 8.7003805e-08 4.0310397e-08 7.536112e-08 1.3790843e-07 4.3383032e-08 7.484764e-08 7.8973784e-08
3.4000553e-08 2.1986626e-08 2.3026852e-08 4.358776e-08 2.1806157e-08 1.6025975e-08 1.640556e-08 2.5273112e-08
2.2633408e-08 3.4530782e-08 1.761506e-08 2.9817997e-08 6.0435916e-08 2.0142727e-08 3.3529698e-08 3.4341905e-08
3.3346016e-08 2.0161721e-08 1.3426935e-08 3.36674e-08 1.3650502e-08 1.9344363e-08 1.2947863e-08 9.83454e-09
2.0343041e-08 3.3260772e-08 1.831698e-08 3.1603747e-08 6.02649e-08 1.1797979e-08 2.713456e-08 2.2162858e-08
2.1662558e-07 1.2392434e-07 1.4941946e-07 2.6346007e-07 9.630153e-08 1.748883e-07 8.3360426e-08 9.061543e-08
1.5521839e-07 3.7393625e-07 1.6313219e-07 5.079882e-07 4.8219795e-07 1.1935651e-07 1.8995667e-07 1.8618417e-07
4.4546603e-08 1.4647253e-08 1.5802144e-08 3.138468e-08 1.0021967e-08 3.0423447e-08 1.6264845e-08 1.3450749e-08
1.2997991e-08 2.994313e-08 2.9993217e-08 4.420537e-08 7.6725684e-08 3.7141877e-08 1.4519245e-08 1.5385966e-08
1.4754416e-07 5.0281002e-08 2.2976042e-08 9.720006e-08 1.8968755e-08 7.959037e-08 4.899954e-08 2.4190188e-08
3.1579656e-08 4.530794e-08 3.6406362e-08 6.40551e-08 2.325657e-07 5.7248627e-08 2.9663362e-08 2.744669e-08
3.5932736e-08 1.5126654e-08 1.6754482e-08 4.2697792e-08 1.2088894e-08 1.989756e-08 1.0936687e-08 2.0727633e-08
1.8883688e-08 3.399221e-08 1.7109247e-08 3.7673836e-08 6.949555e-08 1.618972e-08 1.8347741e-08 2.4177067e-08
1.6815704e-07 3.8718994e-08 2.9208795e-08 1.15295194e-07 1.7273008e-08 5.3122548e-08 4.531837e-08 2.2852637e-08
2.9605438e-08 4.188562e-08 2.5889994e-08 7.468465e-08 2.569507e-07 4.2564402e-08 3.8810366e-08 4.161963e-08
1.5705848e-07 1.007434e-07 1.19113366e-07 2.292507e-07 7.936415e-08 1.9487666e-07 7.512489e-08 8.2822396e-08
1.4097e-07 2.3708807e-07 1.5322674e-07 4.6023416e-07 3.7334655e-07 1.4739943e-07 1.4792597e-07 1.5226469e-07
5.8893907e-08 2.034592e-08 1.6902149e-08 6.321351e-08 1.3664758e-08 3.7510226e-08 1.683638e-08 2.0905041e-08
1.8168523e-08 2.7247234e-08 1.5532791e-08 4.8610847e-08 9.1003244e-08 2.6113122e-08 2.4307512e-08 3.0896434e-08

exp_avg f4 [48]
00000000: fdad 65b6 36e2 82b8 6509 0138 a413 b038
00000010: 10ed 0638 5a2c 5239 6960 e1b8 ee30 9537
00000020: 0e5b e038 be3c 003a 83a6 dc38 5fa3 88b9
00000030: 2afe 9837 9c5d 0e38 fbb9 0aba 1983 ffb8
00000040: b2e5 8831 9149 0cb2 00db 4db1 11a2 8d30
00000050: bcb6 8932 0196 f3b1 bd7b 3fb2 5a25 65b2
00000060: 55a2 23b1 0857 bd31 1ca1 10b1 acca b830
00000070: c83d 6032 91db de31 3b58 8ab0 aa7c 9230
00000080: d6ca f9b8 b6e4 ff39 a498 58ba 425c 083a
00000090: 6a66 6b3a 654e a63a 5237 6839 3592 3239
000000a0: c36e a4b9 2fc5 ed3a 11ed 683a cc1a 8a38
000000b0: 18bf 13ba f787 803a 1f61 36b9 480f cbba
-3.4224934e-06 -6.241018e-05 3.0764746e-05 8.395992e-05 3.216887e-05 0.00020043683 -0.00010746794 1.7784969e-05
0.000106981126 0.0004891864 0.00010521433 -0.00026061662 1.8238166e-05 3.394262e-05 -0.00052919955 -0.000121837664
3.9842343e-09 -8.1658e-09 -2.9955913e-09 1.0305162e-09 1.6031997e-08 -7.0892843e-09 -1.1145798e-08 -1.3338047e-08
-2.3811897e-09 5.5105183e-09 -2.1046338e-09 1.3445365e-09 1.30525635e-08 6.486012e-09 -1.0065898e-09 1.065833e-09
-0.000119110264 0.00048807793 -0.00082624913 0.0005201736 0.00089797995 0.0012688158 0.00022145853 0.00017029869
-0.00031363041 0.001814043 0.00088854233 6.585344e-05 -0.000563608 0.0009806146 -0.00017393053 -0.0015492225

exp_avg_sq f4 [48]
00000000: 8125 1d34 f19d 8b32 84e9 9032 68fa d632
00000010: b274 c334 ccc7 3834 9a1a 2e33 33c8 7032
00000020: c6b2 8133 9863 3735 8b55 9333 a445 8634
00000030: a6b7 1a33 a356 e933 44f2 3835 32a9 9a33
00000040: 00fb 8526 54db a726 5e9a 8d26 fe66 3526
00000050: 9696 0527 cad4 1427 1b53 4426 44aa 5c26
00000060: 76df fa25 8eb2 7326 12cb 8b25 d6f8 3825
00000070: e7d4 2826 6e7c 0626 46f6 ba25 3fcb 0726
00000080: 62f7 3235 9483 9535 8fb3 5836 c51a 0b36
00000090: aa82 2936 7bfb 8c36 c4f1 c034 8de7 6536
000000a0: 133e 1236 423c 0e37 2bda 1436 07d7 b234
000000b0: 5850 2735 23ef 0336 e9fe 0835 ddde d036
1.4635408e-07 1.6253553e-08 1.6869997e-08 2.502675e-08 3.6406487e-07 1.7209021e-07 4.0536726e-08 1.4015359e-08
6.039549e-08 6.831774e-07 6.860781e-08 2.5010115e-07 3.6022946e-08 1.0865667e-07 6.8897884e-07 7.20196e-08
9.296763e-16 1.1647402e-15 9.825682e-16 6.293657e-16 1.853909e-15 2.065448e-15 6.811379e-16 7.6558586e-16
4.351951e-16 8.454955e-16 2.4250262e-16 1.6043765e-16 5.8575245e-16 4.6659223e-16 3.2432738e-16 4.7112984e-16
6.6670157e-07 1.1139659e-06 3.2291025e-06 2.0728196e-06 2.525902e-06 4.2016013e-06 3.5938695e-07 3.425844e-06
2.1791827e-06 8.477889e-06 2.218071e-06 3.3311537e-07 6.2329264e-07 1.9659717e-06 5.103489e-07 6.2248278e-06
