models/fmnist_gen.ckpt (torch_old, 371192 bytes, 304 tensors)

exp_avg f4 [16]
00000000: b77e 2fb7 9cd1 45b7 f742 70b7 92ef 88b7
00000010: baac 0038 3369 7f37 7a58 4d38 9105 0837
00000020: 6068 8ab7 9f63 1bb6 1284 b036 2cd6 9eb7
00000030: d31b 6d36 5e87 77b6 758d 17b8 c0e9 9c37
-1.0460316e-05 -1.17909185e-05 -1.4320706e-05 -1.6324022e-05 3.0678442e-05 1.5223678e-05 4.895821e-05 8.107528e-06
-1.6499485e-05 -2.3154787e-06 5.2605837e-06 -1.89348e-05 3.5331948e-06 -3.6884662e-06 -3.6132948e-05 1.8705497e-05

exp_avg_sq f4 [16]
00000000: 402c c732 f2c3 cc32 1056 d231 5ee6 dd32
00000010: 7789 2f33 3b8e 6532 a676 0834 3636 3632
00000020: d4ee 3933 f05f 3632 3f96 8e32 9389 7f32
00000030: 4f18 0133 3751 3832 7a3f 3833 a71d 4232
2.3186772e-08 2.3837831e-08 6.1215886e-09 2.5832545e-08 4.0870386e-08 1.3361894e-08 1.2709151e-07 1.060612e-08
4.3290882e-08 1.0615608e-08 1.65993e-08 1.4874234e-08 3.005726e-08 1.0728676e-08 4.289857e-08 1.1299028e-08

exp_avg f4 [16, 16]
00000000: 8a3f afb7 d4b7 4d39 c939 7e38 0e84 f2b7
00000010: ee0c c6b7 f5c4 89b9 6db4 0b38 ac5c 3a39
00000020: 3beb 003a eaee 93b9 b943 e837 6a9c efb8
00000030: b770 a338 c48c 6738 0375 38b9 2b3c 5eb9
00000040: 2515 18b8 0f5e f0b7 289a 6237 7e5f 8638
00000050: acb0 ccb8 a969 87b6 df7a 0637 b2c6 b4b6
00000060: e5b2 fab7 8db3 5438 c199 71b5 bc09 1537
00000070: 869d f037 123a 0bb7 ae40 8637 1461 b137
00000080: e76c 77b8 1037 6db8 b600 1438 2bc0 7338
00000090: 4b69 3739 cce2 32b7 6404 09ba b691 8436
000000a0: ae47 1439 8df6 a838 c6c0 9f36 72be 1d39
000000b0: a5f0 0d38 74e9 e2b7 fecd 0fb8 d2fd e137
000000c0: dd83 b3b8 6e27 42b7 9560 16b8 cb31 f738
000000d0: 3d2c b7b8 70b0 e237 ab48 5f38 df09 c637
000000e0: 9b4f 4fb8 67a3 e237 58ab ff37 286a 9ab8
000000f0: dc5f 92b8 2d04 4138 6082 e437 26b8 7e38
00000100: 6095 a837 cec9 e4b7 2a36 ae38 c8c0 b5b8
00000110: f2a9 92b8 5aec 2cb8 7534 1339 fa26 31b9
00000120: fb0c 4c38 badd 7eb9 1332 2737 7a02 4337
00000130: b941 c6b7 7315 1939 062c bb38 c744 ea38
00000140: 6b6c 29b8 659b ecb7 3cba 05b8 0dc3 b638
00000150: 1cb3 51b8 cde0 12b8 2a4d 0539 f4d7 9036
00000160: c512 1db8 056d 14b8 20b7 0eb8 16b9 ae37
00000170: 24d9 d9b8 bcbd 1137 e42a 6438 7192 c438
00000180: 58ce f036 a82a 8eb7 2179 21b7 42b4 b038
00000190: 30e1 6f36 b8ac 31b8 0b88 5738 d74f 21b7
000001a0: 9448 dcb7 f5c0 f1b8 0c28 7b38 8966 0ab8
000001b0: da0c 18b8 092a 89b7 07ac 1238 3223 8738
000001c0: 46c4 ddb7 b348 64b7 e6dd 0c37 a1b5 de37
000001d0: 02eb bbb5 0073 3136 e76c a7b7 ee65 b835
000001e0: 810d 1938 68dc 6cb7 2b89 dd36 076e e8b7
000001f0: e1b7 74b8 07a8 8d36 ab4b 8638 f3e1 3c37
00000200: 2aa3 87b8 cdde 8635 001d cf37 fd13 a437
00000210: cc9c cf36 3c8e 4cb7 2dab 4838 48cf 60b8
00000220: a2ed b6b7 43e9 4837 67fd 7737 f4dc c5b7
00000230: 230b 37b7 b66f b837 9f01 3e38 9100 dcb6
00000240: e3ec a7b8 f840 8a36 1d55 4737 afe7 e938
00000250: 1379 b138 5fc7 5c37 a19c 77b8 1bd2 5538
00000260: 063a d2b7 daf5 3e34 cacf cc36 50c7 95b7
00000270: 0849 99b1 2657 64b8 ac87 1eb7 0cc7 19b8
00000280: 498b b838 33e5 7a37 6c7e b9b7 36ea 16b7
00000290: a119 d738 5abd 21b7 e869 90b9 a0f1 68b7
000002a0: feef 19b8 a596 6a38 bc9d 32b8 18f8 5e39
000002b0: e17e a0b8 83b0 0037 dc1c c3b8 cbc9 cb38
000002c0: 4e9a 8738 2ebd edb7 14be 54b8 0ab6 0a39
000002d0: 6283 bd37 1218 84b6 974b f7b8 5157 1ab9
000002e0: 8963 a2b7 678b 9238 f5e4 6a38 d762 8bb8
000002f0: 94fb c6b8 17fe cf38 ae91 c536 3645 a438
00000300: d709 a838 95f7 38b8 3ca9 ef35 fb9b 7338
00000310: 25ed 68b7 ed9f 02b8 bc82 8fb8 976a 90b8
00000320: 9889 e137 38e2 19b8 e20d aa36 f346 b638
00000330: 13c8 9637 3808 e8b6 f8b4 5437 3884 a3b7
00000340: 6694 0739 2196 d5b7 1456 f3b7 f770 0c39
00000350: 3280 e9b8 eb3b 3d37 3215 5939 5606 26b9
00000360: 9d7c 6eb9 0af9 b338 4a04 33b8 cbb5 74b8
00000370: 3f90 21b9 a439 9337 0322 1a38 d604 4239
00000380: e0b6 d7b6 d4bd ac37 ac52 0ab7 c933 8738
00000390: 0cb7 df38 a2d4 d9b6 a836 80b9 2970 8637
000003a0: bf5e e738 9793 b7b7 41de 0f37 e491 e337
000003b0: 0f12 b637 7445 c6b7 64b0 c0b7 a733 2db8
000003c0: 8773 8cb8 e62b f2b4 31a6 e536 5689 2eb7
000003d0: c452 03b9 905e 6cb7 bc56 6039 5026 8938
000003e0: 1a65 8eb8 0540 11b7 e760 a4b7 c29c 5fb8
000003f0: 2022 64b7 3849 3e38 1f80 be37 58b5 d937
-2.0891213e-05 0.00019618805 6.0612136e-05 -2.891014e-05 -2.360946e-05 -0.0002627742 3.3308217e-05 0.00017772865
0.00049178646 -0.0002821603 2.7688091e-05 -0.000114255425 7.7934405e-05 5.520579e-05 -0.00017591198 -0.00021193984
-3.6259316e-05 -2.8654029e-05 1.3506542e-05 6.407405e-05 -9.760386e-05 -4.035614e-06 8.015631e-06 -5.387549e-06
-2.9885627e-05 5.071196e-05 -9.000324e-07 8.8833585e-06 2.8683582e-05 -8.298566e-06 1.6004164e-05 2.114525e-05
-5.8990812e-05 -5.6556484e-05 3.5286612e-05 5.8114685e-05 0.00017491465 -1.0662432e-05 -0.00052267895 3.9508695e-06
0.00014141083 8.056788e-05 4.761011e-06 0.00015043633 3.3841137e-05 -2.705001e-05 -3.4285702e-05 2.6940284e-05
-8.5599466e-05 -1.15724815e-05 -3.5852736e-05 0.000117871525 -8.73436e-05 2.702346e-05 5.323502e-05 2.3608036e-05
-4.9426784e-05 2.701739e-05 3.0478157e-05 -7.3630654e-05 -6.979678e-05 4.6018675e-05 2.7240429e-05 6.072982e-05
2.0096719e-05 -2.727369e-05 8.3070554e-05 -8.666661e-05 -6.993477e-05 -4.1228115e-05 0.00014038554 -0.00016894555
4.864948e-05 -0.00024305927 9.9656345e-06 1.1623482e-05 -2.3634044e-05 0.00014599207 8.925055e-05 0.000111708
-4.0393712e-05 -2.8205754e-05 -3.1883115e-05 8.714767e-05 -4.999629e-05 -3.5018475e-05 0.00012712614 4.3166747e-06
-3.7449197e-05 -3.5387482e-05 -3.4025987e-05 2.0828604e-05 -0.00010387812 8.6868495e-06 5.439938e-05 9.373285e-05
7.176579e-06 -1.6947582e-05 -9.62455e-06 8.4259096e-05 3.5744852e-06 -4.2360945e-05 5.1386694e-05 -9.614937e-06
-2.625984e-05 -0.000115277166 5.988036e-05 -3.2997257e-05 -3.6251593e-05 -1.6351247e-05 3.4969325e-05 6.443857e-05
-2.643665e-05 -1.3606786e-05 8.396315e-06 2.654904e-05 -1.4000982e-06 2.6441994e-06 -1.9958663e-05 1.3738734e-06
3.649062e-05 -1.41180135e-05 6.6022817e-06 -2.770779e-05 -5.8345384e-05 4.2216884e-06 6.403712e-05 1.1258281e-05
-6.467693e-05 1.0048622e-06 2.4689827e-05 1.9559631e-05 6.1873343e-06 -1.2192464e-05 4.7843136e-05 -5.3598807e-05
-2.1806747e-05 1.1975239e-05 1.4781347e-05 -2.358712e-05 -1.0910243e-05 2.1986529e-05 4.530104e-05 -6.556577e-06
-8.007304e-05 4.120284e-06 1.1881141e-05 0.0001115346 8.4625695e-05 1.3159442e-05 -5.903526e-05 5.0978833e-05
-2.506097e-05 1.7784569e-07 6.1038636e-06 -1.7854996e-05 -4.4611888e-09 -5.44406e-05 -9.449122e-06 -3.666342e-05
8.7997476e-05 1.4954526e-05 -2.2112588e-05 -8.995228e-06 0.00010256773 -9.640435e-06 -0.00027544727 -1.3884535e-05
-3.6701553e-05 5.5930246e-05 -4.258541e-05 0.00021263992 -7.6530276e-05 7.670492e-06 -9.3037e-05 9.717381e-05
6.466043e-05 -2.8340695e-05 -5.0721763e-05 0.0001322852 2.2591736e-05 -3.9367087e-06 -0.000117919575 -0.00014719112
-1.9358255e-05 6.987788e-05 5.600318e-05 -6.646447e-05 -9.488236e-05 9.917857e-05 5.888017e-06 7.833021e-05
8.012697e-05 -4.4099597e-05 1.7856141e-06 5.8080983e-05 -1.3883492e-05 -3.1143358e-05 -6.8431225e-05 -6.886309e-05
2.6886162e-05 -3.6688725e-05 5.068011e-06 8.6916516e-05 1.797456e-05 -6.9150956e-06 1.267832e-05 -1.9492683e-05
0.00012929886 -2.5461488e-05 -2.900794e-05 0.00013393523 -0.00011134184 1.1279229e-05 0.00020702629 -0.00015833354
-0.00022743871 8.581772e-05 -4.268092e-05 -5.834344e-05 -0.00015407892 1.7550607e-05 3.6748137e-05 0.00018503083
-6.4287888e-06 2.0592393e-05 -8.2446895e-06 6.4469474e-05 0.00010667564 -6.4918577e-06 -0.00024454785 1.6026273e-05
0.00011032586 -2.1884027e-05 8.575212e-06 2.7128444e-05 2.17045e-05 -2.3635781e-05 -2.2970322e-05 -4.129452e-05
-6.697239e-05 -4.5107953e-07 6.844079e-06 -1.0403184e-05 -0.00012523966 -1.4088713e-05 0.00021394616 6.539805e-05
-6.789919e-05 -8.657579e-06 -1.9595447e-05 -5.3313335e-05 -1.3597804e-05 4.536772e-05 2.2709426e-05 2.595286e-05

exp_avg_sq f4 [16, 16]
00000000: e944 2636 5ba4 bf35 80c6 5a35 82f3 6836
00000010: 73ee 7c36 c975 a935 b6d3 4d37 340b fe35
00000020: 1083 1c37 ad19 c535 0509 8e35 b348 2936
00000030: b8c3 8136 9c1a 7635 9a7d 0a36 4e04 ed36
00000040: 1a87 4734 ba79 1633 1c0c 2433 0b7c d033
00000050: e2da 3534 1d01 7332 9ace e334 c329 9933
00000060: e956 1a34 a480 f633 5b20 4932 0601 4a34
00000070: 777f 1834 f013 8d33 ab23 1933 aca1 0634
00000080: 8419 8934 0f5e 6633 9b29 bf33 a370 7f34
00000090: ad36 6534 4679 8432 f26b 0835 6886 de33
000000a0: b500 3a34 c7dc b334 002d 3e32 4333 6034
000000b0: c2c7 6834 c731 6733 6dd7 1e33 9051 5c34
000000c0: 8b89 6134 336e 0f33 6a6b 9c33 8198 aa34
000000d0: 5322 8c34 a6b5 9032 2be9 1e35 9c18 1d34
000000e0: 0629 3234 491d d134 f18d 6732 3a71 3a34
000000f0: dfc1 0b34 c631 fe32 b85e 4c33 559d 8e34
00000100: 5404 5834 4e8d c432 f284 5933 296d b734
00000110: 90cc 8234 be78 8432 c57f 2935 03dc 3534
00000120: 7850 5834 d874 b234 4bd4 8232 928c 4534
00000130: 4399 2d34 3b59 cd33 c5a4 7233 2d67 ac34
00000140: d134 8834 ac9a c832 ae49 2033 111d d234
00000150: 03e4 8334 26bd b032 a824 3c35 68ee 0a34
00000160: f826 9134 c43b 6734 8571 aa32 bac9 6034
00000170: 292f b934 03df 3d34 efd6 7d33 ee6b d134
00000180: bd69 f534 1fb4 df32 df0c 2d33 c4a3 0e35
00000190: 91ea 8734 25a2 4633 a618 3835 0fde cb33
000001a0: d674 a034 8b2d 0534 1612 af32 3a99 a534
000001b0: adad f934 54c5 5f34 7a4b 7333 1f8e e034
000001c0: 164a 1035 ade8 0c33 7934 3333 525e 0a35
000001d0: 8b19 9034 b0b1 7733 7e5c 3335 84e3 2034
000001e0: 1b3d 8834 4bc1 1c34 c2cd a932 bdfc 0435
000001f0: 4572 9a34 25b8 0234 67b7 7333 cd4f d534
00000200: e780 1535 863c 8233 c923 2c33 4fd5 ed34
00000210: 6150 b534 b274 3d33 d62a 4b35 67f6 7e34
00000220: 2611 7534 98c8 1a34 4d29 d732 8186 1e35
00000230: 24a5 4534 fddc 6b33 0afb 7e33 c008 de34
00000240: cece 1e35 54d1 a733 3647 9433 6009 c734
00000250: f682 1435 de55 2733 2dca 6b35 6050 c934
00000260: 6bd8 9e34 8a97 5434 ba22 1c33 0f1e f534
00000270: c5b6 6134 3064 9533 1089 b633 3f29 1535
00000280: da0a 0b35 fade 4633 1c70 5f34 c41a e534
00000290: 2d62 5b35 7df2 2b33 a5e2 9035 90eb f834
000002a0: 619d ae34 9cd1 b134 2c57 1d33 6ca5 d434
000002b0: 9304 2735 2a8d 9134 9338 d933 3053 3635
000002c0: f1ec c534 4319 4133 bd10 9134 4bd3 1735
000002d0: 1878 8635 c8c3 6b33 a2db 8435 6728 b734
000002e0: 9c34 f834 41aa 4f34 548b 1e33 7dd8 4435
000002f0: 9bee 8c35 a595 2135 ad2c ec33 238c 6835
00000300: 00fc a934 119c 7e33 24f4 f033 a75b 5b35
00000310: 2a18 a835 640b bf33 aff6 8635 c506 c334
00000320: 4bbe f234 3cee a135 57fe 5133 669f 0c36
00000330: e8f2 2835 c1d1 1635 ec19 0634 b60a d835
00000340: cd53 d034 696a 0e34 6043 4d34 72c4 1635
00000350: d1f7 9835 ca31 0a34 6e06 9635 2972 b534
00000360: b9a5 6535 6fc1 8b35 8236 8433 2374 ab35
00000370: 2c96 3f35 69fd d133 414d 4d34 661c c535
00000380: e7cd a134 f11a 0733 d337 a533 b8b2 5334
00000390: 7643 c534 5d16 7633 dda5 1a35 e7b4 5934
000003a0: fca4 cd34 3499 9834 8f79 fb32 9ed4 be34
000003b0: 443e b234 59f8 4233 1d08 ba33 a479 0935
000003c0: 2f27 9733 7abb 0232 f6b0 5932 6642 7833
000003d0: 0e12 2834 23b1 5732 43e8 9734 b91c 8033
000003e0: 37e3 cb33 5cf4 5533 73be 2c32 0a5a a133
000003f0: 4516 7733 5abe 8332 a109 c232 4f44 0334
2.4776039e-06 1.4278443e-06 8.1500184e-07 3.4712434e-06 3.7689722e-06 1.2625761e-06 1.2268245e-05 1.8927735e-06
9.32884e-06 1.4685116e-06 1.058245e-06 2.522528e-06 3.8672842e-06 9.1680863e-07 2.0636712e-06 7.0636515e-06
1.8582469e-07 3.5035306e-08 3.819524e-08 9.708318e-08 1.6936568e-07 1.4144715e-08 4.2432367e-07 7.132214e-08
1.4373985e-07 1.1478667e-07 1.1707097e-08 1.8813088e-07 1.4202475e-07 6.569451e-08 3.565553e-08 1.2538538e-07
2.5536804e-07 5.3636594e-08 8.9016986e-08 2.3789703e-07 2.1347178e-07 1.5421971e-08 5.082103e-07 1.0362129e-07
1.7322857e-07 3.3501985e-07 1.1069687e-08 2.0880275e-07 2.1679355e-07 5.382915e-08 3.698317e-08 2.0518769e-07
2.1004796e-07 3.3395008e-08 7.2838546e-08 3.177593e-07 2.6102006e-07 1.684641e-08 5.919889e-07 1.4630717e-07
1.6592466e-07 3.895059e-07 1.3478243e-08 1.7363791e-07 1.3015914e-07 2.9592126e-08 4.7583598e-08 2.6564035e-07
2.0118142e-07 2.2881661e-08 5.0645163e-08 3.416583e-07 2.4363226e-07 1.542173e-08 6.3143335e-07 1.6936978e-07
2.0145842e-07 3.32401e-07 1.5230532e-08 1.8398194e-07 1.6167637e-07 9.562287e-08 5.6494873e-08 3.2112567e-07
2.5370403e-07 2.3353401e-08 3.7319914e-08 3.9136697e-07 2.4566552e-07 2.0575111e-08 7.00888e-07 1.2938983e-07
2.7036708e-07 2.1535294e-07 1.9842227e-08 2.0935013e-07 3.449325e-07 1.7683128e-07 5.9101634e-08 3.9007813e-07
4.571174e-07 2.6042526e-08 4.0291408e-08 5.313743e-07 2.531638e-07 4.6247937e-08 6.858121e-07 9.493316e-08
2.9887332e-07 1.2403159e-07 2.0380906e-08 3.0845132e-07 4.650623e-07 2.0840281e-07 5.6646492e-08 4.1826658e-07
5.375199e-07 3.2807908e-08 4.172441e-08 5.154626e-07 2.6840675e-07 5.7670775e-08 6.681729e-07 1.4983931e-07
2.5376434e-07 1.4598952e-07 1.9767757e-08 4.9541615e-07 2.8767877e-07 1.2174185e-07 5.674465e-08 3.9732404e-07
5.5694403e-07 6.064606e-08 4.0079417e-08 4.4299892e-07 3.377236e-07 4.4111125e-08 7.568573e-07 2.3745234e-07
2.2823642e-07 1.4415343e-07 2.5048076e-08 5.9055316e-07 1.8407133e-07 5.491619e-08 5.9367302e-08 4.135709e-07
5.9160527e-07 7.81462e-08 6.90474e-08 3.707346e-07 5.532487e-07 3.8960813e-08 8.7838526e-07 3.7497648e-07
2.9587258e-07 1.9799168e-07 3.6353164e-08 4.5656677e-07 2.1021249e-07 6.956577e-08 8.499967e-08 5.5566846e-07
5.1797326e-07 4.6303263e-08 2.0809279e-07 4.2674048e-07 8.172672e-07 4.0034582e-08 1.0794798e-06 4.6364994e-07
3.2524534e-07 3.312133e-07 3.6633693e-08 3.9608437e-07 6.2219004e-07 2.7111065e-07 1.0115141e-07 6.792134e-07
3.6866507e-07 4.495929e-08 2.7020533e-07 5.6559355e-07 1.001873e-06 5.4893263e-08 9.898688e-07 3.4115803e-07
4.6231878e-07 1.9340315e-07 3.691396e-08 7.333072e-07 1.0500256e-06 6.0194935e-07 1.0997733e-07 8.663066e-07
3.1662057e-07 5.9280925e-08 1.122028e-07 8.171723e-07 1.2524008e-06 8.8962025e-08 1.0055572e-06 3.6326506e-07
4.521447e-07 1.206477e-06 4.8892925e-08 2.0954408e-06 6.293835e-07 5.6184587e-07 1.2489153e-07 1.6096371e-06
3.8803992e-07 1.3263492e-07 1.9116624e-07 5.616522e-07 1.1397007e-06 1.2870365e-07 1.1177742e-06 3.379694e-07
8.5550306e-07 1.0412604e-06 6.156644e-08 1.2774293e-06 7.1371574e-07 9.778416e-08 1.9120218e-07 1.4685909e-06
3.01384e-07 3.145664e-08 7.6935656e-08 1.9715924e-07 3.6743194e-07 5.7296678e-08 5.7610833e-07 2.0275512e-07
3.8304267e-07 2.8423676e-07 2.9275524e-08 3.5544957e-07 3.3200388e-07 4.5395016e-08 8.662776e-08 5.121349e-07
7.038613e-08 7.609623e-09 1.2671299e-08 5.780239e-08 1.5652788e-07 1.2554923e-08 2.8294934e-07 5.965689e-08
9.494254e-08 4.981517e-08 1.0055021e-08 7.513525e-08 5.7529423e-08 1.5336969e-08 2.2588951e-08 1.2225176e-07

exp_avg f4 [784, 16]
00000000: b77e 2fb7 9cd1 45b7 f742 70b7 92ef 88b7
00000010: baac 0038 3369 7f37 7a58 4d38 9105 0837
00000020: 6068 8ab7 9f63 1bb6 1284 b036 2cd6 9eb7
00000030: d31b 6d36 5e87 77b6 758d 17b8 c0e9 9c37
00000040: 9203 2437 18f1 9136 d11b 2f36 b378 2736
00000050: a13a 26b6 a1c2 02b7 4d78 1437 4df7 cab6
00000060: 12a8 37b4 b56e 06b7 043c f536 53d6 1836
00000070: c61b 58b7 5183 cdb6 3032 0136 0a7c 8336
00000080: e9d9 85b7 de94 86b4 8625 d336 4627 15b7
00000090: 21ca 2137 4656 1ab5 fdf7 24b7 da9c dd36
000000a0: 8cc1 c634 cec7 a536 0436 ce34 4e48 c035
000000b0: 5361 2236 0e53 5637 e55e 09b7 b0fa 9cb5
000000c0: deb8 1837 4357 6b37 7f50 c9b6 1b14 8a36
000000d0: 44bc f3b6 b8cc b7b6 eff5 3036 ebd1 15b7
000000e0: d190 d836 87f6 f5b5 e83f ca36 390a 8b33
000000f0: 5974 d8b4 94cc 4eb7 1df3 1737 853b 1bb7
00000100: 9147 4b36 a7fe 9035 3532 8034 3fa9 8034
00000110: 52d1 f236 177d 3bb7 dbb9 52b4 d3c2 2636
00000120: 2c58 d2b6 0b3f cbb5 331d 39b5 f8fb 2336
00000130: a134 20b5 3d39 8036 ad88 7c35 3428 90b5
00000140: 46de 5636 3055 7237 2b93 cd36 a68d a737
00000150: 5407 3b37 2cb9 64b6 a14d 0fb8 89cb 35b7
00000160: 4cd0 5cb6 069a 0134 5189 e7b5 7551 0b37
00000170: 160b 4fb5 36d5 bbb5 9b45 83b6 63b4 7fb6
00000180: 38e4 c136 fd55 3536 2ba2 a2b6 6195 a837
00000190: c6d3 2037 5c9d b2b7 808c 0e37 eb2d 18b7
000001a0: 58f5 77b7 0886 ecb6 3287 7637 1ce2 c035
000001b0: 6616 9bb5 38d3 8636 505f dbb6 a96c 0bb6
000001c0: 2c1c d8b7 8473 ec36 cf36 a737 3771 aa37
000001d0: 88ee f6b6 2410 d036 2ed7 93b7 1339 75b6
000001e0: 91d5 60b7 23ad 0137 98db 0037 fdff fe36
000001f0: ebb5 0ab8 7715 ba37 9a68 9fb7 97b2 b137
00000200: 2fb0 9db7 766b fd36 758c 2f37 db7f 2134
00000210: aa61 f636 7ca1 97b5 442d 99b6 a0b0 9b36
00000220: becb f7b5 a318 e935 fd73 0e37 63c6 6236
00000230: b24a cab6 7f90 7337 f567 97b7 90d0 03b7
00000240: 46bd 04b8 ca22 3237 c93a 1837 dc6c deb4
00000250: 1983 4735 c871 9f36 ed39 59b7 2791 b0b6
00000260: a8bc 0637 771f 9537 fcce 4437 dd14 1bb6
00000270: 9c4d 40b7 6ee4 6637 9a95 c6b6 09ea dab6
00000280: bcb2 bcb7 9fe3 f536 6a67 1d37 92ae 9936
00000290: 1f77 0737 d977 f836 8d6d 39b7 5743 e135
000002a0: 4de5 2536 475c ef36 7f7a 3137 6fde c0b6
000002b0: bdb8 20b7 b26d 2636 01de 58b6 db16 17b7
000002c0: 3035 d0b5 450e 8c34 c11e 8e37 a715 bcb6
000002d0: 1981 3a36 5a89 0cb5 7fb3 0ab6 0b53 8536
000002e0: a674 f534 323b a736 ab09 5b37 e8f5 5eb5
000002f0: 564b 79b7 844d 3437 62db 12b7 8b75 9fb7
00000300: 7a60 2337 c447 0637 dfeb 8134 e886 a437
00000310: ce98 d6b4 3891 41b7 a744 e737 60cf 04b7
00000320: 1204 dbb6 a9dd 4cb7 5bd4 3136 cb88 39b6
00000330: 5165 30b7 9d19 84b5 b4c8 79b7 69ab 9db3
00000340: 5ab3 1ab6 da78 36b4 9ca7 b234 1b92 4337
00000350: 905f 2eb7 3f9f 42b7 e29a 7a37 a05b a2b6
00000360: df34 a836 d35a e4b6 c40c 1ab6 8ac4 a6b7
00000370: 29e6 6b37 ad6f b236 f19d b536 f11a d135
00000380: 5b18 9f37 7878 8636 45c8 5c36 2941 9ab7
00000390: 667f d8b6 d192 0b34 1233 58b6 e0ab 6935
000003a0: e7d7 0f37 38f8 fdb5 4d8b 88b5 5924 2c36
000003b0: 7482 0ab6 9f13 3f35 5475 33b6 7174 64b6
000003c0: 0944 7136 03e4 bc34 31c0 8f36 bd46 b6b5
000003d0: d210 c836 06a7 87b6 3d8d dc35 4483 e2b2
000003e0: d496 d5b6 74bc 8f36 77b1 a0b5 efa7 1c37
000003f0: 985c d1b4 6bbf 43b6 1529 4fb6 3404 29b7
-1.0460316e-05 -1.17909185e-05 -1.4320706e-05 -1.6324022e-05 3.0678442e-05 1.5223678e-05 4.895821e-05 8.107528e-06
-1.6499485e-05 -2.3154787e-06 5.2605837e-06 -1.89348e-05 3.5331948e-06 -3.6884662e-06 -3.6132948e-05 1.8705497e-05
9.775993e-06 4.3494038e-06 2.6093223e-06 2.4955195e-06 -2.4770054e-06 -7.793919e-06 8.849497e-06 -6.0488587e-06
-1.7104347e-07 -8.012798e-06 7.3085557e-06 2.2774518e-06 -1.288107e-05 -6.1247633e-06 1.925171e-06 3.9185443e-06
-1.5956308e-05 -2.506776e-07 6.2926583e-06 -8.890236e-06 9.64341e-06 -5.7495015e-07 -9.832901e-06 6.604573e-06
3.7021198e-07 4.9406435e-06 3.8409792e-07 1.4326158e-06 2.4196531e-06 1.2774732e-05 -8.187931e-06 -1.1695865e-06
9.102949e-06 1.4027409e-05 -5.999638e-06 4.115061e-06 -7.2638813e-06 -5.4776574e-06 2.6369196e-06 -8.929967e-06
6.4541605e-06 -1.8325671e-06 6.027509e-06 6.4745514e-08 -4.031779e-07 -1.2326189e-05 9.056906e-06 -9.252578e-06
3.0291014e-06 1.080295e-06 2.3878388e-07 2.3965e-07 7.23653e-06 -1.1175193e-05 -1.9625388e-07 2.484933e-06
-6.2687523e-06 -1.5143027e-06 -6.896036e-07 2.4435558e-06 -5.968123e-07 3.8213607e-06 9.4076205e-07 -1.0740537e-06
3.2017865e-06 1.4444158e-05 6.1266087e-06 1.9973912e-05 1.1147775e-05 -3.4082432e-06 -3.4166154e-05 -1.083583e-05
-3.29038e-06 1.2070095e-07 -1.7250806e-06 8.304011e-06 -7.712964e-07 -1.3994638e-06 -3.9122074e-06 -3.810296e-06
5.7784164e-06 2.7021154e-06 -4.846855e-06 2.009672e-05 9.5860505e-06 -2.129253e-05 8.496572e-06 -9.070597e-06
-1.4779471e-05 -7.0489514e-06 1.469422e-05 1.4370921e-06 -1.1554919e-06 4.0181003e-06 -6.5378044e-06 -2.0775863e-06
-2.5762325e-05 7.046796e-06 1.9933474e-05 2.0318299e-05 -7.35914e-06 6.200762e-06 -1.7623966e-05 -3.6541066e-06
-1.3401165e-05 7.729311e-06 7.680523e-06 7.599591e-06 -3.307119e-05 2.2182923e-05 -1.9002986e-05 2.1183207e-05
-1.87979e-05 7.5524977e-06 1.04635155e-05 1.5040807e-07 7.342741e-06 -1.1297375e-06 -4.565025e-06 4.639922e-06
-1.8462231e-06 1.7367023e-06 8.490865e-06 3.37921e-06 -6.028765e-06 1.4517572e-05 -1.8049011e-05 -7.856768e-06
-3.1647527e-05 1.0617727e-05 9.073593e-06 -4.1429928e-07 7.432405e-07 4.751815e-06 -1.2947695e-05 -5.2621067e-06
8.030947e-06 1.7776836e-05 1.1730703e-05 -2.3108944e-06 -1.1462162e-05 1.3762254e-05 -5.9182757e-06 -6.5241516e-06
-2.2494576e-05 7.3280676e-06 9.382007e-06 4.580078e-06 8.074362e-06 7.404928e-06 -1.1052366e-05 1.6783405e-06
2.4720387e-06 7.1334975e-06 1.0578543e-05 -5.7479406e-06 -9.579756e-06 2.4799779e-06 -3.2315731e-06 -9.005623e-06
-1.5512687e-06 2.6087415e-07 1.694204e-05 -5.6053573e-06 2.7791305e-06 -5.2353937e-07 -2.0668083e-06 3.9733764e-06
4.571968e-07 4.983879e-06 1.3055668e-05 -8.3059285e-07 -1.4859097e-05 1.0746884e-05 -8.753357e-06 -1.9009012e-05
9.73802e-06 8.003732e-06 2.419974e-07 1.9613144e-05 -3.9971786e-07 -1.1537508e-05 2.7569315e-05 -7.916096e-06
-6.5271824e-06 -1.2210957e-05 2.6498662e-06 -2.7646772e-06 -1.0514007e-05 -9.842221e-07 -1.4888286e-05 -7.3420615e-08
-2.3052185e-06 -1.6994036e-07 3.3277036e-07 1.1656924e-05 -1.0393458e-05 -1.16003785e-05 1.4937223e-05 -4.838643e-06
5.012945e-06 -6.805503e-06 -2.2955219e-06 -1.9880263e-05 1.406068e-05 5.317814e-06 5.412607e-06 1.5579554e-06
1.8965618e-05 4.0075356e-06 3.2899127e-06 -1.8388573e-05 -6.4521328e-06 1.2998795e-07 -3.2216235e-06 8.7049375e-07
8.573733e-06 -1.892221e-06 -1.0173331e-06 2.5651154e-06 -2.0639536e-06 7.1181597e-07 -2.6741372e-06 -3.4042425e-06
3.59514e-06 3.518363e-07 4.284106e-06 -1.3580644e-06 5.9624226e-06 -4.0427576e-06 1.6432383e-06 -2.6369555e-08
-6.3654534e-06 4.283671e-06 -1.1972578e-06 9.337425e-06 -3.8996654e-07 -2.9168684e-06 -3.0869317e-06 -1.0074164e-05

exp_avg_sq f4 [784, 16]
00000000: 402c c732 f2c3 cc32 1056 d231 5ee6 dd32
00000010: 7789 2f33 3b8e 6532 a676 0834 3636 3632
00000020: d4ee 3933 f05f 3632 3f96 8e32 9389 7f32
00000030: 4f18 0133 3751 3832 7a3f 3833 a71d 4232
00000040: 2a7f a930 acef 7331 2cb3 9a31 610d e030
00000050: de4a 3931 1f26 7731 a4f3 a931 9039 1a30
00000060: 007c 9030 0d9e 6030 8296 5931 9572 1031
00000070: ad36 3732 3a20 0b31 98e8 7831 135b 1232
00000080: 58dd af31 b02a 8e31 9ca2 1b31 105b 1331
00000090: 1676 4531 3da6 d130 fc1e 0832 ae8e 1531
000000a0: 28ed 7a31 a0c9 a231 edbd 1a31 1d1c 9930
000000b0: 1d4f 6731 021e 0731 baed 7731 123c 3f32
000000c0: 61ef 1631 a871 8f31 a478 fe31 e4b3 0432
000000d0: 0667 ac30 e550 bb30 e59d 5033 577c 9d30
000000e0: 96fd 0731 b0ad b530 42d1 0831 e32d ed30
000000f0: 832d 8b32 7992 b631 d786 c932 0e2d 7531
00000100: 3bfe f330 a0d3 2431 7896 2b31 52c2 c630
00000110: 0fd2 ab31 6d73 4131 b1b2 c330 992f 1c30
00000120: c09b ae30 6734 4830 5f20 4d30 c24a 1d31
00000130: 2a8e b131 30ad 9b30 f939 ae31 d20a 4831
00000140: 6f52 7332 0991 c032 381f a432 4901 8532
00000150: cbc1 1132 665c 3332 6339 b433 1651 f431
00000160: 876f 8032 b4a6 9531 59b2 9e31 d8f0 2231
00000170: 84c9 2a33 8c02 de31 32de 6c33 eef5 0932
00000180: 8366 0c31 789a d730 595e c631 62f7 9531
00000190: 1a57 8b31 8633 e931 d385 e131 cd2e 8930
000001a0: 31e4 7b31 32a5 1b31 5ae8 ab31 7ca6 2231
000001b0: 0b51 2b32 70c5 3731 3e79 4a32 7f10 fd30
000001c0: a69a 7a31 7c6a ca30 2b05 4c31 4027 c130
000001d0: b8a6 0631 b182 8430 c140 7732 7e5f 7a30
000001e0: 9777 c730 5e87 6a31 0bdf 6c30 9a80 e230
000001f0: 1e3c 8031 67da f730 d21e ce30 3914 0631
00000200: f523 0931 72d0 eb30 9da6 f430 7b0f 6631
00000210: 7860 2031 459d d130 d9c3 1a32 0087 b230
00000220: e158 cd30 967a 3731 0b37 5930 8295 bc30
00000230: 78d6 8b30 5675 9930 241e 5431 9455 2731
00000240: e9d0 7331 6dc4 2331 cf5c 2231 af37 a231
00000250: 5a4e 6331 3d3e 0531 2b99 7932 0ecc fe30
00000260: 6a27 5d31 ad2e 2331 6a1f af30 69c6 dd30
00000270: 5230 da30 8412 a430 5612 6631 7d83 bb31
00000280: 0742 cf31 c8be 5d31 6adf 8e31 61c0 ab31
00000290: 96a5 bf31 3849 f630 f564 ab32 95d1 1731
000002a0: 3340 9431 3988 9a31 3b16 d630 a319 5231
000002b0: 4823 1b31 2f95 c030 193a c531 a3b5 b631
000002c0: d800 d531 879c 8331 4da3 5831 1984 7331
000002d0: 35a0 1532 9b51 e230 0915 1033 6f9d d330
000002e0: f7b3 4531 2574 d431 784a 3531 cc90 8531
000002f0: 1b8b 4231 cbb3 b830 5f1e df31 4b94 f531
00000300: a943 ed31 04c1 4131 f4f0 1431 4338 7d31
00000310: eb43 c531 f089 2031 5e8b 9732 f22f 8b30
00000320: 2a1e bb30 e79f 9b31 00b0 9c30 1531 1031
00000330: 4715 1331 58eb 9230 36ef 6f31 e582 7531
00000340: 1e1c d931 0ec6 2b31 3b50 9a30 9a89 6f31
00000350: e170 b231 9a8d 2c31 6c6a 5132 ad1f 3a30
00000360: 53cd c130 73a9 5131 535e a330 8466 ca30
00000370: c176 2a31 0c3d b430 00e2 1531 6031 b231
00000380: ba15 4b31 773e 0330 bd1f 1430 9fe1 f930
00000390: 1e1a 3b31 1078 8e30 5475 3531 fea2 fd2f
000003a0: abe0 7030 10ca 9030 025e 2a30 d23c 9f30
000003b0: 2da9 b430 0dc0 9e30 70cf 4c30 5339 1531
000003c0: 94d9 c230 7eeb 5730 951b 8530 b0ab a530
000003d0: fd84 2631 0f21 4e30 c6c9 0031 885a 862f
000003e0: 8580 3530 c0a1 a930 aa80 c62f 0954 0031
000003f0: ba4e fa30 d867 1530 2f0b e830 21a7 1331
2.3186772e-08 2.3837831e-08 6.1215886e-09 2.5832545e-08 4.0870386e-08 1.3361894e-08 1.2709151e-07 1.060612e-08
4.3290882e-08 1.0615608e-08 1.65993e-08 1.4874234e-08 3.005726e-08 1.0728676e-08 4.289857e-08 1.1299028e-08
1.2332511e-09 3.5497392e-09 4.5023594e-09 1.6301948e-09 2.69636e-09 3.59649e-09 4.946246e-09 5.6106675e-10
1.0512622e-09 8.171533e-10 3.166321e-09 2.101989e-09 1.0664434e-08 2.024548e-09 3.6220964e-09 8.519026e-09
5.118334e-09 4.137597e-09 2.2647901e-09 2.1443078e-09 2.8734397e-09 1.5253999e-09 7.923287e-09 2.1763458e-09
3.6514596e-09 4.7377426e-09 2.251791e-09 1.1140205e-09 3.3659895e-09 1.9662143e-09 3.6078363e-09 1.1131322e-08
2.1963944e-09 4.174769e-09 7.406088e-09 7.724314e-09 1.2543928e-09 1.3629032e-09 4.8572378e-08 1.1458593e-09
1.9789232e-09 1.3218848e-09 1.9909554e-09 1.7257061e-09 1.6202426e-08 5.313549e-09 2.3460798e-08 3.5677803e-09
1.7752834e-09 2.3985436e-09 2.4969307e-09 1.4461625e-09 5.000636e-09 2.8150808e-09 1.4238904e-09 5.682011e-10
1.2704433e-09 7.2834044e-10 7.462457e-10 2.2889002e-09 5.16754e-09 1.1326957e-09 5.0706572e-09 2.910998e-09
1.4163205e-08 2.2417696e-08 1.910631e-08 1.5483822e-08 8.484174e-09 1.044018e-08 8.392342e-08 7.110553e-09
1.4951878e-08 4.3554227e-09 4.618681e-09 2.3711006e-09 3.9764487e-08 6.46134e-09 5.5150117e-08 8.0303675e-09
2.0430952e-09 1.5687212e-09 5.7732845e-09 4.364595e-09 4.0553347e-09 6.78705e-09 6.563576e-09 9.981364e-10
3.665502e-09 2.2649371e-09 5.0031703e-09 2.3668738e-09 9.971937e-09 2.6742235e-09 1.1785515e-08 1.8412861e-09
3.6467696e-09 1.4727699e-09 2.9688845e-09 1.4053754e-09 1.9594335e-09 9.641409e-10 1.4392016e-08 9.108517e-10
1.4513145e-09 3.412843e-09 8.6173263e-10 1.6480215e-09 3.732125e-09 1.8033689e-09 1.4997232e-09 1.9511062e-09
1.9956563e-09 1.7157744e-09 1.7800691e-09 3.3478205e-09 2.33379e-09 1.525145e-09 9.00851e-09 1.2989574e-09
1.4940974e-09 2.6699687e-09 7.902236e-10 1.3721293e-09 1.0174537e-09 1.1165564e-09 3.0867193e-09 2.4350344e-09
3.5479906e-09 2.3831277e-09 2.3626858e-09 4.721151e-09 3.3077385e-09 1.9389426e-09 1.4528534e-08 1.8538928e-09
3.2182137e-09 2.3746154e-09 1.2741854e-09 1.6136258e-09 1.5875321e-09 1.1937833e-09 3.3479828e-09 5.457365e-09
6.0319993e-09 3.226818e-09 4.158143e-09 4.998626e-09 5.5776566e-09 1.7919666e-09 1.995293e-08 2.2092526e-09
4.3146655e-09 4.4974766e-09 1.5576868e-09 3.0573595e-09 2.2575524e-09 1.4012239e-09 5.7400595e-09 5.317547e-09
6.199212e-09 3.830397e-09 3.1524963e-09 3.5436243e-09 8.709368e-09 1.6466858e-09 3.3546744e-08 1.5397016e-09
2.8769571e-09 6.183216e-09 2.6381297e-09 3.887271e-09 2.8309788e-09 1.3438862e-09 6.493607e-09 7.1472974e-09
6.9053e-09 2.8194913e-09 2.16738e-09 3.6848327e-09 5.741176e-09 2.3361473e-09 1.764209e-08 1.0127208e-09
1.3614614e-09 4.5292725e-09 1.1400516e-09 2.0982658e-09 2.140341e-09 1.0689787e-09 3.4915053e-09 3.5726597e-09
6.3187278e-09 2.4996356e-09 1.1227778e-09 3.4857295e-09 5.1933147e-09 2.5109785e-09 1.2189599e-08 6.771142e-10
1.4100955e-09 3.0509824e-09 1.188662e-09 1.4726571e-09 2.480576e-09 1.3114074e-09 2.181082e-09 5.186095e-09
2.9552738e-09 4.774629e-10 5.388719e-10 1.818126e-09 2.7226927e-09 1.0365984e-09 2.640566e-09 4.6136245e-10
8.7630764e-10 1.0534809e-09 6.1979233e-10 1.1586059e-09 1.3144806e-09 1.1550597e-09 7.4509554e-10 2.1714939e-09
1.4177197e-09 7.85512e-10 9.684863e-10 1.2054127e-09 2.4231774e-09 7.498934e-10 1.8741146e-09 2.4438784e-10
6.6030054e-10 1.234234e-09 3.6107412e-10 1.867422e-09 1.821227e-09 5.4353455e-10 1.68834e-09 2.1486317e-09

exp_avg f4 [16]
00000000: f38b 4b3a 7151 bab9 f485 4439 3faa deb9
00000010: b24a 243a 4956 c6b8 6bca 24ba 57e2 933a
00000020: b1e3 45ba dd12 be39 2eb0 88b9 50a9 b5b9
00000030: 74c8 82ba 5d7b 06b9 2be3 2f39 8488 c239
0.00077646895 -0.00035537363 0.00018741918 -0.00042469983 0.0006267234 -9.4574476e-05 -0.0006286266 0.0011282664
-0.0007548882 0.00036253678 -0.00026071206 -0.00034649158 -0.0009977953 -0.00012825192 0.00016773927 0.00037104276

exp_avg_sq f4 [16]
00000000: f40c 7938 a63a 9037 d2f4 3737 5185 8e38
00000010: 47ec 6d38 e4f1 dc37 4bc0 8638 6364 2e38
00000020: 5b87 8338 9e10 3b38 e655 c137 9ca3 e937
00000030: c9c7 8238 e68d 3137 6497 a637 a2c0 9538
5.937829e-05 1.7193448e-05 1.0964652e-05 6.79592e-05 5.6725254e-05 2.6338683e-05 6.425435e-05 4.1578325e-05
6.271779e-05 4.459975e-05 2.3047392e-05 2.7851951e-05 6.236096e-05 1.058306e-05 1.9859239e-05 7.140754e-05

exp_avg f4 [16]
00000000: 3ed3 87b8 7c01 4cb9 d4d3 5e38 8a06 d73a
00000010: f6ec 4738 0ca0 d3ba a108 fcb9 0596 1aba
00000020: 4fb7 4b3a cb45 99ba 9199 613a a526 0eb8
00000030: ac98 44ba f957 3e3a baf0 a039 4bc9 783a
-6.4766486e-05 -0.00019455509 5.3126205e-05 0.0016405147 4.7665984e-05 -0.001614572 -0.00048071615 -0.00058969884
0.00077711506 -0.0011693774 0.0008605952 -3.389143e-05 -0.00074995565 0.0007261034 0.00030696933 0.0009490444

exp_avg_sq f4 [16]
00000000: 3a53 a938 5e60 6938 b497 2238 5869 0339
00000010: f948 8638 9f88 3138 c07e ad38 b609 2338
00000020: 87c5 7038 f108 bb38 613e 0138 0d9f c938
00000030: 3b62 8f38 c9c7 8538 4c1b e137 be36 0139
8.07405e-05 5.5641278e-05 3.8765094e-05 0.00012532377 6.40321e-05 4.2327327e-05 8.272892e-05 3.8871272e-05
5.740442e-05 8.91852e-05 3.081409e-05 9.6140524e-05 6.837068e-05 6.379147e-05 2.6834801e-05 0.00012322792

exp_avg f4 [16]
00000000: 1a7c b9ba 72d5 dd39 856c cd39 94f4 173a
00000010: 8064 a4ba ced6 e639 fbe8 1d3b 319e 5d39
00000020: 827e b9b8 3d51 c039 1c67 d5b9 0fd4 7838
00000030: 60e7 57ba d215 f8b9 3af7 bdb9 bc05 5a39
-0.0014151365 0.00042311434 0.000391815 0.0005796638 -0.0012542158 0.0004402906 0.0024095166 0.00021135133
-8.845051e-05 0.0003668162 -0.00040703348 5.9325303e-05 -0.00082360767 -0.00047318503 -0.00036233087 0.00020792236

exp_avg_sq f4 [16]
00000000: da05 8838 0be0 3c37 ca48 2737 a508 1e38
00000010: 130b 8d38 e579 2338 331c 5c38 4871 cc37
00000020: e701 1938 3229 6537 d425 5a37 3ae4 a037
00000030: 86de cf37 5dd0 4a37 4047 9737 b418 9038
6.486075e-05 1.1257837e-05 9.970923e-06 3.7678186e-05 6.725467e-05 3.897575e-05 5.247835e-05 2.4371446e-05
3.6479814e-05 1.3659055e-05 1.300262e-05 1.9179763e-05 2.4779943e-05 1.2088652e-05 1.8033781e-05 6.8710564e-05

exp_avg f4 [16]
00000000: 0601 403a ad2d d138 2793 f939 ca05 3aba
00000010: fdd2 0dba eda5 a8ba 6ea7 933a 07c9 f8b8
00000020: cc40 a53a 142e 97ba 87ce 8f3a 4dd6 26b8
00000030: 2b74 e739 cb68 8239 aa9e 5c3a dbf1 7aba
0.0007324371 9.9744044e-05 0.00047602618 -0.00070961996 -0.0005410163 -0.0012866833 0.0011265108 -0.00011863006
0.0012607812 -0.0011534118 0.0010971584 -3.9777067e-05 0.00044146305 0.0002487361 0.0008415977 -0.00095727824

exp_avg_sq f4 [16]
00000000: 5c46 3138 84c5 a638 e967 b538 3fd8 2338
00000010: 3a69 2f38 3a3b 3838 76f8 7f38 d892 c437
00000020: ecea 2838 de35 2538 6f0b 8638 fbc9 9937
00000030: 2e1b 9e37 1f64 8138 2b5b 9a38 face 7238
4.2265616e-05 7.952287e-05 8.650107e-05 3.9063623e-05 4.182125e-05 4.3924178e-05 6.1028135e-05 2.34334e-05
4.027311e-05 3.9389233e-05 6.3917476e-05 1.8333076e-05 1.8847724e-05 6.169848e-05 7.3602736e-05 5.7890058e-05

exp_avg f4 [48, 16]
00000000: 40f1 88b9 4fd7 37b8 bb94 cb38 4cbb b238
00000010: b85c c6b8 66e0 e538 40e7 2439 20e4 2237
00000020: cec0 c2b7 a0ad a637 f69e 8bb8 e6ed 2539
00000030: 4a20 7937 a5be 1638 eb17 05b5 1079 41b9
00000040: 0533 ba38 56c8 ccb7 fcdb c3b7 f9cd cbb8
00000050: f89e 3fb8 a25e a4b7 7e84 5538 d342 8db7
00000060: c8e1 c137 4ce0 9bb7 801c 1038 372c 1638
00000070: 3871 12b8 6d29 80b6 e03a 90b7 e844 b838
00000080: a57c 0638 0950 2138 d168 8437 fa0e 0437
00000090: ea03 8538 fb74 1eb8 20cd 69b8 d7e5 9a37
000000a0: 1f3d 04b8 d360 4db8 184d 3537 8021 b6b8
000000b0: ab17 1538 8714 7cb7 147e 55b7 f7c1 7538
000000c0: 2a1d 3db7 1bee 01b7 9d35 f237 a7f5 beb7
000000d0: e8ce 3239 af96 2bb8 20fe 4638 2dae 51b7
000000e0: edcc 0b38 1188 bb36 3a09 1837 07c0 5637
000000f0: bf01 d0b7 a095 f5b7 9240 87b7 127c b5b8
00000100: d8a0 bf37 59ed a836 7550 9b37 3db6 c1b7
00000110: 15a6 9935 fda3 31b5 ae28 bc37 b3dd b3b6
00000120: 8809 2937 7d3a 3f36 a208 97b7 5613 feb6
00000130: 9d90 b037 ef4c 4935 01b0 35b7 6ac0 93b7
00000140: d35e 7a37 520e 91b7 bb97 a4b8 aff7 5839
00000150: 60c1 3fb9 ba7f 5539 5803 2cb9 9b26 1c39
00000160: cb78 90b9 7f68 9a39 0f5d 2138 7699 04b9
00000170: d9be a738 10ce 56b9 1786 0ab9 63e5 6538
00000180: 2ad5 c737 2d04 ba36 24ed 3437 80a0 2eb8
00000190: 1be9 3638 cc83 84b7 da22 de37 84a1 e0b6
000001a0: e233 1b37 f8e2 34b7 c10f 0d35 538d 28b6
000001b0: f151 47b8 f3d3 c6b6 332a da37 f234 7033
000001c0: a0df c138 afe8 69b8 9b79 04b9 ccc5 98b8
000001d0: e476 b2b8 0704 9737 c709 afb8 65f1 1239
000001e0: 8e18 0039 9814 2839 4733 ea36 6a44 f436
000001f0: ce41 2fb9 2d16 7438 7900 15b8 5936 db36
00000200: 9f84 81b8 e75f 2bb8 c38a 45b7 5580 a538
00000210: 0783 8db8 3fe3 0c38 edd0 d437 6b57 d236
00000220: 4ba8 eeb6 161d 9d37 43f5 be37 6a50 a536
00000230: 5b47 0b37 61a0 10b8 f9a1 4d37 e204 f7b6
00000240: 3abc 1639 56a3 9d38 e5e8 0db8 7cdc 48b9
00000250: ba3c 3937 af10 bdb7 85b4 8838 c489 8038
00000260: 0083 86b8 bebe 1c37 f8c6 6037 406f beb8
00000270: 011e 5bb8 b42f 3737 326d 1137 9cc7 8b37
00000280: 7e8e 9839 9370 0d37 830c 92b8 984f 1bb9
00000290: 01e1 1b39 42f7 00b9 79fd c3b8 0de6 d3b7
000002a0: 7029 cd37 bd05 0138 8aff b638 e940 beb8
000002b0: 5992 ffb7 e12d b0b8 e05e 92b7 0bb7 f538
000002c0: 2e71 a7b9 23b6 db37 ebbf d838 7d2b 36b9
000002d0: 6334 0bba 80be d039 dc76 fab9 f32a 4038
000002e0: 14e1 9d39 0d6b 7f38 1207 4cb8 82a5 c739
000002f0: 9107 72b9 6b98 b639 84a8 62b9 b8d4 8cb8
00000300: 74d7 94b8 613f e3b7 e69e 7e38 b801 2039
00000310: 326e 01b9 9c83 9038 0707 f637 a9fd b0b8
00000320: ef66 30b8 3f72 6a38 4420 76b6 ebdc 5837
00000330: 6eda 8738 bdb7 acb8 7c9e b637 7a2c a7b8
00000340: 1ff1 aeb5 3697 4f37 31f5 eab5 fce5 bfb7
00000350: 7559 34b8 e496 1337 b8c0 a537 b053 2ab8
00000360: 23dc 9837 d5cf f837 d71a 6fb6 878d c1b7
00000370: dd00 7738 a4e7 75b6 b4b0 e737 30c1 86b8
00000380: dbe9 9c38 7bb6 e538 4873 64b8 270f 37b9
00000390: 45d4 7938 9350 12b9 8d6c 0739 27b7 83b8
000003a0: 31d9 6239 ec3b 7db9 a9c0 5638 996c 8d38
000003b0: 8fc7 cd38 3943 b538 9382 33b7 a8d1 6bb9
000003c0: e2ea c138 eb8b 3137 e073 0a38 183f 9db8
000003d0: 0676 cb38 e9b5 4fb8 abd4 22b9 39ed 44b8
000003e0: 8b43 2638 3b42 4a37 2a8a 46b7 7abc 5438
000003f0: cd4c fb38 f04e 60b8 7cba c4b7 dc37 a7b6
-0.00026119687 -4.383112e-05 9.7074975e-05 8.522588e-05 -9.458646e-05 0.000109613684 0.00015726406 9.709067e-06
-2.3216384e-05 1.9869593e-05 -6.657645e-05 0.0001582425 1.4849074e-05 3.594034e-05 -4.9581166e-07 -0.00018451014
8.878674e-05 -2.4411984e-05 -2.334825e-05 -9.71816e-05 -4.5686e-05 -1.959439e-05 5.090655e-05 -1.6839627e-05
2.311253e-05 -1.8581886e-05 3.4358818e-05 3.5803965e-05 -3.4914556e-05 -3.81952e-06 -1.7193554e-05 8.7866385e-05
3.2064174e-05 3.845993e-05 1.5784435e-05 7.8713e-06 6.342663e-05 -3.7779082e-05 -5.5742566e-05 1.8465258e-05
-3.1528176e-05 -4.8965983e-05 1.08063905e-05 -8.684676e-05 3.554641e-05 -1.502515e-05 -1.2725144e-05 5.8593196e-05
-1.1272068e-05 -7.744437e-06 2.8873614e-05 -2.2764156e-05 0.00017052481 -4.0909912e-05 4.744355e-05 -1.2497924e-05
3.3331035e-05 5.5888745e-06 9.062054e-06 1.2800104e-05 -2.4796345e-05 -2.927595e-05 -1.6123322e-05 -8.6538625e-05
2.2843873e-05 5.034421e-06 1.8514906e-05 -2.3092254e-05 1.1447725e-06 -6.617627e-07 2.243029e-05 -5.360425e-06
1.0075404e-05 2.8495263e-06 -1.8004623e-05 -7.572041e-06 2.1048176e-05 7.499029e-07 -1.082942e-05 -1.7613365e-05
1.4923239e-05 -1.7292015e-05 -7.8483914e-05 0.00020691635 -0.00018287217 0.00020360845 -0.00016404444 0.00014891701
-0.00027555818 0.00029451025 3.847206e-05 -0.0001264567 7.998729e-05 -0.00020485395 -0.00013210658 5.4811488e-05
2.382191e-05 5.543718e-06 1.078405e-05 -4.163431e-05 4.3609278e-05 -1.5796999e-05 2.6480691e-05 -6.694523e-06
9.2508e-06 -1.0781681e-05 5.254952e-07 -2.5116212e-06 -4.752161e-05 -5.925534e-06 2.6007276e-05 5.5927508e-08
9.2446106e-05 -5.5768232e-05 -0.00012633803 -7.284767e-05 -8.5098465e-05 1.8002478e-05 -8.3464714e-05 0.00014013571
0.00012216179 0.000160294 6.979713e-06 7.279731e-06 -0.00016713815 5.8194786e-05 -3.552481e-05 6.5330355e-06
-6.175902e-05 -4.0858893e-05 -1.1774423e-05 7.891717e-05 -6.74781e-05 3.359024e-05 2.5369658e-05 6.2686645e-06
-7.1125446e-06 1.8729403e-05 2.2763974e-05 4.9267446e-06 8.301659e-06 -3.448164e-05 1.2256664e-05 -7.361742e-06
0.00014375235 7.516767e-05 -3.383392e-05 -0.00019155623 1.1040998e-05 -2.2538325e-05 6.51861e-05 6.1291765e-05
-6.4140186e-05 9.342735e-06 1.3397766e-05 -9.080628e-05 -5.2241612e-05 1.0918757e-05 8.6680975e-06 1.6663042e-05
0.00029097864 8.430466e-06 -6.964153e-05 -0.00014811603 0.00014865772 -0.00012299142 -9.3455375e-05 -2.5260286e-05
2.44572e-05 3.076134e-05 8.726034e-05 -9.0719965e-05 -3.0466517e-05 -8.4008796e-05 -1.7448736e-05 0.00011716605
-0.00031937048 2.6191648e-05 0.0001033543 -0.00017373073 -0.00053102354 0.00039814785 -0.00047772273 4.5816367e-05
0.0003011307 6.0896436e-05 -4.8643975e-05 0.0003807955 -0.00023081737 0.00034827305 -0.00021615817 -6.715342e-05
-7.097321e-05 -2.7090022e-05 6.0706305e-05 0.0001525943 -0.0001234345 6.890969e-05 2.9328758e-05 -8.439582e-05
-4.2057534e-05 5.5896347e-05 -3.6675638e-06 1.292604e-05 6.477987e-05 -8.235823e-05 2.176989e-05 -7.971465e-05
-1.3034186e-06 1.2373368e-05 -1.7505719e-06 -2.287607e-05 -4.2998658e-05 8.797015e-06 1.9759274e-05 -4.06091e-05
1.8222321e-05 2.9660683e-05 -3.5629398e-06 -2.3073297e-05 5.8890193e-05 -3.6642678e-06 2.761963e-05 -6.425602e-05
7.482219e-05 0.000109535606 -5.44668e-05 -0.00017457885 5.9563918e-05 -0.00013953661 0.00012915042 -6.2806816e-05
0.0002163395 -0.00024150283 5.1201005e-05 6.743632e-05 9.8123324e-05 8.643274e-05 -1.0699633e-05 -0.0002248945
9.2467075e-05 1.0582599e-05 3.300968e-05 -7.4980955e-05 9.701778e-05 -4.9522063e-05 -0.00015528749 -4.6950972e-05
3.964039e-05 1.2055559e-05 -1.18338885e-05 5.072027e-05 0.00011982918 -5.3479278e-05 -2.345186e-05 -4.9834907e-06

exp_avg_sq f4 [48, 16]
00000000: 81e0 d635 a4eb 9234 fa6e a334 2538 de35
00000010: 9ae0 8636 2b2c 4635 43de e835 02f7 3f35
00000020: e086 5835 d510 1e35 bf06 d733 26a3 2335
00000030: 7c0e 5235 a70d 3c35 8da6 c434 a5aa 0a36
00000040: 73ef eb34 f154 ac33 dec6 9533 199e 4335
00000050: 0055 3c35 ccb4 5734 a077 bb34 aea4 3734
00000060: 8829 cb34 411c 0d34 ea3d c933 31b0 0c34
00000070: 2a22 6934 df5d e933 0283 b933 cde9 1b35
00000080: e35e de34 39d8 6233 4d68 a533 c2a0 9534
00000090: 75fe 3535 41ff 5a34 c7d1 1135 13a3 5634
000000a0: 5031 c834 b6ac 6f34 01ba ba32 930c 5534
000000b0: 7930 6a34 1f9c 1f34 942c c433 8dca 5534
000000c0: 3cdf 0035 1f9d 2833 95cf 5333 93bc 9f34
000000d0: 60bf fd34 4bb4 1634 6177 5434 ad08 c334
000000e0: a4e7 e733 2fab c333 7341 3433 e4f8 ea33
000000f0: 7c2a 8534 0cad f433 8866 c733 bb15 6434
00000100: 8cfc d733 0876 2532 7d7d 8432 23f0 9033
00000110: 320e c033 23a4 2633 752f 9e33 deb7 0233
00000120: c2dc 2f33 d1dc fc32 032c 0132 aba1 f832
00000130: b2d0 1733 4e04 da32 85ed 7332 659e 2d33
00000140: a7b4 aa36 758b a035 19f1 7d35 31ce 8f36
00000150: a2c2 0437 f182 b336 c237 cb36 a076 1036
00000160: 83c4 d335 ee4d a036 27e1 a334 63a3 0b36
00000170: be96 8d36 bfee 0636 255c 4135 75bb 6336
00000180: a08a 4f33 8127 f331 0ee2 2532 0041 7333
00000190: 3758 a533 b9f4 2233 6040 1533 fd99 a932
000001a0: bf7b 0033 af80 c432 22ec 8631 3901 b432
000001b0: c637 2d33 ce23 9e32 6e1c 7032 d3b8 2033
000001c0: a6c8 6a35 aeb9 1334 05e9 8034 649f 9635
000001d0: f87e a335 2e75 2635 29ed 9535 cb16 ed34
000001e0: dbd9 4035 d438 1635 2738 8733 0d0b 0f35
000001f0: 1686 3935 9fc1 0635 f727 7234 d950 4535
00000200: 84e8 fc33 29f7 a032 c6bb a232 d641 1034
00000210: 72bb 0534 8bfb 8433 c2a8 9e33 5ce6 7933
00000220: 5976 a833 c96b 5b33 4f6d 7332 5dac 4933
00000230: 3b7e 9d33 694c 2d33 a544 e232 d1d3 f033
00000240: 21f0 0a35 d358 8c33 9715 b133 3f33 1b35
00000250: c15c 2b35 6a33 a034 0dbd a534 c7b5 7234
00000260: 37b5 5f34 619f 7334 ff58 6b33 25b3 5934
00000270: f74f bc34 912f 2534 7739 e033 2724 dd34
00000280: a822 9235 5105 9833 9abe 0a34 6bf1 f734
00000290: 1f92 a435 199d f734 9b43 2f35 c852 cd34
000002a0: 50bd b134 74f7 7c34 c091 7533 7d91 7434
000002b0: 879e b534 b3fd 5734 11a9 a933 322e 3435
000002c0: 4fa2 a137 d046 c735 ea63 9a35 4eea 6837
000002d0: a630 1c37 f999 7e36 f866 3837 57b1 1237
000002e0: 8730 6136 e366 3036 b7bf f135 6cc8 2936
000002f0: 9650 9736 8a89 1336 5200 8935 efe4 3737
00000300: c5c3 c434 b9e5 4433 f3d7 a833 7693 c734
00000310: 018d f634 c64d 9e34 4a39 9f34 599e 4534
00000320: f8fb 4934 e6e9 3434 a777 fb32 1758 3534
00000330: 2cb9 9134 3166 f633 c27a 5833 a2a4 a134
00000340: c709 3634 59b7 8d32 d48a da32 5671 ea33
00000350: d1b9 1b34 8f4a 9533 3876 e533 408c b833
00000360: bca9 9633 c812 8133 a88d 4132 a169 4f33
00000370: 3abe 9133 d826 3633 841a b032 1c55 e433
00000380: fb05 9235 d81d 1534 e96e 5d34 6970 5835
00000390: b01d 0a36 c21d 8a35 82d9 d435 0e7a 8235
000003a0: a4ab 5235 4ae6 3335 fcd6 fb33 2b52 5b35
000003b0: bb4c 6135 ffa0 9134 9d06 3234 da67 e335
000003c0: 0e82 1235 5984 9a33 c845 aa33 1cce b534
000003d0: 1024 4735 beac 9e34 1e3f f834 a5c1 8b34
000003e0: 8675 a334 c5e3 4134 3a10 4133 9d1d 8234
000003f0: d0b1 ba34 e619 4a34 8b34 c233 eb10 0f35
1.6009582e-06 2.736607e-07 3.0441862e-07 1.6556629e-06 4.0196583e-06 7.382502e-07 1.7350034e-06 7.151249e-07
8.066254e-07 5.888408e-07 1.0012945e-07 6.0959644e-07 7.8252174e-07 7.0055324e-07 3.6629027e-07 2.066293e-06
4.3946383e-07 8.024825e-08 6.974527e-08 7.2873223e-07 7.015915e-07 2.0089209e-07 3.4918503e-07 1.7103113e-07
3.7841914e-07 1.3141927e-07 9.371054e-08 1.3102614e-07 2.1712245e-07 1.0866983e-07 8.638564e-08 5.8082225e-07
4.1419761e-07 5.281638e-08 7.7023834e-08 2.787038e-07 6.779804e-07 2.0395693e-07 5.4321976e-07 1.9989629e-07
3.7288783e-07 2.2321441e-07 2.1737835e-08 1.9841745e-07 2.1810582e-07 1.4864825e-07 9.13507e-08 1.9910858e-07
4.8008565e-07 3.925845e-08 4.931606e-08 2.9753264e-07 4.7264166e-07 1.4035429e-07 1.9787468e-07 3.6327893e-07
1.0798911e-07 9.111533e-08 4.196904e-08 1.0941747e-07 2.4804092e-07 1.13936125e-07 9.28531e-08 2.124206e-07
1.0057656e-07 9.631101e-09 1.5423888e-08 6.749203e-08 8.943279e-08 3.879917e-08 7.366081e-08 3.043521e-08
4.094614e-08 2.9437077e-08 7.518795e-09 2.8944518e-08 3.5347234e-08 2.5380498e-08 1.4198467e-08 4.042376e-08
5.0874255e-06 1.1961516e-06 9.460069e-07 4.285736e-06 7.91313e-06 5.3498593e-06 6.0563625e-06 2.152672e-06
1.5777917e-06 4.777444e-06 3.0524936e-07 2.0807718e-06 4.219676e-06 2.0106525e-06 7.203219e-07 3.393475e-06
4.8322022e-08 7.076722e-09 9.655663e-09 5.6636964e-08 7.6994574e-08 3.794114e-08 3.4750315e-08 1.9744215e-08
2.991487e-08 2.2875922e-08 3.9267585e-09 2.0955314e-08 4.0330427e-08 1.8409903e-08 1.3976303e-08 3.7421e-08
8.7463775e-07 1.3757992e-07 2.4011402e-07 1.122226e-06 1.2181399e-06 6.201034e-07 1.1170388e-06 4.4161274e-07
7.1842595e-07 5.596205e-07 6.2966414e-08 5.328773e-07 6.911299e-07 5.0200646e-07 2.2552545e-07 7.350587e-07
1.1776959e-07 1.8738847e-08 1.8944672e-08 1.3434996e-07 1.2454782e-07 6.1924844e-08 7.388145e-08 5.818434e-08
7.844637e-08 5.108794e-08 1.41693155e-08 4.6955723e-08 7.3338434e-08 4.0349196e-08 2.6341079e-08 1.12144e-07
5.175844e-07 6.535415e-08 8.246132e-08 5.781657e-07 6.383744e-07 2.983973e-07 3.0871198e-07 2.2604137e-07
2.0834419e-07 2.268912e-07 5.4796143e-08 2.0274872e-07 3.507591e-07 1.5384127e-07 1.04412656e-07 4.1190762e-07
1.0887934e-06 7.0790186e-08 1.2921592e-07 4.618299e-07 1.2261479e-06 4.612164e-07 6.529096e-07 3.8244457e-07
3.3106562e-07 2.3559352e-07 5.7176067e-08 2.2777199e-07 3.382922e-07 2.011573e-07 7.900429e-08 6.712245e-07
1.9268276e-05 1.4847265e-06 1.1502973e-06 1.3882831e-05 9.309651e-06 3.7938573e-06 1.0991229e-05 8.743568e-06
3.355586e-06 2.6285932e-06 1.8011696e-06 2.5299623e-06 4.509532e-06 2.1984765e-06 1.0207389e-06 1.0960953e-05
3.6650286e-07 4.5843738e-08 7.8623906e-08 3.717393e-07 4.5923665e-07 2.948638e-07 2.965774e-07 1.8404661e-07
1.881125e-07 1.6848898e-07 2.9274657e-08 1.6888985e-07 2.7143085e-07 1.1473856e-07 5.0403067e-08 3.0108373e-07
1.6953628e-07 1.6497937e-08 2.5441672e-08 1.091709e-07 1.45031e-07 6.951915e-08 1.0685147e-07 8.593679e-08
7.015794e-08 6.010447e-08 1.12662875e-08 4.8292012e-08 6.786691e-08 4.2410505e-08 2.0501155e-08 1.0632559e-07
1.0879588e-06 1.3887563e-07 2.0622578e-07 8.062985e-07 2.0580883e-06 1.0290462e-06 1.5858534e-06 9.721277e-07
7.8480866e-07 6.701781e-07 1.1727204e-07 8.170343e-07 8.393069e-07 2.7125495e-07 1.6579948e-07 1.6943043e-06
5.457849e-07 7.195258e-08 7.928935e-08 3.3863842e-07 7.4185755e-07 2.955548e-07 4.6239523e-07 2.6031663e-07
3.0446625e-07 1.8057388e-07 4.4951072e-08 2.4235933e-07 3.4774575e-07 1.8822138e-07 9.0433865e-08 5.329627e-07

exp_avg f4 [48]
00000000: 5eda 8836 dd70 ceb8 c6d5 2837 f02c 15b6
00000010: fcd5 24b8 c732 25b9 08d1 c7b7 18aa 1db7
00000020: b94e 00b8 a608 4f38 d6a5 2eb9 a095 0739
00000030: 8c1a 87b7 60b1 6237 617a 1239 db6a 26b9
00000040: a4a5 492f 2374 08ae 6a72 342e c0fd 272e
00000050: 715c f3ad f08f 8a2f 306d 642d 33c9 99af
00000060: 5086 0e2e 70ff 58ae e63b b9ae 1c25 b7af
00000070: 9758 d0ad b7d2 272e f6ab 98ad f118 a8ae
00000080: 7401 3438 c835 9f38 47c1 89ba bc1d 56b9
00000090: 7f4b 05ba c1fd 4d38 3fc0 95b7 e830 b439
000000a0: fed1 6339 7717 45b9 5e82 8135 3065 a635
000000b0: ba5e 48b9 5741 9e3a bd37 2cba 3a13 9a39
4.078537e-06 -9.843868e-05 1.0063353e-05 -2.2228887e-06 -3.9299935e-05 -0.00015754542 -2.3819986e-05 -9.397532e-06
-3.0590894e-05 4.93607e-05 -0.00016655712 0.00012930343 -1.6105616e-05 1.3511948e-05 0.00013969235 -0.000158708
1.8339691e-10 -3.102597e-11 4.102888e-11 3.819678e-11 -2.7666954e-11 2.5204328e-10 1.2984544e-11 -2.7973499e-10
3.2406355e-11 -4.9339588e-11 -8.423466e-11 -3.3313874e-10 -2.3686204e-11 3.8158556e-11 -1.7356765e-11 -7.644186e-11
4.2916698e-05 7.591728e-05 -0.0010509872 -0.00020419707 -0.0005084797 4.9112135e-05 -1.7851706e-05 0.00034368713
0.00021726635 -0.00018796125 9.649191e-07 1.2397413e-06 -0.00019108775 0.0012073916 -0.0006569585 0.00029387494

exp_avg_sq f4 [48]
00000000: a1ca 4635 7f54 4734 4a64 9834 ba37 1434
00000010: 45b9 de32 3fd3 c435 e786 ed32 c2ae f034
00000020: 3409 8a33 45e8 cb34 bc77 d734 9f1f d536
00000030: 60f2 5f34 131b a633 9a7f 5735 4f32 1835
00000040: ca33 8b1f ce71 ce1e 2b95 341f 68e5 c71e
00000050: 779a 9e1d 7d44 4320 ed8b 671d 1064 4c20
00000060: 8dc2 2d1e d57a 131f ded6 341f 834c 9220
00000070: 4946 3c1e 48b3 d41d 7ade d91e 26fe 821f
00000080: 4c2b bd36 8c34 a836 7c5f 1838 4886 2236
00000090: 4a1f 8537 084e a035 6898 9836 6e7f e036
000000a0: dca4 3f37 11f5 c736 e65e e533 49f2 2736
000000b0: 50fe 8c36 5383 f037 8f18 4e38 bf1b 0d37
7.405561e-07 1.8564059e-07 2.8385176e-07 1.3803847e-07 2.5928452e-08 1.4664619e-06 2.7651778e-08 4.4830637e-07
6.4278e-08 3.7980695e-07 4.013399e-07 6.351576e-06 2.0856669e-07 7.734902e-08 8.0279426e-07 5.669762e-07
5.895447e-20 2.1858167e-20 3.823987e-20 2.1164825e-20 4.1981965e-21 1.6539803e-19 3.0644935e-21 1.731258e-19
9.198776e-21 3.1230065e-20 3.8294217e-20 2.4783993e-19 9.967172e-21 5.6301305e-21 2.3067783e-20 5.5477595e-20
5.6376794e-06 5.0129074e-06 3.632855e-05 2.4218043e-06 1.5869406e-05 1.1943639e-06 4.5476954e-06 6.690555e-06
1.14228715e-05 5.9591916e-06 1.06809054e-07 2.5025968e-06 4.201931e-06 2.8671382e-05 4.91371e-05 8.410715e-06
