models/fmnist_gen.ckpt (torch_old, 523292 bytes, 304 tensors)

exp_avg f4 [16]
6.739466e-06 -2.658623e-06 -1.028604e-05 1.8795534e-05 -8.158047e-06 -8.793173e-06 2.0160807e-05 -1.0250753e-06
1.0247651e-05 -4.957574e-06 -1.199585e-05 -7.4122554e-06 -7.180761e-07 1.4979364e-05 -7.706866e-06 -7.2112416e-06
00000000: 9223 e236 cc6a 32b6 3592 2cb7 1aab 9d37
00000010: 8cde 08b7 6486 13b7 011f a937 5295 89b5
00000020: 53ed 2b37 3d59 a6b6 c941 49b7 cab6 f8b6
00000030: d0c1 40b5 e14f 7b37 bd4c 01b7 18f8 f1b6

exp_avg_sq f4 [16]
8.930628e-09 3.3440415e-08 1.6005584e-09 1.0365333e-08 3.5994843e-09 2.0922424e-09 3.047875e-08 8.758085e-10
6.338795e-09 7.663068e-09 1.2216317e-08 6.7727965e-09 4.942597e-09 2.1115596e-08 4.0338217e-09 1.6818776e-08
00000000: 516d 1932 20a0 0f33 a4fa db30 3713 3232
00000010: cc5a 7731 1ec7 0f31 bde7 0233 8bbd 7030
00000020: a1cc d931 88a6 0332 eedf 5132 26b6 e831
00000030: 8bd3 a931 b061 b532 df99 8a31 e178 9032

exp_avg f4 [16, 16]
-5.683311e-05 5.5447563e-05 2.084696e-05 -0.00019183285 4.781575e-05 -2.4158666e-05 0.00016106038 -4.527865e-05
-4.0629497e-05 0.00015707748 -0.00016814945 -0.00015841288 -5.5223118e-05 0.00011510564 0.00028713627 -0.00010397195
4.498264e-05 3.330513e-06 4.091653e-05 1.270066e-05 -2.4677993e-05 -4.5058528e-06 -3.09428e-05 1.8425506e-05
-2.3810075e-05 3.3091223e-05 -0.000110631496 3.1413143e-05 -1.9483467e-05 1.2186788e-05 -7.235942e-06 2.4240664e-05
-8.993509e-05 2.631925e-05 -5.1992738e-05 1.4961368e-05 6.6465465e-05 1.2749699e-05 6.7855966e-05 -2.2571834e-05
1.8601979e-05 -0.00012414939 0.0002420559 5.8569083e-05 2.0514572e-05 -0.00010026769 -9.492395e-05 -4.4252563e-05
-2.3121342e-05 -2.971937e-05 1.644358e-05 4.545983e-05 -6.6695525e-06 -4.549499e-06 7.0767004e-07 2.0629152e-05
5.4114635e-06 -1.2937021e-05 -6.765092e-05 0.00010997716 -1.5272071e-05 -3.60605e-05 1.7377002e-06 -4.38637e-06
1.2400689e-05 6.776624e-06 -2.099292e-05 -2.9967514e-05 3.6959667e-05 2.1096452e-05 -4.5704887e-06 1.1656671e-05
-3.89026e-05 -2.9826937e-05 0.00010736823 4.0231578e-05 -3.117761e-05 -3.605201e-05 3.1315318e-05 -7.631514e-05
0.00024175379 -5.3731587e-06 4.3717313e-07 1.9623805e-05 1.8861001e-05 -1.4914887e-05 -9.551196e-05 1.5791293e-05
-3.8063456e-05 4.1973715e-05 1.2514337e-05 -0.00014496304 -3.498634e-05 1.8070621e-05 -3.492969e-05 -2.8304274e-07
0.00020100002 1.0464959e-05 1.4446927e-05 -3.9569713e-05 -3.9226492e-05 -4.84143e-05 -3.7509628e-05 -3.8113318e-05
-7.654805e-05 -1.1521108e-05 0.00018578253 -0.00012060999 5.794576e-05 -2.3080333e-05 -2.7675327e-05 -7.3719134e-06
-5.8216658e-05 -4.4857083e-05 -3.3868786e-05 2.3512528e-05 4.5117713e-06 6.846121e-06 6.1860905e-05 -2.981034e-05
2.4469691e-05 -0.00011094089 5.98056e-05 5.8549696e-05 6.683739e-05 2.3036322e-05 -0.00010510007 5.336361e-05
-0.00017338298 -7.517239e-05 3.3353466e-05 -1.0548468e-05 -1.5860971e-05 -2.7321873e-06 -0.0001361377 -2.97444e-06
7.021602e-05 8.008642e-05 -0.00015011332 7.398776e-05 6.6902794e-05 0.00014034791 2.932019e-05 7.270791e-05
-0.00021246925 -0.00018245897 3.5081634e-05 -3.89293e-07 -1.6863947e-05 2.9987628e-05 -0.00038023593 4.1146028e-05
6.701037e-05 0.00013027924 3.017575e-05 4.3307687e-06 5.7360387e-05 0.00024988898 8.511578e-05 6.204061e-05
0.00018050743 -6.41993e-05 3.1175518e-05 2.6344233e-05 -5.4228363e-05 -1.6088099e-05 4.7562116e-05 5.4015836e-06
-3.3962235e-05 4.2325435e-05 -0.00019936798 2.2269185e-05 -3.83035e-05 1.5340383e-05 -2.5711144e-05 6.0934624e-05
0.00012657912 -2.7532025e-05 3.375396e-05 0.00010529937 -1.6526172e-05 -2.112268e-05 3.581802e-05 -1.4826883e-05
3.4743505e-05 -6.986401e-05 -0.00020493862 -6.889558e-06 -2.6942593e-05 -2.652027e-06 -5.0570387e-05 0.00010567087
-5.5089014e-05 4.808729e-05 6.43938e-05 -6.197639e-05 -3.2280932e-05 -1.4261611e-05 2.6369291e-05 8.251448e-06
3.0653503e-06 -3.010623e-05 -6.7617616e-06 -1.959925e-05 6.113332e-05 -8.261435e-05 3.4141074e-05 5.7247853e-05
-1.1966981e-05 5.129145e-05 4.470756e-06 -9.116359e-05 -1.9970876e-05 -5.6286317e-06 6.8328605e-05 7.3598694e-06
2.9968105e-05 -1.8664912e-05 7.872443e-05 -0.00012540387 5.3717937e-05 -3.1938802e-05 3.6001624e-05 -2.5124698e-05
9.885669e-05 -8.7741115e-05 -6.272438e-05 -2.6726082e-05 3.3515527e-05 -8.461924e-06 0.00011937061 -2.3773531e-05
-1.5784497e-05 3.0795207e-05 -5.19532e-05 -9.375446e-05 3.3527213e-05 0.00010087266 -5.072807e-05 4.709497e-06
5.0163115e-05 -8.523296e-06 -6.4314313e-06 -2.1941481e-05 -1.4779449e-05 1.30852395e-05 4.5736604e-05 -1.0127222e-05
-5.582151e-06 -6.5655126e-07 2.6867057e-05 5.6137615e-06 -7.0588485e-06 -9.506505e-06 -1.6278813e-05 -4.0580017e-05
00000000: 1660 6eb8 5e90 6838 81e0 ae37 bd26 49b9
00000010: c58d 4838 57a8 cab7 51e2 2839 95e9 3db8
00000020: 9769 2ab8 2ab5 2439 4651 30b9 a21b 26b9
00000030: 5f9f 67b8 df64 f138 c78a 9639 840b dab8
00000040: beab 3c38 c781 5f36 ca9d 2b38 eb14 5537
00000050: 9603 cfb7 fb30 97b6 94c8 01b8 7990 9a37
00000060: bfbb c7b7 6ecb 0a38 d502 e8b8 9bc1 0338
00000070: 6d70 a3b7 db75 4c37 45cc f2b6 6e58 cb37
00000080: 899b bcb8 29c8 dc37 c712 5ab8 9602 7b37
00000090: 6063 8b38 8ae7 5537 e54d 8e38 a558 bdb7
000000a0: 720b 9c37 192e 02b9 63d0 7d39 13a8 7538
000000b0: b516 ac37 ce46 d2b8 e811 c7b8 d49b 39b8
000000c0: b4f4 c1b7 dc4d f9b7 52f0 8937 1fac 3e38
000000d0: 05cb dfb6 e6a7 98b6 b7f6 3d35 c40c ad37
000000e0: 1e94 b536 150c 59b7 d0df 8db8 8aa3 e638
000000f0: 861c 80b7 ab3f 17b8 ed3a e935 a22e 93b6
00000100: 8e0c 5037 c262 e336 f419 b0b7 bf62 fbb7
00000110: 2405 1b38 49f8 b037 335c 99b6 0591 4337
00000120: 592b 23b8 dc34 fab7 e12a e138 54be 2838
00000130: b4c4 02b8 8d36 17b8 9158 0338 610b a0b8
00000140: 4a7f 7d39 154b b4b6 9eb4 ea34 cd9d a437
00000150: b137 9e37 f43a 7ab7 984d c8b8 8b77 8437
00000160: 53a6 1fb8 ef0c 3038 abf4 5137 3801 18b9
00000170: 4cbe 12b8 5d96 9737 7881 12b8 19f5 97b4
00000180: 88c3 5239 a892 2f37 1461 7237 a8f7 25b8
00000190: 2087 24b8 7510 4bb8 a853 1db8 dddb 1fb8
000001a0: 6c88 a0b8 c84a 41b7 9ece 4239 ffef fcb8
000001b0: c90a 7338 a39c c1b7 5028 e8b7 415c f7b6
000001c0: a92d 74b8 ed24 3cb8 550e 0eb8 c53c c537
000001d0: d263 9736 bbb7 e536 52bb 8138 3811 fab7
000001e0: 4344 cd37 f0a8 e8b8 c6d7 7a38 4293 7538
000001f0: 0d2b 8c38 203e c137 2c69 dcb8 bdd2 5f38
00000200: 24ce 35b9 dfa5 9db8 03e5 0b38 53f9 30b7
00000210: 2d0d 85b7 9f5a 37b6 30c0 0eb9 7d9c 47b6
00000220: f040 9338 12f4 a738 bd67 1db9 e029 9b38
00000230: 2a4e 8c38 5b2a 1339 a1f4 f537 c37a 9838
00000240: 48ca 5eb9 7552 3fb9 9e24 1338 0600 d1b4
00000250: 0d77 8db7 f18d fb37 675a c7b9 3694 2c38
00000260: eb87 8c38 919b 0839 ee21 fd37 0551 9136
00000270: 3f96 7038 8803 8339 3080 b238 cd1b 8238
00000280: 9846 3d39 bda2 86b8 75c2 0238 cffd dc37
00000290: 4373 63b8 eef4 86b7 6f7d 4738 403f b536
000002a0: ac72 0eb8 9786 3138 6f0d 51b9 b6ce ba37
000002b0: 12a8 20b8 39af 8037 43ae d7b7 0e94 7f38
000002c0: 53ba 0439 93f4 e6b7 0a93 0d38 2bd4 dc38
000002d0: afa1 8ab7 9c30 b1b7 4e3b 1638 fac0 78b7
000002e0: 8eb9 1138 f483 92b8 cbe4 56b9 da2c e7b6
000002f0: c702 e2b7 7af9 31b6 8a1b 54b8 9e9b dd38
00000300: 610f 67b8 56b1 4938 280b 8738 52f9 81b8
00000310: 6365 07b8 2745 6fb7 9f33 dd37 b36f 0a37
00000320: 51b6 4d36 a38c fcb7 17e3 e2b6 1269 a4b7
00000330: b434 8038 3e41 adb8 b332 0f38 6a1d 7038
00000340: cbc5 48b7 c621 5738 8003 9636 142f bfb8
00000350: 2187 a7b7 94dd bcb6 a44b 8f38 ccf4 f636
00000360: 0464 fb37 9892 9cb7 db18 a538 d87e 03b9
00000370: 324f 6138 07f6 05b8 7300 1738 e1c2 d2b7
00000380: 4851 cf38 a701 b8b8 e58a 83b8 d331 e0b7
00000390: 0693 0c38 b0f7 0db7 9c56 fa38 456d c7b7
000003a0: f368 84b7 1a2a 0138 53e8 59b8 0b9e c4b8
000003b0: 929f 0c38 998b d338 dac4 54b8 4506 9e36
000003c0: 3c66 5238 47ff 0eb7 93cd d7b6 f90e b8b7
000003d0: 40f5 77b7 ad88 5b37 4ed5 3f38 16e8 29b7
000003e0: 504e bbb6 dc3d 30b5 9160 e137 d85d bc36
000003f0: 0cdb ecb6 217e 1fb7 7c8e 88b7 7634 2ab8

exp_avg_sq f4 [16, 16]
9.651143e-07 1.8687418e-06 8.321184e-07 9.821463e-07 6.19607e-07 2.9990355e-07 2.0616405e-06 2.1771099e-07
3.7757383e-07 1.1982137e-06 8.484059e-06 1.1066667e-06 7.3301624e-07 1.2305787e-06 1.0867466e-06 1.6969657e-06
1.1160057e-07 7.3607644e-08 2.8598036e-08 6.553978e-08 3.7133873e-08 1.1866954e-08 1.1279999e-07 9.746008e-09
2.829443e-08 6.459114e-08 7.955762e-07 1.2032002e-07 9.230843e-08 1.2086112e-07 4.2661494e-08 6.846762e-08
6.2717845e-08 6.788725e-08 2.4104208e-08 1.153043e-07 3.911002e-08 1.0254785e-08 2.4531292e-07 1.2548691e-08
1.8644483e-08 6.16127e-08 8.5641966e-07 5.1380863e-07 1.6687494e-07 2.921352e-07 4.2630173e-08 7.162359e-08
2.7567995e-07 9.7090286e-08 2.4168779e-08 1.3995694e-07 4.1795005e-08 1.6458449e-08 2.3747785e-07 1.6553072e-08
1.1432665e-08 6.7573474e-08 9.835748e-07 9.936866e-07 1.6633146e-07 2.3240392e-07 5.79472e-08 6.6443626e-08
7.0438546e-07 1.3173268e-07 2.5674726e-08 1.2453218e-07 4.596297e-08 2.6556382e-08 1.2342474e-07 2.0468141e-08
1.5298326e-08 7.2986616e-08 9.704273e-07 1.1414986e-06 1.0681869e-07 1.174033e-07 7.641051e-08 7.57502e-08
1.4135381e-06 2.0043966e-07 2.782609e-08 1.0821257e-07 4.3442455e-08 3.999607e-08 7.287716e-08 2.612887e-08
4.4441634e-08 8.0615536e-08 1.0688142e-06 1.343767e-06 4.814292e-08 7.69016e-08 1.112098e-07 9.50325e-08
1.7076104e-06 1.932955e-07 3.031783e-08 8.635381e-08 3.4661564e-08 3.9976605e-08 9.313137e-08 2.8748534e-08
9.4807625e-08 7.193408e-08 1.0621809e-06 1.0155131e-06 3.2694867e-08 8.7656026e-08 1.2701099e-07 1.0217835e-07
2.1404312e-06 2.5500347e-07 3.4826414e-08 7.876908e-08 3.6497322e-08 4.2620556e-08 2.836086e-07 2.9445532e-08
1.4488509e-07 8.146038e-08 9.438252e-07 7.6978574e-07 8.329233e-08 2.035116e-07 1.5060365e-07 1.1324639e-07
2.0736516e-06 3.4215188e-07 3.6757463e-08 6.697269e-08 3.9488942e-08 4.1674152e-08 7.748054e-07 2.462056e-08
1.3228109e-07 1.2327288e-07 7.299466e-07 3.865711e-07 1.3258158e-07 5.070317e-07 1.7650332e-07 1.4170955e-07
1.5568547e-06 4.263177e-07 3.347892e-08 5.6735058e-08 4.6689173e-08 3.423755e-08 1.5840772e-06 1.9444462e-08
9.065254e-08 2.046744e-07 6.1445115e-07 9.556116e-08 1.6810935e-07 9.857117e-07 1.7927289e-07 1.6418808e-07
4.2152394e-07 3.2725453e-07 4.586913e-08 6.3726816e-08 5.7346558e-08 3.245987e-08 1.991701e-06 1.4795735e-08
3.36502e-08 2.4555143e-07 9.754807e-07 1.8583268e-07 1.2466027e-07 1.4255011e-06 1.2625067e-07 1.6309231e-07
2.9208334e-07 1.6057992e-07 6.90615e-08 9.810547e-08 8.054465e-08 7.5354116e-08 1.836606e-06 1.3587497e-08
4.2874753e-08 2.672265e-07 1.6587022e-06 8.8330626e-07 1.10824324e-07 1.6721848e-06 6.9481196e-08 1.7353507e-07
1.5843293e-06 1.2067024e-07 7.2885214e-08 1.8498662e-07 1.3997997e-07 1.11461645e-07 9.804838e-07 1.8076888e-08
6.541862e-08 3.3026262e-07 2.1523792e-06 2.0417936e-06 1.521915e-07 9.214073e-07 1.3620094e-07 2.4522572e-07
3.314055e-06 2.3254898e-07 6.504313e-08 2.9396847e-07 1.5722473e-07 1.05186665e-07 1.608339e-07 1.755093e-08
5.31425e-08 2.9134418e-07 2.1146961e-06 2.228455e-06 1.4409507e-07 1.8876852e-07 3.0899696e-07 3.406941e-07
5.7514734e-07 8.293444e-08 3.1520255e-08 1.7273915e-07 1.0663396e-07 2.9162335e-08 1.4931211e-07 8.271945e-09
1.4061211e-08 1.09596584e-07 1.0516587e-06 3.7353442e-07 1.1308244e-07 2.6339305e-07 1.0519886e-07 1.4997667e-07
5.2880633e-08 2.1679178e-08 1.0145114e-08 3.790133e-08 2.8733025e-08 7.1556925e-09 7.077707e-08 3.5289165e-09
7.111758e-09 4.2798856e-08 4.162732e-07 3.8811528e-08 2.215428e-08 9.437561e-08 2.7691009e-08 5.2895558e-08
00000000: 1389 8135 7bd1 fa35 be5e 5f35 4ad2 8335
00000010: 1253 2635 6e02 a134 b75a 0a36 f1c3 6934
00000020: 5ab5 ca34 4fd2 a035 c256 0e37 c788 9435
00000030: 7ec4 4435 5d2a a535 54dc 9135 4cc3 e335
00000040: 10a9 ef33 3b12 9e33 bfa7 f532 e0be 8c33
00000050: 207d 1f33 6adf 4b32 733c f233 656f 2732
00000060: 1c0c f332 5bb5 8a33 958f 5535 5131 0134
00000070: 193b c633 0dc6 0134 cf3a 3733 7908 9333
00000080: 80af 8633 69c9 9133 b70d cf32 369d f733
00000090: ecf9 2733 052d 3032 8db3 8334 ba95 5732
000000a0: a727 a032 f14f 8433 b6e4 6535 a9ec 0935
000000b0: 3c2e 3334 c2d6 9c34 5f18 3733 7ccf 9933
000000c0: 2a01 9434 f37f d033 b59b cf32 1247 1634
000000d0: 1882 3333 8360 8d32 6afd 7e34 9730 8e32
000000e0: 6469 4432 e91c 9133 5f03 8435 d05e 8535
000000f0: d898 3234 b48a 7934 9fe1 7833 c5af 8e33
00000100: 0015 3d35 6772 0d34 528b dc32 25b7 0534
00000110: d268 4533 1a1e e432 bc86 0434 ebd1 af32
00000120: 6069 8332 d1bc 9c33 a13f 8235 9835 9935
00000130: 3264 e533 261f fc33 1f17 a433 1dac a233
00000140: cdb8 bd35 6f38 5734 3806 ef32 7d62 e833
00000150: 7c95 3a33 25c8 2b33 a480 9c33 fe71 e032
00000160: 18e0 3e33 dc1e ad33 2d74 8f35 7c5b b435
00000170: b3c5 4e33 1a25 a533 3cd2 ee33 ab14 cc33
00000180: 0c31 e535 aa8c 4f34 ce36 0233 8271 b933
00000190: cbde 1433 beb2 2b33 83ff c733 b2f2 f632
000001a0: 0b99 cb33 2e7a 9a33 4290 8e35 c44c 8835
000001b0: 636c 0c33 693d bc33 8460 0834 246d db33
000001c0: 54a4 0f36 69e7 8834 0c94 1533 c227 a933
000001d0: 3bc1 1c33 cc0d 3733 df42 9834 69ef fc32
000001e0: b691 1b34 51ef ae33 2d5b 7d35 46a3 4e35
000001f0: 71de b233 d884 5a34 9eb5 2134 dc31 f333
00000200: 1029 0b36 ffb0 b734 42df 1d33 a0d2 8f33
00000210: 8d9a 2933 37fd 3233 39fc 4f35 2f7d d332
00000220: 2609 0e34 fe5c 0434 8cf1 4335 ed89 cf34
00000230: bf5b 0e34 f41a 0835 dd84 3d34 d328 1834
00000240: 1ff5 d035 a9e0 e434 76ca 0f33 dbac 7333
00000250: 4a87 4833 960c 1333 7a9c d435 d306 a732
00000260: c3ac c233 78c4 5b34 c3f0 2435 4e37 cd33
00000270: 8c81 3434 cc4c 8435 287e 4034 ad4b 3034
00000280: cf4d e234 85b1 af34 a401 4533 30da 8833
00000290: 354d 7633 016a 0b33 2aa9 0536 5530 7e32
000002a0: c986 1033 55d4 8334 43ed 8235 4c89 4734
000002b0: 5bda 0534 d853 bf35 858f 0734 791e 2f34
000002c0: a1cf 9c34 df6b 2c34 f64e 9433 0dae d233
000002d0: e4f7 ac33 5dd2 a133 4d81 f635 726e 6932
000002e0: 4a25 3833 5577 8f34 93a0 de35 581c 6d35
000002f0: 51fe ed33 d56f e035 b135 9533 f554 3a34
00000300: 24a5 d435 9591 0134 1285 9c33 bca0 4634
00000310: 674d 1634 b05c ef33 2b99 8335 7f47 9b32
00000320: 447c 8c33 f34e b134 9871 1036 bf05 0936
00000330: 156a 2334 a156 7735 a13e 1234 91a7 8334
00000340: 0867 5e36 94b2 7934 d7ad 8b33 b8d2 9d34
00000350: 9bd1 2834 fbe2 e133 b0b1 2c34 e7c2 9632
00000360: cc3e 6433 0a6a 9c34 34ea 0d36 918c 1536
00000370: 8db8 1a34 4cb0 4a34 38e4 a534 a4e8 b634
00000380: d363 1a35 b119 b233 e360 0733 2d7a 3934
00000390: a4fe e433 a780 fa32 9a52 2034 661c 0e32
000003a0: dc91 7132 5c5b eb33 b826 8d35 2e8a c834
000003b0: bbd7 f233 7768 8d34 afe9 e133 4609 2134
000003c0: df1e 6333 0439 ba32 af4a 2e32 f4c8 2233
000003d0: 97d0 f632 23de f531 1bfe 9733 5b81 7231
000003e0: af5b f431 d7d1 3733 277c df34 bab1 2633
000003f0: c74d be32 8aab ca33 2cdd ed32 482f 6333

exp_avg f4 [784, 16]
6.739466e-06 -2.658623e-06 -1.028604e-05 1.8795534e-05 -8.158047e-06 -8.793173e-06 2.0160807e-05 -1.0250753e-06
1.0247651e-05 -4.957574e-06 -1.199585e-05 -7.4122554e-06 -7.180761e-07 1.4979364e-05 -7.706866e-06 -7.2112416e-06
1.4556425e-06 6.50142e-06 1.8801322e-06 -4.103679e-06 7.3890096e-06 6.5250397e-06 -8.869148e-06 -1.8078393e-06
2.8807938e-06 5.6900767e-06 -1.0951211e-05 8.1221935e-07 -4.1526337e-06 2.0697792e-06 1.7758227e-06 -7.0954247e-06
-1.6316319e-05 1.10375995e-05 2.5943818e-06 -6.761893e-06 5.5346513e-06 5.261825e-07 5.9954546e-06 -2.3979544e-06
1.0085837e-05 3.18206e-06 3.3100366e-06 -1.6049635e-05 1.6757787e-06 3.7188804e-06 1.7459396e-06 -7.881006e-06
-1.1992548e-05 1.0580317e-05 -2.3226517e-06 -1.2197241e-06 1.0440501e-05 -2.4943645e-06 -3.762742e-06 -2.4542844e-06
-3.7779276e-07 4.36165e-06 2.1724338e-05 -3.8324492e-06 -7.3377566e-07 -1.7055394e-05 6.10567e-06 -6.966753e-06
-1.8700735e-05 1.2209378e-05 -2.047411e-06 -4.9118094e-06 5.57726e-06 4.4477265e-06 -7.93641e-06 5.5456105e-08
4.447161e-06 2.168657e-06 1.298329e-05 -5.5441037e-06 1.417164e-06 -5.214772e-07 7.460577e-06 -1.1104718e-05
2.6490386e-06 -1.291346e-05 -2.8935565e-06 -5.8699643e-06 1.8116489e-07 -4.041147e-06 1.9246665e-05 4.963579e-07
6.1045415e-07 3.9598767e-06 -6.713638e-06 -6.2049508e-06 2.131678e-06 4.310766e-06 5.832398e-06 -7.8168387e-07
-2.8646218e-06 -4.014235e-06 -1.8521087e-06 4.2880156e-06 2.745262e-06 -1.2592659e-06 7.8296534e-07 -1.5852988e-08
-9.486135e-07 -9.118034e-06 8.737715e-06 3.9669344e-06 3.6061217e-06 -3.93272e-06 -4.7724607e-06 4.6508976e-06
-6.7920337e-06 3.6809126e-06 -4.2011375e-06 4.4803025e-07 4.6654428e-08 -2.5216517e-07 4.654615e-06 -3.0746694e-06
-4.6836894e-07 -1.0836087e-06 1.3350712e-05 -4.4546264e-06 4.3577297e-06 -6.3208245e-06 -4.7377976e-06 4.8465777e-06
-2.090588e-06 6.346244e-06 4.1594426e-06 2.9468401e-06 -4.097719e-07 1.3579667e-06 -4.79233e-07 -4.1568063e-07
-7.2556763e-06 -3.5272717e-06 1.2102839e-05 -1.171583e-06 3.496833e-06 -1.4523851e-05 -5.910239e-06 5.3737326e-06
-4.7040694e-06 -4.9478513e-06 -4.4392573e-06 -2.1723295e-06 5.21893e-07 -2.003854e-07 -3.930427e-06 3.839892e-06
-5.26955e-06 7.5412418e-06 7.275934e-06 1.1967521e-05 -2.1440853e-06 -5.1427414e-06 -8.9247254e-07 2.6966886e-06
3.0387637e-05 -2.8170454e-05 5.067885e-06 9.1521537e-07 -2.0243171e-05 -6.194825e-06 6.193074e-06 1.5637133e-05
-1.575451e-05 2.0771511e-05 -5.310867e-05 -1.8174483e-06 -9.598667e-06 3.068666e-05 1.3792246e-05 1.1436382e-05
3.129239e-05 -1.4337295e-05 1.22761485e-05 -5.774625e-06 -9.7319e-06 -2.443013e-06 6.81719e-06 9.486705e-06
-6.4136084e-06 -3.03228e-06 -2.7453825e-05 1.4824864e-06 2.8701365e-06 3.2754647e-06 -3.8472176e-06 5.5332484e-06
-2.7286399e-06 2.295742e-06 4.435196e-06 -1.5577813e-06 -2.0657854e-08 1.2011952e-06 6.2348536e-06 1.7584731e-06
-7.965753e-06 4.5720717e-06 -2.3864532e-05 -7.891401e-06 6.6314465e-06 9.029584e-06 1.1410664e-06 6.729133e-06
-1.7415601e-05 1.8896739e-05 3.4064835e-06 6.980309e-06 -1.1097567e-06 -2.4917997e-06 -6.4484066e-06 -4.499577e-06
-1.5615609e-06 -4.6501996e-06 -8.605605e-06 -2.893323e-06 1.4416448e-05 -6.7369024e-06 2.7960311e-06 9.916713e-06
-2.1411866e-05 -5.5751576e-07 6.2143104e-06 4.4287945e-06 1.8633374e-06 4.700896e-06 -1.5442982e-05 3.788777e-06
-1.374968e-06 -5.1591587e-06 6.4172323e-06 1.3148516e-05 8.778973e-06 2.4812152e-06 -7.676483e-06 -1.9907652e-07
-2.648755e-06 -6.977668e-07 -2.0213547e-06 4.1057738e-06 -1.4747405e-07 4.1359585e-06 -5.6245512e-06 2.126279e-06
4.9616383e-06 -1.1892355e-07 -1.338675e-06 6.2816266e-06 -2.8978804e-06 2.848159e-06 -4.771938e-06 -4.1921157e-06
00000000: 9223 e236 cc6a 32b6 3592 2cb7 1aab 9d37
00000010: 8cde 08b7 6486 13b7 011f a937 5295 89b5
00000020: 53ed 2b37 3d59 a6b6 c941 49b7 cab6 f8b6
00000030: d0c1 40b5 e14f 7b37 bd4c 01b7 18f8 f1b6
00000040: 7f5f c335 c626 da36 da58 fc35 56b2 89b6
00000050: 1cef f736 aaf1 da36 b3cc 14b7 e3a4 f2b5
00000060: a953 4136 63ed be36 18bb 37b7 4a07 5a35
00000070: da56 8bb6 89e6 0a36 ce58 ee35 3c15 eeb6
00000080: 07df 88b7 212e 3937 241b 2e36 38e4 e2b6
00000090: 4bb6 b936 fc3e 0d35 902c c936 8bec 20b6
000000a0: 5736 2937 608b 5536 ff21 5e36 54a2 86b7
000000b0: 51eb e035 e191 7936 0756 ea35 aa38 04b7
000000c0: 9a33 49b7 1e82 3137 dade 1bb6 67b5 a3b5
000000d0: 9c29 2f37 db64 27b6 6a83 7cb6 49b4 24b6
000000e0: 71d3 cab4 4a5a 9236 a93c b637 7d98 80b6
000000f0: aef8 44b5 2e12 8fb7 4edf cc36 f4c3 e9b6
00000100: 86df 9cb7 e1d6 4c37 4166 09b6 1fd0 a4b6
00000110: 4c24 bb36 ae3d 9536 9f26 05b7 a22e 6e33
00000120: d238 9536 3e89 1136 ced2 5937 7d07 bab6
00000130: 6235 be35 a4fb 0bb5 de55 fa36 674e 3ab7
00000140: 23c6 3136 e3a6 58b7 ec2e 42b6 9cf6 c4b6
00000150: 3a86 4234 3099 87b6 e673 a137 753d 0535
00000160: 17de 2335 15df 8436 b645 e1b6 1f34 d0b6
00000170: f30d 0f36 33a5 9036 ebb3 c336 e8d4 51b5
00000180: d43d 40b6 04b2 86b6 f895 f8b5 c6e1 8f36
00000190: 3e3b 3836 0c04 a9b5 f82c 5235 172d 88b2
000001a0: 39a4 7eb5 a8f9 18b7 3398 1237 b51b 8536
000001b0: b300 7236 cff5 83b6 2023 a0b6 e80e 9c36
000001c0: 20e7 e3b6 9905 7736 7ff7 8cb6 cf88 f034
000001d0: 1661 4833 5161 87b4 d72e 9c36 6b56 4eb6
000001e0: 2374 fbb4 8370 91b5 dffc 5f37 f378 95b6
000001f0: 9d38 9236 7817 d4b6 5ff9 9eb6 c99f a236
00000200: 074c 0cb6 d2f1 d436 5791 8b36 54c2 4536
00000210: 9ffe dbb4 6143 b635 a4a4 00b5 b62a dfb4
00000220: c975 f3b6 11b6 6cb6 4c0d 4b37 493f 9db5
00000230: 22ab 6a36 77ab 73b7 9150 c6b6 0350 b436
00000240: a6d7 9db6 b805 a6b6 eef4 94b6 56c8 11b6
00000250: 3718 0c35 8529 57b4 1ce2 83b6 6cd8 8036
00000260: 17d1 b0b6 c60a fd36 cc23 f436 1cc8 4837
00000270: 1be3 0fb6 d08f acb6 3f92 6fb5 c2f8 3436
00000280: f4e8 fe37 974f ecb7 cd0c aa36 1fad 7535
00000290: e1cf a9b7 24dd cfb6 1ace cf36 7d2c 8337
000002a0: 8d28 84b7 7b3e ae37 00c1 5eb8 0cef f3b5
000002b0: f609 21b7 8db5 0038 3f65 6737 e3de 3f37
000002c0: f33f 0338 378a 70b7 a8f5 4d37 a7c3 c1b6
000002d0: 3146 23b7 a5f2 23b6 37bf e436 1629 1f37
000002e0: 7a34 d7b6 2c7e 4bb6 a44c e6b7 d8f9 c635
000002f0: 929c 4036 0ed0 5b36 5917 81b6 3eaa b936
00000300: ad1d 37b6 8c10 1a36 0bd2 9436 f514 d1b5
00000310: 1a73 b1b2 c138 a135 fc34 d136 ad04 ec35
00000320: a6a4 05b7 cc69 9936 b130 c8b7 4f65 04b7
00000330: b183 de36 c57d 1737 be26 9935 d0ca e136
00000340: b817 92b7 7084 9e37 f19a 6436 6638 ea36
00000350: f3f2 94b5 cb38 27b6 645f d8b6 12fb 96b6
00000360: d396 d1b5 e908 9cb6 cb60 10b7 e92a 42b6
00000370: 2cde 7137 8d0d e2b6 73a3 3b36 f55f 2637
00000380: a29d b3b7 31a8 15b5 8584 d036 0e9b 9436
00000390: c917 fa35 64bc 9d36 8d8b 81b7 b142 7e36
000003a0: 8a8b b8b5 d61c adb6 9b53 d736 7298 5c37
000003b0: 6749 1337 f482 2636 3eca 00b7 bdc1 55b4
000003c0: 44c1 31b6 2b4e 3bb5 9ca6 07b6 54c4 8936
000003d0: 5c59 1eb4 9dc7 8a36 87ba bcb6 32b1 0e36
000003e0: 267c a636 ea62 ffb3 86ac b3b5 c3c6 d236
000003f0: 3579 42b6 0023 3f36 a31e a0b6 00aa 8cb6

exp_avg_sq f4 [784, 16]
8.930628e-09 3.3440415e-08 1.6005584e-09 1.0365333e-08 3.5994843e-09 2.0922424e-09 3.047875e-08 8.758085e-10
6.338795e-09 7.663068e-09 1.2216317e-08 6.7727965e-09 4.942597e-09 2.1115596e-08 4.0338217e-09 1.6818776e-08
7.909045e-09 4.064461e-09 1.7683967e-09 1.6188915e-09 1.5117971e-09 6.297106e-09 6.1753163e-09 8.718744e-10
2.1109783e-09 8.045663e-10 1.0237751e-08 2.408169e-09 6.45387e-10 2.9495477e-09 1.8246614e-09 8.669252e-10
2.786875e-09 4.265807e-09 2.472712e-09 1.6248489e-09 3.1032976e-10 4.2580922e-10 2.5322775e-09 4.214766e-10
1.096761e-09 8.086278e-10 4.4723616e-09 1.2018021e-09 3.2009792e-10 1.4859817e-09 6.2743666e-10 9.978075e-10
3.606127e-09 2.9139808e-09 4.4297707e-10 2.333925e-09 6.831319e-10 7.3905343e-10 1.95395e-09 2.7641658e-10
2.9674338e-10 9.2810437e-10 3.081598e-09 6.450499e-10 6.053264e-10 3.2690992e-09 1.7421005e-09 1.768506e-09
3.6367134e-09 1.558014e-09 1.1134964e-09 8.752338e-10 3.9182094e-10 3.0962435e-10 1.0921987e-09 4.0254158e-10
1.5623566e-09 7.567274e-10 4.113881e-09 3.113771e-09 4.2354734e-10 8.410288e-10 3.511102e-09 1.7913317e-09
3.2796348e-09 5.8899223e-09 1.5571234e-09 1.5858911e-09 9.266321e-10 6.443034e-10 5.315162e-09 5.43526e-10
1.7610091e-09 2.5877835e-09 8.106703e-09 1.7845055e-09 8.858846e-10 3.9915014e-09 8.982978e-10 1.1567145e-09
9.398179e-10 1.770234e-09 2.0069287e-10 8.1320506e-10 4.5570805e-10 1.5168075e-10 3.3915606e-09 1.8109568e-10
2.3053248e-10 1.0781399e-09 3.4379004e-09 2.521536e-10 2.5320462e-10 2.471361e-09 7.923098e-10 7.671286e-10
9.263881e-10 6.0203353e-10 2.886909e-10 3.60269e-10 4.4434773e-10 1.3579346e-10 6.656782e-10 1.8280215e-10
2.0077294e-10 7.4357487e-10 1.9607478e-09 4.9751203e-10 3.2677092e-10 1.1442813e-09 6.1438543e-10 7.750297e-10
7.662339e-10 8.827334e-10 3.0314973e-10 6.793266e-10 4.7484433e-10 1.8850543e-10 8.0054113e-10 8.155589e-11
2.2190501e-10 9.602306e-10 2.7861762e-09 4.7321e-10 3.6499365e-10 1.4009096e-09 4.3412277e-10 7.2252565e-10
1.7863621e-09 2.349021e-09 8.007983e-10 5.336191e-10 1.4558261e-09 3.72887e-10 9.521195e-10 3.442829e-10
5.789487e-10 2.670942e-09 6.978885e-09 8.0471674e-10 9.866109e-10 3.898419e-09 5.575617e-10 1.3998078e-09
5.858822e-09 5.516443e-09 1.0763395e-09 9.1780966e-10 3.4507117e-09 4.9952364e-10 1.8115807e-09 9.764005e-10
1.353841e-09 5.200634e-09 1.6203744e-08 1.3859426e-09 2.5809115e-09 9.268248e-09 1.0369862e-09 1.6922784e-09
1.3131569e-08 6.999057e-09 7.239412e-10 1.1254025e-09 4.471802e-09 7.2669193e-10 2.5080227e-09 2.3300184e-09
2.7420857e-09 8.025803e-09 3.166337e-08 1.5538174e-09 4.346006e-09 1.4010591e-08 2.4335067e-09 1.93642e-09
6.5860215e-09 3.3041352e-09 4.5544085e-10 1.1353295e-09 1.138434e-09 2.9187966e-10 1.8295409e-09 8.8892993e-10
1.222929e-09 4.0573136e-09 1.7752601e-08 1.2867208e-09 3.8378563e-09 6.980785e-09 1.9087465e-09 1.577123e-09
6.1461307e-09 2.9861267e-09 6.1121186e-10 1.4700012e-09 5.189658e-10 3.863371e-10 1.5439332e-09 5.6668376e-10
7.1223133e-10 2.7345854e-09 1.6145888e-08 1.578266e-09 3.6413792e-09 4.8245257e-09 1.7521498e-09 1.5969053e-09
1.8066809e-09 2.2599154e-09 1.9110997e-09 9.677419e-10 1.3974868e-09 1.0865916e-09 2.0194784e-09 4.9318866e-10
1.0585676e-09 9.485718e-10 4.1527746e-09 2.3839728e-09 1.3312148e-09 1.0551425e-09 1.7821202e-09 1.4546601e-09
1.3652905e-09 9.639424e-10 3.2815792e-10 6.790985e-10 3.4474457e-10 2.0063609e-10 7.9802903e-10 2.1555763e-10
5.837624e-10 3.068259e-10 1.9075652e-09 1.204682e-09 4.9526006e-10 5.8686056e-10 6.872876e-10 4.033623e-10
00000000: 516d 1932 20a0 0f33 a4fa db30 3713 3232
00000010: cc5a 7731 1ec7 0f31 bde7 0233 8bbd 7030
00000020: a1cc d931 88a6 0332 eedf 5132 26b6 e831
00000030: 8bd3 a931 b061 b532 df99 8a31 e178 9032
00000040: 59e0 0732 61a7 8b31 ed0b f330 ae7f de30
00000050: a2c7 cf30 ee5d d831 a82e d431 b5a8 6f30
00000060: b910 1131 5228 5d30 1be2 2f32 f57c 2531
00000070: 1367 3130 feb0 4a31 91c7 fa30 704c 6e30
00000080: 3983 3f31 6f92 9231 69ec 2931 4a51 df30
00000090: 089b aa2f 5217 ea2f 4c04 2e31 8fb5 e72f
000000a0: d9bc 9630 1f46 5e30 4fab 9931 a72c a530
000000b0: c7f9 af2f 553b cc30 ee77 2c30 3b23 8930
000000c0: a8cf 7731 4b3f 4831 7b87 f32f d862 2031
000000d0: 22c7 3b30 4326 4b30 4046 0631 2df6 972f
000000e0: eb22 a32f 8a1d 7f30 0cc4 5331 5a4f 3130
000000f0: 0f64 2630 9aa6 6031 b66e ef30 c60f f330
00000100: bde9 7931 bf21 d630 ac09 9930 1a95 7030
00000110: e567 d72f c137 aa2f 531c 9630 b14c dd2f
00000120: 89ba d630 f501 5030 145a 8d31 0afa 5531
00000130: fdd8 e82f 242e 6730 f647 7131 e232 f630
00000140: f25f 6131 4e60 ca31 6902 d630 95f6 d930
00000150: f0b5 7e30 d21a 3130 a9a0 b631 3e67 1530
00000160: 0008 f230 c5d4 3131 a845 0b32 b542 f530
00000170: 9682 7330 9e25 8931 17ec 7630 46fa 9e30
00000180: e72a 8130 924c f330 05aa 5c2f 3888 5f30
00000190: 3587 fa2f 56c6 262f f710 6931 e71d 472f
000001a0: 2079 7d2f ad2d 9430 2f40 6c31 779f 8a2f
000001b0: 6233 8b2f a4d4 2931 d8c9 5930 e0dd 5230
000001c0: c4a4 7e30 587c 2530 a2b5 9e2f 5b0f c62f
000001d0: 6248 f42f 764e 152f f0fa 3630 3bfe 482f
000001e0: 8fc0 5c2f 6e64 4c30 d7bd 0631 4cc1 0830
000001f0: eba4 b32f d244 9d30 88e1 2830 de09 5530
00000200: eb9e 5230 d7a4 7230 88a8 a62f 5cbb 3a30
00000210: 3386 0230 9043 4f2f 130d 5c30 e257 b32e
00000220: b5fc 732f 1cf9 8330 ee76 3f31 3213 0230
00000230: 4aa8 c82f 208a c030 59a9 ee2f 399b 4630
00000240: 0784 f530 6a6c 2131 2c1f 5c30 1bae 1230
00000250: 5416 c830 2eff cc2f badb 8230 8345 bd2f
00000260: e523 1f30 b58b 3731 ecca ef31 e832 5d30
00000270: 4999 8730 dbf2 8531 eb42 1930 5c63 c030
00000280: be4e c931 258b bd31 54ee 9330 1d49 7c30
00000290: 9021 6d31 da4e 0930 54fb f830 0a32 8630
000002a0: 0c12 ba30 43b1 b231 6930 8b32 857b be30
000002b0: e05b 3131 303a 1f32 b585 8e30 c195 e830
000002c0: 4099 6132 5b7c f031 d5fe 4630 95ac 9a30
000002d0: 63a6 9931 66c0 4730 9a59 2c31 1e1e 2031
000002e0: 486f 3c31 dbe1 0932 3efe 0733 178e d530
000002f0: e053 9531 3bb3 7032 b43a 2731 dc11 0531
00000300: 424b e231 f60e 6331 9a61 fa2f db09 9c30
00000310: 1677 9c30 6976 a02f 3f73 fb30 e258 7430
00000320: fd13 a830 8268 8b31 627e 9832 77d8 b030
00000330: 24de 8331 a2db ef31 062b 0331 15c2 d830
00000340: f02d d331 7f34 4d31 3602 2830 1209 ca30
00000350: f9a6 0e30 1d64 d42f 5232 d430 d3c4 1b30
00000360: d3c6 4330 56eb 3b31 2fb1 8a32 4cea d830
00000370: d23b 7a31 fac4 a531 4ad0 f030 1c7a db30
00000380: ef4e f830 da4c 1b31 6c54 0331 6401 8530
00000390: b211 c030 0b57 9530 0ac7 0a31 1191 0730
000003a0: 097d 9130 e75e 8230 31b0 8e31 4bd3 2331
000003b0: f5f5 b630 8704 9130 c8ee f430 4ded c730
000003c0: e4a4 bb30 b57b 8430 1f68 b42f 4fab 3a30
000003d0: 7c86 bd2f 0a9a 5c2f 4d5c 5b30 1402 6d2f
000003e0: a176 2030 e8ad a82f 3e16 0331 fb91 a530
000003f0: d422 0830 a450 2130 91eb 3c30 32c0 dd2f

exp_avg f4 [16]
0.00081969093 0.00065791496 0.00018207326 -1.9226036e-05 -9.9175835e-05 8.359799e-05 -0.00056917884 0.00010769899
-1.4868032e-05 6.411811e-06 0.0004086038 -3.0807816e-05 -0.0002632088 -0.00025745615 1.8734212e-05 -0.0005128148
00000000: 87e0 563a ed77 2c3a ebea 3e39 9947 a1b7
00000010: 9ffc cfb8 5451 af38 f234 15ba 74dc e138
00000020: b671 79b7 0925 d736 e039 d639 a437 01b8
00000030: 4aff 89b9 2efb 86b9 6a27 9d37 6b6e 06ba

exp_avg_sq f4 [16]
2.172054e-05 1.7676506e-05 1.6051016e-06 7.727701e-06 4.047896e-06 4.1787057e-06 1.5071484e-05 9.852548e-07
2.1921608e-06 4.004636e-06 2.4267152e-05 2.374557e-05 7.1452487e-06 9.453655e-06 3.241258e-06 7.4650548e-06
00000000: 8134 b637 0248 9437 df6e d735 39a6 0137
00000010: 29d3 8736 cf36 8c36 88db 7c37 193d 8435
00000020: 091d 1336 905f 8636 5091 cb37 3931 c737
00000030: 38c1 ef36 249b 1e37 6384 5936 557c fa36

exp_avg f4 [16]
0.0003207823 -0.00048108012 0.0002358892 -0.0002700909 -5.6125464e-07 -0.00012282234 -9.402425e-06 -5.9255955e-05
3.517242e-05 4.678813e-05 -0.00019079751 -0.0002481717 0.0002175808 0.00039894355 6.070892e-05 0.00016155034
00000000: ac2e a839 7b39 fcb9 0659 7739 fd9a 8db9
00000010: 20a9 16b5 dfc9 00b9 1cbf 1db7 9989 78b8
00000020: 1986 1338 5f3e 4438 d110 48b9 0b1d 82b9
00000030: 6726 6439 4c29 d139 b5a1 7e38 d765 2939

exp_avg_sq f4 [16]
8.5871376e-05 2.5205294e-05 2.6704458e-06 1.7035081e-05 3.8756357e-06 7.4881427e-06 3.295305e-05 1.6063252e-06
4.8432453e-06 4.3687955e-06 3.586765e-05 8.734007e-05 1.137632e-05 2.4212502e-05 8.755723e-06 3.7434343e-06
00000000: d815 b438 f56f d337 e935 3336 8fe6 8e37
00000010: 750b 8236 a842 fb36 1137 0a38 ea98 d735
00000020: 2983 a236 ab97 9236 9970 1638 582a b738
00000030: ecdc 3e37 f41b cb37 8be5 1237 b637 7b36

exp_avg f4 [16]
-0.001755713 0.0003832775 -0.00044030978 0.00062835705 -0.000117941985 -0.000322724 6.734465e-05 0.00013113448
8.0954036e-05 0.0003829141 0.00074407563 -0.0035106067 -0.0014251056 -0.00047164783 -0.0008711264 0.00030127497
00000000: f41f e6ba a3f2 c839 61d9 e6b9 54b8 243a
00000010: 9f57 f7b8 4833 a9b9 623b 8d38 2581 0939
00000020: dec5 a938 dcc1 c839 120e 433a 3512 66bb
00000030: 9cca baba 8047 f7b9 4e5c 64ba 71f4 9d39

exp_avg_sq f4 [16]
4.335495e-05 8.390084e-05 1.6954304e-05 2.6668335e-05 3.2599786e-05 1.7470256e-05 3.2415148e-05 6.879206e-06
1.2849815e-05 2.8622797e-05 7.1348295e-05 0.00015236762 6.0445047e-05 3.773692e-05 4.3700613e-05 2.2050193e-05
00000000: 06d8 3538 ecf3 af38 1739 8e37 d0b5 df37
00000010: c1bb 0838 178d 9237 80f5 0738 eed3 e636
00000020: 8995 5737 fd1a f037 d3a0 9538 dfc4 1f39
00000030: 6086 7d38 b647 1e38 2d4b 3738 6ef8 b837

exp_avg f4 [16]
0.00030164962 -0.0005744396 0.00031121846 -0.00034088708 -0.00023000244 -0.00030309786 6.154928e-06 -0.00085667736
0.00094364554 -2.6558893e-05 0.000508118 -0.00028040784 0.0017306954 -0.0008577678 -0.00015394232 1.413052e-05
00000000: ba26 9e39 fd95 16ba 092b a339 17b9 b2b9
00000010: cf2c 71b9 1be9 9eb9 6e86 ce36 a592 60ba
00000020: fb5e 773a caca deb7 3933 053a b403 93b9
00000030: 80d8 e23a d3db 60ba 946b 21b9 1f12 6d37

exp_avg_sq f4 [16]
4.373618e-05 0.0003194152 2.7980172e-05 0.00023170216 5.1544102e-05 5.5611017e-05 2.2505745e-05 5.6558947e-05
9.144335e-05 4.2757598e-05 8.821382e-05 4.950655e-05 5.9947328e-05 1.777622e-05 0.00012786692 2.3174813e-05
00000000: 5e71 3738 2f77 a739 f6b6 ea37 13f5 7239
00000010: 0f31 5838 e03f 6938 b8ca bc37 b539 6d38
00000020: 46c5 bf38 9f56 3338 6fff b838 41a5 4f38
00000030: f46f 7b38 241e 9537 0414 0639 8867 c237

exp_avg f4 [48, 16]
7.419078e-05 -1.07510405e-05 1.4118759e-05 3.872076e-05 1.7384835e-05 -1.1367732e-05 2.5177345e-05 -2.8591664e-06
-0.00010254997 4.7573853e-06 -4.2001102e-05 4.36733e-05 -4.2298358e-05 4.0007733e-05 7.949036e-06 -2.3745384e-05
-0.00032556706 -0.00025271397 -0.00012625192 -4.2333882e-05 0.00013963164 7.415201e-05 -0.0001312578 -2.5675929e-05
0.0002261246 -2.3644127e-06 -7.341538e-05 0.00017522891 -8.4911895e-05 0.00026552807 3.8319133e-05 -2.3255767e-05
5.8211244e-05 9.195254e-06 5.566934e-06 5.34607e-06 -5.296592e-06 4.723233e-06 4.4528088e-06 1.7341272e-05
-6.624302e-05 1.4838645e-05 -5.1771378e-05 3.487365e-05 -1.5570433e-05 1.28902e-05 1.4453609e-05 -3.7347978e-05
0.0005802949 -0.00022393488 -5.533591e-06 0.00019623835 -9.428403e-06 -1.7800818e-05 8.4559026e-05 4.7078884e-05
-0.00021707521 1.813729e-05 8.6966775e-06 -3.2911106e-05 -8.544792e-05 -1.761789e-07 -0.00011492103 -7.456604e-05
-5.3108684e-05 -3.7100457e-05 -2.8611523e-05 3.6389996e-05 2.5557896e-05 4.209659e-05 4.716274e-05 -7.2627354e-06
5.9290014e-05 -3.540746e-05 -1.6990261e-05 3.967591e-05 -0.00011973226 -2.4273835e-05 -1.6491089e-05 2.890778e-05
-2.5730858e-05 -2.8942648e-05 -4.0321206e-06 3.3371218e-06 -7.643706e-06 4.612099e-08 -4.736435e-06 1.7903281e-05
1.1329287e-05 2.6384187e-06 4.4116828e-06 1.6670747e-05 -1.3208297e-05 8.680149e-06 7.455556e-06 5.515756e-06
-8.5898284e-07 -1.0756473e-05 -1.0146499e-05 -5.2267883e-06 2.4794068e-05 9.898528e-06 3.28212e-06 -5.731611e-06
6.5221006e-06 -9.76008e-06 3.7528473e-05 1.4434948e-05 -2.1619238e-05 -2.3963756e-05 8.375779e-06 -2.6515188e-05
-8.427206e-06 -4.0521303e-05 1.009079e-05 3.3028937e-05 -8.404507e-07 -1.7994273e-05 -7.256241e-05 9.588038e-06
7.427555e-06 8.663402e-06 8.664626e-06 -7.0140435e-05 3.0419425e-05 8.31624e-05 -4.6619894e-05 5.9551578e-05
-1.739252e-05 -5.668813e-05 2.5447782e-05 3.1085816e-05 -3.874618e-06 -2.0784988e-05 -5.7044443e-05 2.3465562e-05
1.4504186e-06 -1.6505614e-05 -3.9086735e-06 5.0891795e-05 2.0422642e-05 -1.7044069e-05 -8.288599e-06 2.1712367e-05
-0.000107802 -0.00018341414 4.329514e-05 0.000110911846 1.199001e-05 -9.473876e-06 -5.221297e-05 -6.5206787e-06
7.463684e-05 -8.4950785e-05 -0.00012971817 0.00012716422 2.0513576e-06 2.4390252e-05 1.2175846e-05 5.8201338e-05
7.998657e-05 -5.6465073e-05 -2.5355055e-05 -5.3216677e-06 -1.8652656e-05 -1.7144881e-05 -8.995011e-06 1.556714e-05
-2.2163355e-05 3.072794e-05 -2.906179e-05 -3.1162726e-05 3.2705924e-05 0.000114077186 -2.9055727e-05 3.4511668e-05
-2.5878418e-05 -0.00016835394 2.1160582e-05 7.729731e-05 4.228137e-06 3.21848e-06 -0.00016423699 1.5899179e-05
6.253385e-05 3.0532692e-06 -2.549456e-05 6.63697e-05 -2.3379222e-05 8.194878e-05 2.3831342e-06 -6.7452725e-06
4.8967227e-05 -0.000114848786 1.6682028e-05 4.213292e-05 -4.007037e-05 -2.953431e-05 -2.0701624e-05 3.0303483e-05
2.9310995e-05 6.4412866e-06 -6.990599e-05 3.5455225e-05 4.5943193e-06 7.220149e-05 -4.1382053e-05 4.691261e-05
-1.5318374e-05 -1.4829306e-05 -3.917362e-06 -2.50111e-05 -5.81633e-06 -6.534107e-06 -6.630666e-05 1.24295075e-05
2.1471533e-05 3.4577784e-05 3.3495326e-05 -4.7943986e-06 4.197564e-05 -1.3348157e-05 -3.0040478e-06 8.938114e-06
-0.000120630335 -4.5900473e-05 1.9475217e-05 -8.128012e-06 3.1664288e-06 -9.325865e-06 -8.988356e-05 1.037978e-05
2.1766125e-05 4.4241242e-05 6.41879e-06 1.5530512e-05 2.0170673e-05 -4.366295e-06 7.161302e-05 1.1221177e-05
3.773487e-05 1.074323e-05 -1.7566244e-05 1.313053e-05 -1.1782387e-05 2.772695e-05 6.1143684e-05 1.518869e-05
-2.6510383e-05 3.5834983e-05 -6.2522915e-05 -2.2226744e-05 -6.149201e-05 -9.755195e-06 -7.787728e-06 9.027786e-06
00000000: df96 9b38 5e5f 34b7 9cdf 6c37 1968 2238
00000010: a6d5 9137 0ab8 3eb7 f033 d337 1be0 3fb6
00000020: 1910 d7b8 a1a1 9f36 572a 30b8 d92d 3738
00000030: 8469 31b8 facd 2738 da5c 0537 d330 c7b7
00000040: dfb0 aab9 b27e 84b9 7e62 04b9 a98f 31b8
00000050: 156a 1239 0f82 9b38 3fa2 09b9 a362 d7b7
00000060: dc1b 6d39 4dac 1eb6 95f6 99b8 a7bd 3739
00000070: ba12 b2b8 9336 8b39 dbb8 2038 6115 c3b7
00000080: d927 7438 5145 1a37 99cb ba36 6462 b336
00000090: 61b9 b1b6 437c 9e36 5669 9536 1978 9137
000000a0: f3eb 8ab8 7ff3 7837 1825 59b8 4c45 1238
000000b0: 409d 82b7 fd42 5837 c77d 7237 16a6 1cb8
000000c0: ee1e 183a 10d0 6ab9 2fad b9b6 55c5 4d39
000000d0: af2e 1eb7 f752 95b7 4855 b138 9176 4538
000000e0: af9e 63b9 8925 9837 f2e7 1137 080a 0ab8
000000f0: 8132 b3b8 b02b 3db4 c201 f1b8 5760 9cb8
00000100: 04c1 5eb8 509c 1bb8 c702 f0b7 76a1 1838
00000110: 2a65 d637 df90 3038 9bd0 4538 6cb2 f3b6
00000120: 2bae 7838 7882 14b8 4f86 8eb7 af69 2638
00000130: c518 fbb8 aa9f cbb7 5856 8ab7 fc7e f237
00000140: 99d8 d7b7 ddc9 f2b7 a74b 87b6 51f3 5f36
00000150: 783d 00b7 9116 4633 abed 9eb6 012f 9637
00000160: eb12 3e37 b00f 3136 1108 9436 28d8 8b37
00000170: 3499 5db7 f5a0 1137 bd2a fa36 fc13 b936
00000180: da94 66b5 b376 34b7 e23a 2ab7 c561 afb6
00000190: dbfc cf37 db11 2637 6442 5c36 2a52 c0b6
000001a0: 6bd8 da36 39bf 23b7 e467 1d38 a12d 7237
000001b0: f65a b5b7 c605 c9b7 b285 0c37 ef6c deb7
000001c0: 9362 0db7 6bf5 29b8 9d4b 2937 8d88 0a38
000001d0: 559b 61b5 68f2 96b7 a62c 98b8 4fdc 2037
000001e0: 363a f936 0759 1137 495e 1137 5c18 93b8
000001f0: 382d ff37 7967 ae38 bb89 43b8 05c7 7938
00000200: 27e6 91b7 6bc4 6db8 b278 d537 2462 0238
00000210: b702 82b6 6c5b aeb7 0143 6fb8 e9d7 c437
00000220: 01ac c235 8975 8ab7 4027 83b6 a674 5538
00000230: 4a51 ab37 dcf9 8eb7 430f 0bb7 f422 b637
00000240: c213 e2b8 dc52 40b9 cd97 3538 5899 e838
00000250: b328 4937 fdf1 1eb7 40ff 5ab8 34cc dab6
00000260: 5986 9c38 9b27 b2b8 f504 08b9 6357 0539
00000270: 0eaa 0936 ab99 cc37 dc46 4c37 361d 7438
00000280: 76be a738 e9d4 6cb8 91b1 d4b7 c790 b2b6
00000290: 4678 9cb7 5ad2 8fb7 47e9 16b7 2e96 8237
000002a0: 71eb b9b7 e0e1 0038 b8c9 f3b7 b9b4 02b8
000002b0: b82d 0938 b93c ef38 b3bc f3b7 9fc0 1038
000002c0: 7b15 d9b7 2b88 30b9 0182 b137 ad1a a238
000002d0: 6cdf 8d36 11fd 5736 0837 2cb9 3a5f 8537
000002e0: 9b24 8338 c4e6 4c36 27dd d5b7 f62f 8b38
000002f0: 7f1e c4b7 ebdb ab38 efed 1f36 7355 e2b6
00000300: 2962 4d38 f9da f0b8 62f0 8b37 e1b7 3038
00000310: 3b11 28b8 73c0 f7b7 66a8 adb7 3c34 fe37
00000320: e2e0 f537 3b22 d836 7e9a 92b8 c2b5 1438
00000330: e728 9a36 e16a 9738 a491 2db8 08c4 4438
00000340: f57f 80b7 62cb 78b7 e271 83b6 eece d1b7
00000350: e529 c3b6 8d3f dbb6 1e0e 8bb8 5488 5037
00000360: c41d b437 9d07 1138 557d 0c38 92df a0b6
00000370: 000f 3038 e6f1 5fb7 2699 49b6 e8f4 1537
00000380: ebfa fcb8 4285 40b8 b65e a337 8c5d 08b7
00000390: d57e 5436 4976 1cb7 de7f bcb8 d124 2e37
000003a0: 6696 b637 ac8f 3938 fc60 d736 8547 8237
000003b0: 3134 a937 3082 92b6 f32e 9638 9742 3c37
000003c0: 8245 1e38 d23d 3437 395b 93b7 324b 5c37
000003d0: f8ac 45b7 2c97 e837 443a 8038 edd2 7e37
000003e0: 9d62 deb7 854d 1638 bc1e 83b8 9273 bab7
000003f0: 46f5 80b8 3eaa 23b7 09a8 02b7 0c76 1737

exp_avg_sq f4 [48, 16]
1.6163781e-07 1.4624383e-07 1.3982144e-08 4.7027648e-08 2.6077679e-08 1.2110628e-08 1.6641873e-07 2.3326571e-08
3.9510656e-08 4.749406e-08 9.08761e-08 1.0762984e-07 1.2715375e-07 9.3631066e-08 5.200934e-08 4.8841482e-08
1.5774219e-06 1.0073189e-06 7.843306e-08 4.2017558e-07 1.6251596e-07 1.6117308e-07 1.7125617e-06 1.4957627e-07
4.2544306e-07 3.658877e-07 8.8164313e-07 1.1796005e-06 1.3276988e-06 6.6348724e-07 6.134529e-07 6.1058216e-07
8.422224e-08 7.8034674e-08 9.7068185e-09 2.3654385e-08 1.2812298e-08 8.245913e-09 1.0685403e-07 9.828281e-09
2.2296481e-08 2.5243406e-08 5.775202e-08 6.293949e-08 6.870081e-08 6.3440915e-08 2.2092989e-08 3.050446e-08
3.6545543e-06 3.5045796e-06 2.1337172e-07 1.1578892e-06 3.5451498e-07 2.0471326e-07 3.947468e-06 4.148769e-07
9.898263e-07 8.087314e-07 1.9982235e-06 2.858828e-06 2.1366016e-06 1.8740991e-06 7.078422e-07 7.0431935e-07
7.297134e-07 4.8968195e-07 5.3970915e-08 2.173749e-07 1.0772359e-07 5.6367405e-08 5.245098e-07 7.679846e-08
1.6596589e-07 2.3132608e-07 6.204398e-07 4.5967045e-07 4.9392224e-07 3.7140754e-07 1.207995e-07 2.3232953e-07
3.5140808e-08 2.9405374e-08 2.7664735e-09 9.298863e-09 4.363802e-09 2.6075837e-09 4.0766743e-08 3.5433338e-09
8.873907e-09 9.230655e-09 2.3276854e-08 2.268056e-08 2.5660718e-08 2.0757835e-08 8.282231e-09 9.767652e-09
2.0101119e-08 1.6165435e-08 1.2290792e-09 5.412455e-09 2.3722444e-09 1.5288952e-09 2.241514e-08 2.0372446e-09
5.0787117e-09 4.898679e-09 1.1010218e-08 1.4169998e-08 1.4857836e-08 1.1319922e-08 4.4864112e-09 5.4848917e-09
9.1389865e-08 7.6247055e-08 7.0478765e-09 2.4506937e-08 1.0979811e-08 5.66191e-09 1.1553963e-07 1.0022839e-08
2.0989715e-08 2.3913808e-08 4.9480715e-08 5.380113e-08 4.397756e-08 5.0866692e-08 2.3066615e-08 1.8794434e-08
7.581741e-08 5.1816055e-08 7.9437825e-09 3.606719e-08 1.1907385e-08 8.581651e-09 1.0257323e-07 8.559852e-09
1.7812624e-08 3.228561e-08 4.8977512e-08 5.4979207e-08 5.8323423e-08 5.6303065e-08 5.543398e-08 2.9577409e-08
2.7586125e-07 3.3275174e-07 2.3387388e-08 1.2020871e-07 4.635714e-08 2.1753914e-08 3.334838e-07 2.21506e-08
5.9497243e-08 1.1493725e-07 2.7148462e-07 2.313595e-07 1.7708373e-07 2.5394635e-07 1.1053841e-07 7.125522e-08
2.1831443e-07 1.4391874e-07 2.1195522e-08 6.710654e-08 2.4241801e-08 1.2148816e-08 2.3350073e-07 2.2828447e-08
4.575478e-08 5.7784018e-08 1.9816449e-07 1.19075295e-07 1.5727937e-07 1.3579196e-07 7.1711696e-08 5.398905e-08
5.7205773e-07 4.3085603e-07 4.2584485e-08 1.2668572e-07 8.983076e-08 4.8210378e-08 8.252988e-07 4.2413703e-08
1.3974031e-07 2.7883286e-07 3.1017862e-07 7.512754e-07 3.753247e-07 4.861106e-07 1.5681044e-07 1.4670424e-07
2.4357797e-07 1.8736593e-07 2.1828626e-08 1.0954546e-07 2.9541594e-08 1.9385924e-08 2.7914987e-07 3.452354e-08
5.2728e-08 8.357687e-08 1.8701263e-07 1.7622642e-07 1.7295388e-07 1.7908707e-07 1.2238252e-07 6.936611e-08
3.8260885e-07 1.8553177e-07 2.571036e-08 1.3256265e-07 4.5162622e-08 2.656492e-08 5.488288e-07 2.8573506e-08
8.189354e-08 9.035893e-08 3.0921674e-07 2.4480556e-07 2.7088757e-07 1.9147548e-07 1.0597105e-07 8.8728314e-08
1.2063995e-07 8.5622126e-08 1.2382644e-08 3.8121552e-08 2.1163437e-08 1.525445e-08 1.2388013e-07 9.934331e-09
2.57274e-08 4.9329714e-08 1.0085536e-07 1.1275623e-07 6.781432e-08 8.7261384e-08 3.5909544e-08 5.3703666e-08
1.912158e-07 2.020178e-07 2.2324718e-08 9.639085e-08 5.9248567e-08 2.4726312e-08 3.636803e-07 2.2359956e-08
5.2542145e-08 8.988672e-08 1.14727946e-07 2.1609075e-07 2.5524648e-07 1.5014403e-07 6.885718e-08 8.7802796e-08
00000000: aa8e 2d34 3307 1d34 1f36 7032 72fb 4933
00000010: 6c01 e032 1b0f 5032 d5b0 3234 ac5f c832
00000020: 6db2 2933 45fc 4b33 aa27 c333 2122 e733
00000030: c287 0834 3912 c933 e060 5f33 c7c5 5133
00000040: ceb7 d335 3733 8735 086f a833 7e94 e134
00000050: 0c80 2e34 eb0e 2d34 2cdb e535 369b 2034
00000060: 7368 e434 396f c434 0eaa 6c35 c452 9e35
00000070: 6233 b235 7f1a 3235 2aac 2435 e3e6 2335
00000080: abdd b433 0494 a733 0ac3 2632 8b30 cb32
00000090: 151d 5c32 e9a9 0d32 a077 e533 3dd9 2832
000000a0: 7b86 bf32 d6d6 d832 040b 7833 5a29 8733
000000b0: ab88 9333 033d 8833 ffc6 bd32 0204 0333
000000c0: c440 7536 3830 6b36 2c1b 6534 c568 9b35
000000d0: 2b54 be34 27cf 5b34 7e74 8436 3fbc de34
000000e0: 2cda 8435 9917 5935 3819 0636 4bda 3f36
000000f0: 8962 0f36 8e89 fb35 8c02 3e35 7510 3d35
00000100: 86e1 4335 b072 0335 a6cd 6733 8f67 6934
00000110: ab55 e733 9e18 7233 0acc 0c35 66ec a433
00000120: 5b34 3234 6e62 7834 4c8c 2635 a0c8 f634
00000130: 1496 0435 dd65 c734 1db5 0134 4176 7934
00000140: baed 1633 1a97 fc32 511c 3e31 d5c0 1f32
00000150: 69f0 9531 1931 3331 8217 2f33 fd7e 7331
00000160: db73 1832 da94 1e32 58f2 c732 14d3 c232
00000170: 846c dc32 f64e b232 a349 0e32 96ce 2732
00000180: d4aa ac32 2bdc 8a32 61ec a830 75f8 b931
00000190: f704 2331 3821 d230 6a8b c032 96ff 0b31
000001a0: d280 ae31 3c51 a831 7327 3d32 4f70 7332
000001b0: 7441 7f32 8b79 4232 e426 9a31 9e75 bc31
000001c0: 1c42 c433 43bd a333 c729 f231 5383 d232
000001d0: b8a1 3c32 b08a c231 951e f833 e930 2c32
000001e0: df4c b432 056b cd32 9f84 5433 f812 6733
000001f0: d7e1 3c33 8578 5a33 0624 c632 6671 a132
00000200: 10d1 a233 5b8c 5e33 2079 0832 4be8 1a33
00000210: 3c91 4c32 806e 1332 3b46 dc33 a10e 1332
00000220: 6002 9932 67aa 0a33 585b 5233 4722 6c33
00000230: 487f 7a33 e0d1 7133 4e16 6e33 6911 fe32
00000240: 151a 9434 0da5 b234 69e5 c832 b812 0134
00000250: 371a 4733 5ddd ba32 aa09 b334 af45 be32
00000260: e989 7f33 6cd3 f633 90c0 9134 9d6b 7834
00000270: 6824 3e34 1f56 8834 2261 ed33 f904 9933
00000280: d069 6a34 1588 1a34 7211 b632 361c 9033
00000290: 493c d032 0fb7 5032 31b8 7a34 4918 c432
000002a0: ea83 4433 332e 7833 0ac7 5434 56b6 ff33
000002b0: a0e0 2834 36ce 1134 ecff 9933 97e1 6733
000002c0: 828f 1935 6750 e734 23e6 3633 1b07 0834
000002d0: fce8 c033 df0f 4f33 1a8a 5d35 5c2a 3633
000002e0: 860b 1634 7fb2 9534 a086 a634 41ab 4935
000002f0: 3c80 c934 447d 0235 ba5f 2834 c185 1d34
00000300: 1ac5 8234 c12e 4934 a881 bb32 413f eb33
00000310: a7c2 fd32 1986 a632 11de 9534 0947 1433
00000320: 0d77 6233 df7a b333 a4cd 4834 c038 3d34
00000330: 33b5 3934 144b 4034 4068 0334 6cf6 9433
00000340: 5c69 cd34 9636 4734 aed9 dc32 8b56 0e34
00000350: d4f8 4133 e030 e432 3a53 1335 ce71 f532
00000360: 73dd af33 590b c233 6d02 a634 d26d 8334
00000370: 816e 9134 6198 4d34 3392 e333 e88a be33
00000380: 4289 0134 43df b733 72bb 5432 17bb 2333
00000390: e4ca b532 e408 8332 e903 0534 a6ab 2a32
000003a0: 27ff dc32 98de 5333 d295 d833 6524 f233
000003b0: 51a1 9133 7464 bb33 f63a 1a33 cea7 6633
000003c0: 0051 4d34 3bea 5834 93c4 bf32 6eff ce33
000003d0: 7d78 7e33 bc65 d432 d73f c334 1012 c032
000003e0: b3aa 6133 bf07 c133 5b60 f633 9306 6834
000003f0: cf08 8934 4737 2134 a3de 9333 198e bc33

exp_avg f4 [48]
2.3494478e-05 -3.507632e-05 1.2185122e-05 0.00012871725 -1.0534004e-05 -1.8656194e-05 5.5275164e-06 2.5339152e-05
-1.4883707e-06 2.8770071e-05 -2.4682731e-05 -1.0488509e-05 -8.8295055e-06 -4.611373e-05 -3.0847506e-05 2.096713e-06
1.23206965e-11 9.3327526e-11 5.3469087e-12 -5.5959738e-12 1.3032907e-10 -2.8138338e-12 -4.39925e-12 -4.614893e-12
-4.1196945e-11 -1.0722855e-10 -9.7062365e-11 -1.6980342e-10 -6.7572004e-11 2.1227634e-10 5.3393092e-11 8.790901e-11
-8.260369e-05 -1.5862637e-05 -2.6881477e-05 0.00037804205 -8.515718e-05 -3.2511365e-05 -8.1727085e-06 -3.2100098e-07
-4.354963e-06 -0.00018290157 -3.367435e-05 8.406796e-05 4.330278e-06 8.57838e-06 4.9442486e-05 7.579374e-05
00000000: 0216 c537 e91e 13b8 b36e 4c37 46f8 0639
00000010: 34bb 30b7 df7f 9cb7 0179 b936 6a8f d437
00000020: 07c4 c7b5 4257 f137 c30d cfb7 cef7 2fb7
00000030: 7022 14b7 3e6a 41b8 4262 01b8 41b5 0c36
00000040: 7cbf 582d ba3a cd2e ac20 bc2c 0de4 c4ac
00000050: 5f4c 0f2f 8601 46ac ecc8 9aac 435f a2ac
00000060: a32f 35ae 4fcc ebae 4171 d5ae 6ab3 3aaf
00000070: a897 94ae 7a66 692f 47d3 6a2e 6050 c12e
00000080: 853b adb8 c110 85b7 887f e1b7 f233 c639
00000090: 6a96 b2b8 d05c 08b8 841d 09b7 0a56 acb4
000000a0: d920 92b6 44c9 3fb9 8f3d 0db8 a44d b038
000000b0: ce4c 9136 ddeb 0f37 7760 4f38 74f3 9e38

exp_avg_sq f4 [48]
2.0538023e-08 1.5658902e-07 1.9690379e-08 3.7440773e-07 7.7710226e-08 3.8313286e-09 1.802323e-09 9.075698e-09
1.2931145e-08 5.4868586e-08 3.0744598e-08 9.65275e-08 3.8672177e-08 5.5577075e-08 2.1952916e-08 5.139208e-08
3.681902e-21 3.4997795e-20 1.2634142e-21 4.7785255e-20 2.79947e-20 4.683074e-22 1.6508409e-22 2.677111e-21
5.1610856e-21 2.160759e-20 2.5874066e-20 3.195357e-20 3.2873608e-20 5.587775e-20 3.545737e-21 1.8135966e-20
4.0133833e-07 3.7256523e-08 3.4992055e-08 4.0674995e-06 2.0659352e-06 4.289335e-07 6.757058e-07 3.3651798e-08
2.1917288e-08 7.2377264e-07 5.6524145e-06 2.544922e-06 1.6001735e-08 4.1943235e-08 3.0112864e-07 4.4733865e-06
00000000: 976b b032 dd22 2834 9a23 a932 3502 c934
00000010: a6e1 a633 b9a4 8331 9ab5 f730 58eb 1b32
00000020: c727 5e32 a6a8 6b33 0b0c 0433 8e4a cf33
00000030: 8218 2633 a4b3 6e33 f992 bc32 31ba 5c33
00000040: 2c19 8b1d bd45 251f f8eb be1c d4a8 611f
00000050: 8433 041f 8889 0d1c 0d93 471b dc46 4a1d
00000060: f5fa c21d f213 cc1e a75f f41e 7fe5 161f
00000070: c13d 1b1f 07f0 831f 44f4 851d 134a ab1e
00000080: 8577 d734 fb03 2033 2c4a 1633 8e7b 8836
00000090: 7fa4 0a36 2c48 e634 2662 3535 8b88 1033
000000a0: a044 bc32 4749 4235 dfa9 bd36 6dc9 2a36
000000b0: 3074 8932 1325 3433 ceaa a134 191a 9636
