models/mnist_gen.ckpt (torch_old, 522153 bytes, 305 tensors)

exp_avg f4 [16]
00000000: 9e2c 0cb7 d85c 7db7 fe3a 5837 105f 2537
00000010: dcfc 9937 e96b 1ab6 9980 0eb7 260b cc36
00000020: 3c57 4eb7 199d c7b5 2baa 9935 20c8 6237
00000030: c215 20b7 9d4a 4736 faea 01b5 1d8a e2b6
-8.3550385e-06 -1.5101592e-05 1.28883385e-05 9.8569e-06 1.8356768e-05 -2.30106e-06 -8.493801e-06 6.0809716e-06
-1.2298868e-05 -1.4872377e-06 1.1448914e-06 1.3517245e-05 -9.541809e-06 2.9696741e-06 -4.839818e-07 -6.7514034e-06

exp_avg_sq f4 [16]
00000000: 5997 5a32 7b66 8c32 0a5d 6432 7ca9 4a31
00000010: 63a8 1f32 63aa 4a30 165a 1a32 7fb7 fe30
00000020: 85e0 4431 2806 9b31 e627 4932 0500 1a32
00000030: 612d 8e32 8e97 f632 bd30 e131 ad29 e630
1.27236826e-08 1.6344748e-08 1.3292501e-08 2.949121e-09 9.293305e-09 7.3729306e-10 8.984463e-09 1.8533085e-09
2.8649378e-09 4.5117936e-09 1.1708812e-08 8.963984e-09 1.6551612e-08 2.8707088e-08 6.5539028e-09 1.6746547e-09

exp_avg f4 [16, 16]
00000000: c775 cdb8 c95b 96b9 7a46 6639 5e68 8739
00000010: 6941 c138 dc98 1bb9 e82c 9ab9 99b8 2b39
00000020: fa3b 5ab9 c08e 4f39 2b5f 9438 9dd5 f038
00000030: 0ff0 acb8 4a77 3539 5c47 f1b8 ef53 71b8
00000040: daa1 afb7 2c12 43b8 bda3 1938 067d 3238
00000050: 37a6 a737 706a 52b6 b477 78b7 5156 3c38
00000060: 6f23 44b8 d57d 93b7 3842 4a37 96bc 1037
00000070: f674 1ab8 d404 3f35 4708 6837 59b7 f336
00000080: 8ded aeb8 8409 8cb8 b787 b537 36fc dd38
00000090: 393b 3fb7 fc30 0fb8 430b 19b9 bed1 9738
000000a0: 99be e5b8 688a ae38 af9a a038 593f 8738
000000b0: 4146 a537 b28a ed36 bb35 d236 605c c9b6
000000c0: df70 3438 3870 e838 2299 01b9 eb59 0ab9
000000d0: c502 ccb8 86e6 7837 df16 d2b7 b104 bbb8
000000e0: 06bf 7138 6c45 cb38 c500 5a37 c53c 6938
000000f0: 1922 eb38 0525 c0b6 fab3 2b37 bbd7 2db8
00000100: fc5b 1039 f9ce e838 60c7 56b8 c574 31b9
00000110: c260 e4b4 3caf 9238 6298 7139 570e bab8
00000120: a296 1f39 b8a5 28b9 44a1 d8b8 8c2d bab8
00000130: 50a7 5ab8 4c72 91b7 14c2 6437 e977 8f37
00000140: 6b34 c838 39be 3838 55f8 fab7 b78f 10b9
00000150: 26e3 ac37 a9f0 c638 b2c5 4f39 bb1c 2cb8
00000160: fb22 bb38 f456 1db9 21e0 f2b8 2e2c c9b8
00000170: 156f 57b8 13ea 6236 40c2 1e38 a4f3 2038
00000180: 6dde da38 d683 34b8 9fdb bf38 1da7 78b8
00000190: e016 e638 495d c438 29db 8e39 0fd9 4638
000001a0: 0ca3 5c38 43f9 a2b9 a1ad 00b9 990c 01b9
000001b0: c23f 6eb9 551b 3cb7 b80f 6438 1c91 9538
000001c0: db57 01b8 079e 93b7 9b44 d236 b3fb 4938
000001d0: 2c87 70b7 444d 74b8 635a ebb8 870a 3eb7
000001e0: 2a8c 9fb7 f369 0939 dc03 1338 4df3 2c38
000001f0: 9681 5b38 65fa 2038 50b9 4bb8 7e12 29b8
00000200: 9972 afb7 e5ab 4639 fecb 53b9 7eb1 86b8
00000210: a388 2fb9 d460 b6b8 24a9 43b9 e5aa 3ab9
00000220: 4bc7 b438 25b4 b139 3a18 b738 eaf8 9c38
00000230: 0100 9c39 06c7 2f37 9afd b7b8 dcbb beb8
00000240: 95f2 58b8 7c85 a338 c36b dcb8 a474 cfb6
00000250: af0c e6b8 2abc 8eb8 61e3 47b9 1300 9db8
00000260: 1947 deb6 34d4 8339 d6c9 c238 6739 d038
00000270: 5e0a 5239 40c4 b5b5 83b3 2bb8 04ed 8bb8
00000280: 8cbd 0e37 e012 62b8 afe5 8538 a959 3137
00000290: c200 6438 6c7c 4838 bc9c 8638 8382 9338
000002a0: 05eb 1ab8 8f86 07b9 6b18 04b8 bedd 82b7
000002b0: ebbb f1b8 c2d3 89b7 efba 4838 6eb9 0338
000002c0: 5bfb 3938 0226 0a39 034a f2b8 1735 05b9
000002d0: abca a4b8 0984 adb7 f1a7 53b7 7311 15b9
000002e0: 378d e238 f18f 0f39 4777 00b7 fab3 dd37
000002f0: 2f64 1e39 a1bb 05b6 85f8 17b8 c5f6 6ab8
00000300: 3d94 b637 45ae 46b8 37b8 7638 72c6 0437
00000310: ec5c 6938 c5bf 2038 d00e b938 c975 6838
00000320: 9258 3bb7 34b0 0fb9 0d1e 50b8 1455 40b8
00000330: b2a5 d8b8 cba2 20b6 f088 0e38 23a1 1938
00000340: d7f8 4b36 db35 fcb8 127f be38 da0c ac38
00000350: 5d16 b638 fb27 3839 52d3 7b39 e1c4 8939
00000360: bbf4 0db9 e299 fcb9 d3ed 42b8 aa48 23b9
00000370: 8c47 b0b9 44d3 9fb7 ee77 3539 0e53 3d39
00000380: 46d6 25b7 8c9e a2b8 5c0d b638 260c 9638
00000390: fc78 7b38 200d 8337 6490 7738 fd9b ab38
000003a0: 8694 46b8 cd42 07b9 8a8a 8cb7 f281 4eb8
000003b0: 6400 edb8 42d0 94b6 dbfa b337 00bc 5538
000003c0: 19d4 05b8 ce76 14b9 865b 1f39 b9e5 d238
000003d0: 18cb d138 354c 5db8 7ba1 41b8 79c1 4738
000003e0: 12a1 51b8 1dd2 1e37 3030 87b7 98c4 1c38
000003f0: a97d 84b8 fea6 7637 ee79 14b8 40d1 ceb7
-9.7970995e-05 -0.00028678615 0.00021960764 0.00025826966 9.215141e-05 -0.00014838896 -0.00029406627 0.00016376599
-0.00020812443 0.00019794237 7.074916e-05 0.000114838804 -8.2463135e-05 0.00017305944 -0.00011505067 -5.7537047e-05
-2.0936994e-05 -4.6508547e-05 3.6630536e-05 4.2554944e-05 1.9985351e-05 -3.1354393e-06 -1.48098225e-05 4.490308e-05
-4.676304e-05 -1.758236e-05 1.2055556e-05 8.626977e-06 -3.682539e-05 7.116007e-07 1.3830205e-05 7.263309e-06
-8.341214e-05 -6.677493e-05 2.1640079e-05 0.00010585079 -1.1398276e-05 -3.4139477e-05 -0.00014595412 7.2393086e-05
-0.000109550725 8.322747e-05 7.6582066e-05 6.449101e-05 1.9702247e-05 7.0792967e-06 6.2647428e-06 -6.0010207e-06
4.3020464e-05 0.000110835244 -0.00012359445 -0.00013194203 -9.727994e-05 1.4835625e-05 -2.5044601e-05 -8.917729e-05
5.7636782e-05 9.692725e-05 1.2993992e-05 5.5608125e-05 0.000112120244 -5.7263555e-06 1.0234298e-05 -4.144733e-05
0.00013767177 0.00011101174 -5.120726e-05 -0.00016923535 -4.253871e-07 6.9944625e-05 0.00023040318 -8.871842e-05
0.00015219537 -0.00016083464 -0.00010329721 -8.877655e-05 -5.2131072e-05 -1.733857e-05 1.3635046e-05 1.7102766e-05
9.546507e-05 4.4046177e-05 -2.9917961e-05 -0.00013786448 2.0609772e-05 9.486202e-05 0.00019814706 -4.1034753e-05
8.9233705e-05 -0.0001500508 -0.000115812065 -9.592656e-05 -5.1363448e-05 3.3812873e-06 3.7851045e-05 3.837388e-05
0.0001043648 -4.3038126e-05 9.148497e-05 -5.9283444e-05 0.000109715154 9.363384e-05 0.00027247638 4.740903e-05
5.2603937e-05 -0.00031084762 -0.00012271713 -0.00012307092 -0.000227212 -1.1212037e-05 5.4374075e-05 7.1319024e-05
-3.083782e-05 -1.7597353e-05 6.2664744e-06 4.8156548e-05 -1.4336587e-05 -5.8246093e-05 -0.00011222509 -1.1327334e-05
-1.9019546e-05 0.00013104807 3.5051125e-05 4.1234587e-05 5.2334355e-05 3.838017e-05 -4.8571557e-05 -4.0309962e-05
-2.091499e-05 0.00018946787 -0.00020198521 -6.4226784e-05 -0.00016740202 -8.696472e-05 -0.00018659659 -0.00017802005
8.62019e-05 0.0003389429 8.7306325e-05 7.4850235e-05 0.00029754642 1.0477152e-05 -8.773357e-05 -9.0948975e-05
-5.1724335e-05 7.797309e-05 -0.0001051049 -6.1826595e-06 -0.00010969617 -6.806136e-05 -0.00019062824 -7.486357e-05
-6.6243924e-06 0.0002514437 9.288236e-05 9.928905e-05 0.00020031023 -1.3542667e-06 -4.093676e-05 -6.672184e-05
8.507992e-06 -5.3900178e-05 6.384716e-05 1.0570898e-05 5.436014e-05 4.7799593e-05 6.418812e-05 7.033816e-05
-3.693534e-05 -0.0001292473 -3.1493993e-05 -1.5600464e-05 -0.00011526778 -1.643028e-05 4.785781e-05 3.140553e-05
4.434153e-05 0.00013174865 -0.00011553245 -0.00012703646 -7.857879e-05 -2.068469e-05 -1.2615682e-05 -0.00014216248
0.00010802823 0.00013691165 -7.657166e-06 2.6429061e-05 0.00015105375 -1.9927759e-06 -3.6232657e-05 -5.601977e-05
2.176512e-05 -4.736918e-05 5.8822534e-05 7.914017e-06 5.563807e-05 3.8325572e-05 8.8242465e-05 5.5422806e-05
-1.11666905e-05 -0.00013703184 -4.961905e-05 -4.5855602e-05 -0.00010330546 -2.3936616e-06 3.398297e-05 3.6628113e-05
3.03942e-06 -0.00012026328 9.083575e-05 8.203993e-05 8.682602e-05 0.00017562501 0.00024015948 0.00026277362
-0.00013537977 -0.00048179837 -4.6474695e-05 -0.00015571961 -0.00033622643 -1.9052655e-05 0.00017306182 0.00018055385
-9.884656e-06 -7.7542936e-05 8.680925e-05 7.15482e-05 5.995574e-05 1.5622529e-05 5.9023863e-05 8.1829705e-05
-4.7345202e-05 -0.00012899489 -1.6753813e-05 -4.923525e-05 -0.000113011134 -4.434988e-06 2.1455277e-05 5.0958246e-05
-3.1907202e-05 -0.00014158638 0.00015197517 0.000100563695 0.00010003726 -5.276148e-05 -4.6165176e-05 4.7625483e-05
-4.997949e-05 9.466455e-06 -1.6115693e-05 3.737639e-05 -6.3176565e-05 1.47016235e-05 -3.5399506e-05 -2.4654553e-05

exp_avg_sq f4 [16, 16]
00000000: cfa4 5536 6087 b036 9832 b136 36d6 b336
00000010: b82c 8036 6899 8e36 d623 9a37 6da2 7336
00000020: cf5d 5c36 9094 cd37 881a 8836 4f34 8b36
00000030: 34df 4b37 d1d2 af35 0af1 3136 d764 ee35
00000040: ea48 eb33 2bb3 5834 f798 6334 04b4 3334
00000050: d2ca 2934 53ca 0c34 b630 1b35 760a 5f34
00000060: a2be 2334 b6b4 8435 15d6 f833 a5a8 0e34
00000070: 837e 0735 8e48 6132 adf0 b933 a76a d733
00000080: 4c03 0d34 63d3 7534 7365 7334 380a 8034
00000090: 73ac 3b34 fac0 1d34 ccfa 3535 7b7c 7b34
000000a0: ef9b 4734 59dd 9135 096f 1434 aa6d 0334
000000b0: e65f 1835 7d6a a932 c2ad d333 820c b733
000000c0: 9e58 1434 1df7 5f34 d165 5634 1b84 8934
000000d0: 9de4 2e34 c321 2434 8e9b 4735 d373 6a34
000000e0: 710a 4234 93a7 9835 0b86 2234 4b4f 1834
000000f0: 5040 1735 0cf4 a532 9b44 c633 b84b b933
00000100: 3f72 1634 f56c 8b34 6f43 8a34 86b7 7b34
00000110: 3805 5434 5031 2c34 6364 4335 0637 8d34
00000120: 621d 5a34 c821 a335 df1e 2234 de82 0e34
00000130: 0438 2b35 3592 a732 e6dd ec33 b396 da33
00000140: 094a 1534 cfc4 8634 398e 8b34 d734 7534
00000150: 3e6d 5e34 1c36 3234 6940 4d35 7ced 8a34
00000160: 7f94 4c34 320b ae35 d8a1 3134 c791 1634
00000170: 953f 3535 f0fa 1733 4b06 f333 38e3 de33
00000180: 56fa 0c34 a10e 5c34 e90a 5434 f2a0 7d34
00000190: dd13 2b34 4b87 1d34 33a7 3b35 b6f8 6634
000001a0: b75a 3d34 7262 9135 3e7e 1c34 cf3c 0a34
000001b0: b4c3 1035 f43a b632 9754 c533 a607 b233
000001c0: 38ae 0d34 d553 4d34 1ab9 4634 6e5e 8334
000001d0: 3768 1d34 c445 0934 3503 3f35 de98 4b34
000001e0: 9969 4134 dc99 8935 d07f 1e34 998d 2c34
000001f0: bba7 0835 9ebd bc32 12ef 9833 b880 ac33
00000200: afdd eb33 cdbe 5e34 97c3 5b34 44b4 3e34
00000210: 2f5e 2334 9b4b 0f34 93ae 1a35 fc17 6934
00000220: c9d9 2e34 7bb5 8335 0352 f833 1487 fc33
00000230: 7acb 0535 a7c7 bf32 364e c933 7725 c633
00000240: c024 0e34 fd9c 6934 b0bb 7034 391b 7534
00000250: a5b3 3f34 63a1 1b34 9af4 3a35 2132 6534
00000260: af3d 3734 1fa9 9335 1fcb 2334 ac3a 0a34
00000270: 4dd0 1935 1b10 d332 5eb4 c633 5cc2 b333
00000280: ff29 1934 3dc6 7734 06d0 6c34 64fc 9e34
00000290: 5cf8 3834 18ae 1a34 f0bd 4735 bd93 8234
000002a0: 5a26 5634 b543 9b35 5c55 1f34 4008 2934
000002b0: eece 1e35 d9ab a232 b485 bc33 6b51 c933
000002c0: 6252 0c34 9760 6434 a27c 5534 b463 8734
000002d0: 0133 2a34 ba6c 1b34 02c3 3635 74c1 6734
000002e0: 9ad1 4134 be88 8c35 1139 1734 ee21 0834
000002f0: d21b 0f35 f7ce a532 eaf8 bd33 be02 ad33
00000300: 154a f833 c45d 5b34 62fd 5b34 f4d7 4334
00000310: de2e 2d34 f063 1434 d6df 2635 067b 6c34
00000320: cea5 3334 948b 8c35 09be 0834 da2c fd33
00000330: 78df 1035 0f62 5c32 fd93 ca33 6c38 c633
00000340: a761 f835 d216 8e36 450a 9936 5d84 4536
00000350: e856 8736 b130 1a36 51b7 5037 8387 a836
00000360: 3e14 4536 310b c737 c113 3036 d9a2 4536
00000370: 391e 5737 a319 d334 a188 d635 6376 1536
00000380: 3dae 0434 4601 2e34 b5cd 2534 1dc9 6534
00000390: 479d 0934 263f 0534 bee1 3e35 63ee 2d34
000003a0: c213 2934 af83 8635 b42b 1634 523f 2334
000003b0: e446 fd34 1018 cb32 8f78 8933 db42 a033
000003c0: 4d02 e933 b98f 6334 da24 6b34 f391 3834
000003d0: 4f29 3334 46a0 1334 349b 1e35 e225 6d34
000003e0: 27c5 2a34 7727 8a35 5dc9 0034 9cdd 0a34
000003f0: 4c0d 0f35 1b69 6332 801c c933 6fad d433
3.1835405e-06 5.2609685e-06 5.280901e-06 5.359553e-06 3.819903e-06 4.2497886e-06 1.8374918e-05 3.6304366e-06
3.2837158e-06 2.4507084e-05 4.0562045e-06 4.1486123e-06 1.2151711e-05 1.3099872e-06 2.6515359e-06 1.776173e-06
1.0956303e-07 2.0181749e-07 2.1196671e-07 1.6736163e-07 1.5813137e-07 1.3112121e-07 5.7812883e-07 2.0772299e-07
1.524991e-07 9.88736e-07 1.1587341e-07 1.3286133e-07 5.047552e-07 1.3113221e-08 8.6585125e-08 1.00311176e-07
1.3132848e-07 2.2894305e-07 2.2668046e-07 2.3849293e-07 1.7478469e-07 1.4691969e-07 6.779271e-07 2.3421482e-07
1.8590048e-07 1.0867763e-06 1.3823968e-07 1.2240221e-07 5.6763963e-07 1.9722615e-08 9.8570595e-08 8.523877e-08
1.3815813e-07 2.0858393e-07 1.9967344e-07 2.5614358e-07 1.6288182e-07 1.5285973e-07 7.435964e-07 2.1835085e-07
1.8071457e-07 1.1373653e-06 1.513619e-07 1.418495e-07 5.634547e-07 1.9319508e-08 9.232573e-08 8.628507e-08
1.4011401e-07 2.5970044e-07 2.5753567e-07 2.3442962e-07 1.9745937e-07 1.6036688e-07 7.278924e-07 2.6303331e-07
2.0313522e-07 1.2154278e-06 1.5098657e-07 1.327239e-07 6.378398e-07 1.9507846e-08 1.10299695e-07 1.0178828e-07
1.390364e-07 2.5102642e-07 2.5994248e-07 2.2836626e-07 2.0715103e-07 1.6597227e-07 7.646218e-07 2.5877296e-07
1.9053003e-07 1.2967269e-06 1.6543288e-07 1.4022872e-07 6.752028e-07 3.5385654e-08 1.1316714e-07 1.03790114e-07
1.3129588e-07 2.0494419e-07 1.9748008e-07 2.3621013e-07 1.5932842e-07 1.4670984e-07 6.9906235e-07 2.15109e-07
1.7634999e-07 1.0831993e-06 1.4574559e-07 1.2874374e-07 5.3928966e-07 2.1214397e-08 9.188914e-08 8.290162e-08
1.3195029e-07 1.912261e-07 1.8507527e-07 2.4469358e-07 1.4659678e-07 1.27845e-07 7.115771e-07 1.8961461e-07
1.8012942e-07 1.0252074e-06 1.4761395e-07 1.6070261e-07 5.090803e-07 2.1972308e-08 7.121538e-08 8.032788e-08
1.0983364e-07 2.0744774e-07 2.046712e-07 1.7760709e-07 1.5214822e-07 1.3345418e-07 5.762351e-07 2.1708541e-07
1.6284243e-07 9.813078e-07 1.1563318e-07 1.1759235e-07 4.984246e-07 2.2326118e-08 9.3740184e-08 9.226908e-08
1.323815e-07 2.1756928e-07 2.2420022e-07 2.2827307e-07 1.7853615e-07 1.4494212e-07 6.964634e-07 2.1345524e-07
1.7065643e-07 1.1001574e-06 1.5254453e-07 1.2873596e-07 5.730006e-07 2.4570957e-08 9.252902e-08 8.370691e-08
1.4264513e-07 2.3075786e-07 2.2054891e-07 2.9613432e-07 1.7226688e-07 1.4405703e-07 7.440967e-07 2.432188e-07
1.9944255e-07 1.1568105e-06 1.4839082e-07 1.5742353e-07 5.916071e-07 1.893743e-08 8.778753e-08 9.374602e-08
1.3068487e-07 2.1269294e-07 1.9882512e-07 2.5218253e-07 1.5851039e-07 1.4475054e-07 6.8084057e-07 2.158393e-07
1.8050778e-07 1.047061e-06 1.4083732e-07 1.267833e-07 5.3312135e-07 1.9302645e-08 8.8462755e-08 8.056439e-08
1.15618754e-07 2.0430076e-07 2.0488145e-07 1.8239353e-07 1.6128931e-07 1.3819931e-07 6.2165543e-07 2.2023968e-07
1.6730993e-07 1.0471435e-06 1.2735121e-07 1.1789389e-07 5.396937e-07 1.2827981e-08 9.433277e-08 9.2303566e-08
1.850586e-06 4.2345864e-06 4.560951e-06 2.9432333e-06 4.0334307e-06 2.297613e-06 1.2440448e-05 5.022566e-06
2.936707e-06 2.372786e-05 2.6237542e-06 2.9450077e-06 1.2822035e-05 3.9320466e-07 1.5984007e-06 2.227164e-06
1.2356846e-07 1.6205476e-07 1.5441658e-07 2.1400452e-07 1.2816336e-07 1.2409564e-07 7.1109014e-07 1.6198605e-07
1.574654e-07 1.0022103e-06 1.3985738e-07 1.5203594e-07 4.7176502e-07 2.3643253e-08 6.401489e-08 7.4627415e-08
1.08503265e-07 2.1193308e-07 2.1899487e-07 1.7189431e-07 1.6685702e-07 1.3748749e-07 5.9085437e-07 2.2086127e-07
1.5904207e-07 1.0293287e-06 1.1994184e-07 1.2932873e-07 5.3291e-07 1.3237037e-08 9.364976e-08 9.903567e-08

exp_avg f4 [784, 16]
00000000: 9e2c 0cb7 d85c 7db7 fe3a 5837 105f 2537
00000010: dcfc 9937 e96b 1ab6 9980 0eb7 260b cc36
00000020: 3c57 4eb7 199d c7b5 2baa 9935 20c8 6237
00000030: c215 20b7 9d4a 4736 faea 01b5 1d8a e2b6
00000040: 0c26 e436 034d 8d36 62bd 75b6 537c c8b6
00000050: 1aea 13b6 ff28 5c36 9b82 1a37 1557 80b6
00000060: ba2c 8f36 8acc 8eb6 7ea6 88b6 32a4 d7b5
00000070: 0c21 61b6 8b96 0236 973f 9db5 1aee dd34
00000080: 8228 0eb6 45d3 64b6 edc4 6636 32f1 93b5
00000090: f265 a936 cafa 9035 26f6 4bb5 e85d aa35
000000a0: 1dc0 83b6 558c 2736 790e 82b5 b324 b835
000000b0: f0b8 fcb5 febb dc35 4d87 47b5 6204 c1b5
000000c0: 2e08 8eb6 5900 b8b6 7712 1e36 cfa2 7936
000000d0: 5bcb 3835 ed6d 7535 12b4 acb6 69dd 5736
000000e0: 2e2e fcb6 2771 7836 6a81 5d35 7d92 9d36
000000f0: 6a54 7935 1aa5 14b5 7add 4f36 6d96 a2b5
00000100: d9a2 e134 7a03 19b4 3210 cdb5 30fc 12b6
00000110: 1cf4 9eb4 4870 5535 5e19 1db5 641a d4b5
00000120: 99d2 7cb5 c38b 8636 1d1e 86b5 8dc8 fb35
00000130: 4343 e235 22d1 dd35 cf8a dbb4 9d35 edb5
00000140: 2a7f f936 0e24 db34 3550 4db6 6267 e9b6
00000150: 1049 a734 a670 bb36 9de5 5837 f530 85b5
00000160: 83c0 6136 1709 d8b6 f58a 18b7 2ea8 92b6
00000170: 50df a9b6 a566 ad36 e125 94b5 ad8b fb35
00000180: 04b6 9b36 4af2 2e37 46d8 3bb7 47ea 1bb7
00000190: a62e 26b7 8238 5635 19cf e934 8912 fab6
000001a0: afc7 b336 d051 d236 50c7 1336 929e f735
000001b0: eb01 e936 c943 5eb5 ee4d 6a35 94c6 95b5
000001c0: 0671 a5b5 572f adb6 5507 0936 af7e adb4
000001d0: 20dc 9236 b49a f235 d07a 50b6 6d7b cc35
000001e0: 9bba 37b6 90e7 9d35 4a4f 43b6 25ec 3836
000001f0: 9c6f dcb5 5311 fd35 63af 2c36 1fbe 89b5
00000200: 808d cfb5 5a65 66b6 cb30 9a35 bd33 bab5
00000210: 6ccd 7f36 f9ed e335 76e5 93b5 ae3a 3535
00000220: 9398 76b6 7d08 4236 d79b 05b6 6163 05b4
00000230: 928f 7835 762f 5336 2c99 4fb5 4ced 8eb4
00000240: d660 7837 a2ac 5b36 7415 8335 c172 9ab6
00000250: 5480 9a35 6a4a 6c35 a3ee 8237 174e ceb5
00000260: f7b9 0b37 e86d 6ab7 5763 f7b6 594e 09b7
00000270: 1257 6eb7 7249 f236 f0ae 66b6 50a4 8f35
00000280: 2f1e 2a34 09e4 3fb6 ad23 1536 1d16 4bb5
00000290: 800c 8136 5f0a c435 83f3 f4b4 b787 1c36
000002a0: 3728 32b6 2adf 2cb5 c8b4 8bb6 95f9 15b6
000002b0: 0cbf 52b5 bd86 b235 bd47 e934 25e3 3936
000002c0: 5e7a 35b5 e094 1234 27d4 9935 91a5 94b3
000002d0: 8af8 2734 8004 d134 316d 00b3 7287 f2b4
000002e0: 60d1 9bb5 85ae 6935 8a2d c035 e623 a835
000002f0: 3042 90b5 0451 fcb4 fca2 f4b4 4192 85b5
00000300: 2047 9bb2 bc1f 8db5 16eb 5235 a460 37b4
00000310: 705a a135 dace 2135 914b 17b5 1d60 6eb2
00000320: 5691 efb5 837d 4c35 cab8 1733 e086 9035
00000330: 1011 42b5 27f8 0235 cbdb b0b4 75aa 9fb4
00000340: ac12 d0b4 f4f5 7cb5 a5f8 7c35 2040 02b6
00000350: 2f53 da35 9e1d 3c36 de53 3bb5 3810 dd34
00000360: b553 32b5 7454 6834 b5d1 fab5 ba8a 3b35
00000370: cbf1 d6b5 5763 0535 1afe 8b35 7bba 11b4
00000380: 71c1 88b5 80e5 85b5 450b 7235 1c3e 3e35
00000390: 9a52 8735 db25 95b4 470c 14b6 fa0e 3834
000003a0: b0d8 dab5 6505 f035 ffed 3335 f0f7 a035
000003b0: cc63 38b4 8017 5635 e43c 2cb5 a1b2 a1b4
000003c0: b7aa 04b5 b71d 7bb5 770b 8135 f588 9b34
000003d0: e514 2135 9f09 a834 7c63 c3b4 5c95 d0b4
000003e0: 4b66 19b6 d027 cb35 d77c f435 cdb9 a335
000003f0: 96d2 d7b5 0d87 03b4 418b bbb3 48b7 e8b4
-8.3550385e-06 -1.5101592e-05 1.28883385e-05 9.8569e-06 1.8356768e-05 -2.30106e-06 -8.493801e-06 6.0809716e-06
-1.2298868e-05 -1.4872377e-06 1.1448914e-06 1.3517245e-05 -9.541809e-06 2.9696741e-06 -4.839818e-07 -6.7514034e-06
6.7993587e-06 4.211093e-06 -3.661808e-06 -5.9749377e-06 -2.2040972e-06 3.2806417e-06 9.209524e-06 -3.824835e-06
4.266939e-06 -4.2557413e-06 -4.072498e-06 -1.6066535e-06 -3.3546848e-06 1.9459137e-06 -1.1715919e-06 4.13377e-07
-2.1183228e-06 -3.4097623e-06 3.4387297e-06 -1.102255e-06 5.0484605e-06 1.0801825e-06 -7.5981586e-07 1.2693317e-06
-3.926469e-06 2.4966623e-06 -9.689967e-07 1.3719749e-06 -1.8829287e-06 1.644599e-06 -7.4330165e-07 -1.4380896e-06
-4.232882e-06 -5.483668e-06 2.3554583e-06 3.7198658e-06 6.884126e-07 9.1429575e-07 -5.1469624e-06 3.2166374e-06
-7.5155613e-06 3.7020743e-06 8.251724e-07 4.696018e-06 9.2882567e-07 -5.537455e-07 3.097432e-06 -1.211372e-06
4.2028003e-07 -1.42505e-07 -1.5278404e-06 -2.1902488e-06 -2.9607406e-07 7.9512074e-07 -5.852397e-07 -1.5802912e-06
-9.4183775e-07 4.0097816e-06 -9.992542e-07 1.8759325e-06 1.6857888e-06 1.6526649e-06 -4.0892925e-07 -1.767348e-06
7.435582e-06 4.0818162e-07 -3.0594067e-06 -6.9559765e-06 3.1159334e-07 5.5861483e-06 1.2928064e-05 -9.92352e-07
3.363967e-06 -6.43836e-06 -9.0922595e-06 -4.3707178e-06 -5.0625895e-06 5.167751e-06 -1.1037883e-06 1.8741608e-06
4.6405494e-06 1.04276205e-05 -1.1196424e-05 -9.293267e-06 -9.905232e-06 7.980344e-07 4.3550315e-07 -7.4527384e-06
5.357862e-06 6.268012e-06 2.2020722e-06 1.8449084e-06 6.9441644e-06 -8.2800085e-07 8.7285196e-07 -1.1159159e-06
-1.2326352e-06 -5.161313e-06 2.0418859e-06 -3.2315936e-07 4.376765e-06 1.807543e-06 -3.1065902e-06 1.5235106e-06
-2.7377744e-06 1.1764805e-06 -2.9103417e-06 2.755559e-06 -1.642376e-06 1.8855011e-06 2.5732086e-06 -1.0262628e-06
-1.5463884e-06 -3.4331665e-06 1.1488095e-06 -1.3873138e-06 3.8117532e-06 1.6982077e-06 -1.1019135e-06 6.7513145e-07
-3.6745666e-06 2.8913194e-06 -1.9909255e-06 -1.2422744e-07 9.259612e-07 3.1469076e-06 -7.7336404e-07 -2.6622217e-07
1.4804498e-05 3.2734029e-06 9.766504e-07 -4.6029168e-06 1.1511243e-06 8.802514e-07 1.5608332e-05 -1.5370923e-06
8.328344e-06 -1.3973076e-05 -7.3727383e-06 -8.184078e-06 -1.4206178e-05 7.220712e-06 -3.4374498e-06 1.0702151e-06
1.5843464e-07 -2.8593952e-06 2.2223496e-06 -7.565557e-07 3.845955e-06 1.4606156e-06 -4.562572e-07 2.3324808e-06
-2.6547475e-06 -6.439974e-07 -4.1635685e-06 -2.2348006e-06 -7.8509106e-07 1.3301247e-06 4.3451828e-07 2.7699364e-06
-6.760582e-07 1.365147e-07 1.1461133e-06 -6.9219034e-08 1.5643505e-07 3.8932558e-07 -2.990163e-08 -4.5174562e-07
-1.1609336e-06 8.7053223e-07 1.4318368e-06 1.2527423e-06 -1.0748099e-06 -4.6997604e-07 -4.5567128e-07 -9.951838e-07
-1.8076719e-08 -1.0514555e-06 7.857319e-07 -1.7078361e-07 1.2021756e-06 6.027818e-07 -5.6361847e-07 -1.3875277e-08
-1.7849186e-06 7.6178566e-07 3.5325492e-08 1.076809e-06 -7.229546e-07 4.8789883e-07 -3.2942475e-07 -2.9740082e-07
-3.8756605e-07 -9.4235224e-07 9.423914e-07 -1.9408835e-06 1.6266475e-06 2.8031423e-06 -6.978497e-07 4.1176258e-07
-6.6431977e-07 2.1637408e-07 -1.8687484e-06 6.98648e-07 -1.6014613e-06 4.969092e-07 1.043026e-06 -1.3572019e-07
-1.0189088e-06 -9.976065e-07 9.0168425e-07 7.0870897e-07 1.0082324e-06 -2.7780956e-07 -2.2060865e-06 1.7141784e-07
-1.630533e-06 1.7882963e-06 6.7029026e-07 1.1993088e-06 -1.7172641e-07 7.975541e-07 -6.41636e-07 -3.0118557e-07
-4.9422255e-07 -9.354803e-07 9.614586e-07 2.897065e-07 6.000758e-07 3.129944e-07 -3.6393965e-07 -3.8851692e-07
-2.285832e-06 1.5136266e-06 1.821575e-06 1.2198522e-06 -1.6080037e-06 -1.2249457e-07 -8.733196e-08 -4.3346722e-07

exp_avg_sq f4 [784, 16]
00000000: 5997 5a32 7b66 8c32 0a5d 6432 7ca9 4a31
00000010: 63a8 1f32 63aa 4a30 165a 1a32 7fb7 fe30
00000020: 85e0 4431 2806 9b31 e627 4932 0500 1a32
00000030: 612d 8e32 8e97 f632 bd30 e131 ad29 e630
00000040: 6783 1731 2a0f 8131 5d07 4731 fbaf 5931
00000050: 83d8 3431 7596 5d30 760a 6731 0ffb 2731
00000060: 492e f830 4a23 be30 76e6 2b31 203c 8230
00000070: 9d2b 0530 e364 0231 3749 1f2f ef66 412f
00000080: 335b 1e30 bb1c a130 67e4 3130 d709 0730
00000090: 24c7 c830 b936 7c2f 3841 1130 b921 a32f
000000a0: f7af 1f31 1954 1331 cdfc de2f fe93 ab2f
000000b0: 72ee 672f 46d5 3f30 b628 5a2f 907c 5d2f
000000c0: e100 8730 ca73 4c31 3a35 f530 2aae e030
000000d0: 6972 0531 a963 022f 51ab 5d30 fe75 0a31
000000e0: 8ca3 3b31 c552 6130 8413 7730 0bc6 fc2f
000000f0: 2292 3330 f4a7 8530 6319 6630 4e2d d52f
00000100: bd29 1c2e 4dc3 7330 cbb0 952f b869 e22e
00000110: 5113 b52f 241c 672d 9533 e62e f7b3 222f
00000120: b06b 0030 af3b 4530 1f05 8b2f 59e2 0f30
00000130: c864 3d2f 45f0 1e30 c221 352d 3ce5 4a2f
00000140: 0b85 4231 05ed 5931 b3f2 3131 589b 2d31
00000150: 85e8 1431 c69d 0e31 1c6c c631 81f9 f930
00000160: 80cb 0731 9f45 8731 b151 a831 7492 af30
00000170: 4589 5a31 ae0f e330 c7ac 462f dd02 0f30
00000180: 3e3f c92f 334a 9630 ecb2 b630 a3be 4330
00000190: 90f7 c730 2416 0e30 5355 3931 bac3 4030
000001a0: ca42 4830 6f73 5031 ee42 d32f 12b8 fa2f
000001b0: cc0d d730 1a1d 2c30 e094 4230 8d04 522f
000001c0: 4eca 1030 5ed9 e530 c628 3230 5940 b030
000001d0: ca76 b530 20bf 5c30 24ac 7730 76b4 f12f
000001e0: 2fa7 fa2f 9fb3 3030 9944 3331 b690 9330
000001f0: 3fe9 bd2f 9d23 3530 68ea b530 66fa c62f
00000200: 8a39 862f 81c4 3231 ca32 7f2f 8e71 1c30
00000210: 6555 0d31 565c 4530 db69 1c2f 17d4 ad2f
00000220: 4727 2531 1914 c530 686d f630 4e90 5a2f
00000230: 8491 1130 42ad 2931 58ef 292f e9ec f22d
00000240: ebdd e831 d39f 9430 b12f 0430 cf8c 8730
00000250: c82c f62f d297 dd2e c315 e431 aa18 f82f
00000260: 795e 3031 4fbf bd31 551d 0331 331b 2d31
00000270: 0460 bd31 b6c1 f930 0ca0 b72f 1223 de2e
00000280: 5109 3630 d4d0 a131 e535 5030 8e2e 4330
00000290: a807 9930 508c b730 62a8 4a30 9fa2 e030
000002a0: 6d76 8d30 7ad5 4330 d5f9 6a31 b8be d12f
000002b0: 9f1b 3630 2802 f530 c4f0 1130 e4b9 d630
000002c0: 2168 f22e 5075 9b2e 042c 2030 d7d2 552e
000002d0: c2e8 762e 0352 a62e 60ee 452f 7b5b 322e
000002e0: a62e 7d2f e2ac 012f cff0 2b2f 794d 3d2f
000002f0: 018b c02f a168 932e 9068 8d2e 787a 612f
00000300: 584b e22d d262 1c30 c1cd c12f 610c 892e
00000310: 36bb 0c30 c65e 592e 420c fe2e 0e81 812f
00000320: b0d9 fe2f c53d 9d2e 9df7 dc2e 3b2c 7a2e
00000330: d091 ee2f 307a 3f2f a637 d82d 5c00 2e2e
00000340: d303 452f 8afc c830 6be9 6330 3070 2930
00000350: af09 8a30 0535 c52f 39d3 d62f f401 f02f
00000360: 0fbf f62f 17e0 9d2f a958 2930 2708 1830
00000370: 4906 5a30 9735 0030 004f 8e2f 1843 122f
00000380: afd6 862e ecb3 b82f 42c2 ce2f f734 092f
00000390: 1786 d42f 89a1 be2e 2c08 e42f a7fe 162f
000003a0: d423 b52f b2e6 2c30 f108 832e 4ec4 422f
000003b0: a2c1 1930 bc13 7e2e fda2 8f2e d6ad 892e
000003c0: 644f 512e 812c 342f 6714 3f2f baf3 a82e
000003d0: 7c86 582f c5e1 362f 2ecf 982f 33f3 9b2e
000003e0: 5340 e32f ee56 0630 ad63 a72f b7c1 f02e
000003f0: b8c9 0230 4950 402e b9ba 3d2e 24ce 702e
1.27236826e-08 1.6344748e-08 1.3292501e-08 2.949121e-09 9.293305e-09 7.3729306e-10 8.984463e-09 1.8533085e-09
2.8649378e-09 4.5117936e-09 1.1708812e-08 8.963984e-09 1.6551612e-08 2.8707088e-08 6.5539028e-09 1.6746547e-09
2.2048086e-09 3.756118e-09 2.8962497e-09 3.167769e-09 2.631652e-09 8.0613144e-10 3.362087e-09 2.4444409e-09
1.805753e-09 1.3834349e-09 2.5014777e-09 9.475833e-10 4.8447096e-10 1.8974837e-09 1.4486977e-10 1.7589817e-10
5.7609667e-10 1.1722457e-09 6.4716804e-10 4.9126697e-10 1.4608514e-09 2.2938708e-10 5.2843374e-10 2.967349e-10
2.323757e-09 2.143912e-09 4.056119e-10 3.1209874e-10 2.109404e-10 6.9788475e-10 1.9841448e-10 2.0144086e-10
9.822793e-10 2.9751726e-09 1.7841224e-09 1.6347645e-09 1.9419082e-09 1.1858838e-10 8.0642787e-10 2.0148714e-09
2.7305047e-09 8.1972146e-10 8.988581e-10 4.597925e-10 6.532749e-10 9.724759e-10 8.370959e-10 3.8776665e-10
3.5507364e-11 8.8680424e-10 2.722856e-10 1.02960696e-10 3.2937433e-10 1.3137078e-11 1.0468352e-10 1.479775e-10
4.671916e-10 7.1753e-10 2.5287591e-10 5.2344756e-10 1.7225255e-10 5.782151e-10 1.02961546e-11 1.8453233e-10
2.8306342e-09 3.1712386e-09 2.5894848e-09 2.5263116e-09 2.1669007e-09 2.0753403e-09 5.774849e-09 1.8188048e-09
1.9760762e-09 3.936932e-09 4.8987308e-09 1.277455e-09 3.1801204e-09 1.652088e-09 1.8069378e-10 5.2027166e-10
3.6606623e-10 1.0935025e-09 1.3293096e-09 7.12115e-10 1.4549517e-09 5.1690763e-10 2.6969544e-09 7.012734e-10
7.285449e-10 3.03336e-09 3.8428233e-10 4.5605525e-10 1.564723e-09 6.261459e-10 7.0788353e-10 1.9101005e-10
5.2674387e-10 1.6723722e-09 6.4813965e-10 1.2823974e-09 1.3203245e-09 8.030714e-10 9.0102703e-10 4.396587e-10
4.5593526e-10 6.4283684e-10 2.6086922e-09 1.0736787e-09 3.454463e-10 6.5898026e-10 1.3236106e-09 3.619391e-10
2.4415342e-10 2.6014109e-09 2.3210159e-10 5.691384e-10 2.0566742e-09 7.17994e-10 1.4225725e-10 3.1619216e-10
2.4032987e-09 1.4339349e-09 1.7929951e-09 1.9878252e-10 5.2957483e-10 2.4691222e-09 1.5455492e-10 2.7617424e-11
6.777318e-09 1.0813842e-09 4.8089094e-10 9.862563e-10 4.4778958e-10 1.0076885e-10 6.6381474e-09 4.5128462e-10
2.5665072e-09 5.5223732e-09 1.9079682e-09 2.5190274e-09 5.5115397e-09 1.817219e-09 3.3401226e-10 1.0101621e-10
6.6224454e-10 4.7094577e-09 7.574655e-10 7.1006745e-10 1.1134391e-09 1.3354882e-09 7.372646e-10 1.6344365e-09
1.0292759e-09 7.1243955e-10 3.4193495e-09 3.8152392e-10 6.6250466e-10 1.7826709e-09 5.309284e-10 1.5623383e-09
1.1023383e-10 7.069423e-11 5.827021e-10 4.8617856e-11 5.6140655e-11 7.563374e-11 1.8001733e-10 4.0553765e-11
2.3026789e-10 1.1793902e-10 1.5637912e-10 1.7216974e-10 3.5023365e-10 6.703372e-11 6.430512e-11 2.050714e-10
2.5726685e-11 5.68929e-10 3.5252692e-10 6.2322376e-11 5.1197746e-10 4.9424263e-11 1.155276e-10 2.3556662e-10
4.6357007e-10 7.150506e-11 1.0048427e-10 5.6882703e-11 4.3395554e-10 1.7414759e-10 2.458107e-11 3.956334e-11
1.7918404e-10 1.4623691e-09 8.2913826e-10 6.164127e-10 1.0043574e-09 3.5871764e-10 3.9076456e-10 4.3657133e-10
4.4882895e-10 2.871736e-10 6.1607835e-10 5.5308863e-10 7.931687e-10 4.6642284e-10 2.5885782e-10 1.3302459e-10
6.13175e-11 3.3597247e-10 3.760921e-10 1.2478894e-10 3.8657852e-10 8.668894e-11 4.1478765e-10 1.3732891e-10
3.2949166e-10 6.2901073e-10 5.9587786e-11 1.7713939e-10 5.5936245e-10 5.777044e-11 6.5318397e-11 6.260918e-11
4.759161e-11 1.6386716e-10 1.7378597e-10 7.68305e-11 1.9692864e-10 1.6633013e-10 2.779585e-10 7.091785e-11
4.1336765e-10 4.887245e-10 3.0447947e-10 1.0948347e-10 4.7580384e-10 4.3727053e-11 4.3139468e-11 5.4752772e-11

exp_avg f4 [16]
00000000: 3152 1d3a d021 d33a 9272 29ba c9af 17ba
00000010: 9d8b 363a ac73 58b9 6307 0b3a 654d 38ba
00000020: b39b 0aba 2be0 6eb9 9662 b9b9 26a0 0c39
00000030: ab37 c639 8609 f8b9 89d6 2bba 3d1f b437
0.0006001322 0.0016108099 -0.00064639107 -0.0005786387 0.0006963553 -0.00020642456 0.000530353 -0.00070305757
-0.0005287483 -0.00022780958 -0.00035359402 0.000134111 0.0003780698 -0.00047309342 -0.00065551006 2.1472219e-05

exp_avg_sq f4 [16]
00000000: 0f47 e537 d6c9 ab37 00fb 5d38 e833 cc37
00000010: b3d0 3238 6337 b637 8b54 d537 0f81 1238
00000020: 0ac2 a937 7383 2038 b308 9537 a37f 1c38
00000030: dd73 9c38 bb7f 9b37 74e5 e637 4750 8337
2.7332017e-05 2.0478776e-05 5.2924268e-05 2.4342866e-05 4.2632873e-05 2.1721882e-05 2.5430947e-05 3.4929308e-05
2.0236726e-05 3.8269394e-05 1.7766235e-05 3.731217e-05 7.460241e-05 1.8536919e-05 2.7524984e-05 1.5653799e-05

exp_avg f4 [16]
00000000: b90c 2939 c26d 0cba e54c ee39 6f4a 0f39
00000010: 88b7 ca39 0f3f 1039 ec77 af39 5a06 043a
00000020: 28a0 54b9 73c6 35ba 63ec a4b9 e021 72b9
00000030: bceb 4cba 5ab4 8039 ccc1 da38 fbdc 0e39
0.00016121836 -0.00053569314 0.00045452188 0.00013665271 0.00038665184 0.00013756401 0.0003346795 0.0005036347
-0.00020277558 -0.0006934173 -0.0003145664 -0.00023091538 -0.00078171096 0.00024548435 0.000104311475 0.00013624497

exp_avg_sq f4 [16]
00000000: 0a0e 1437 a291 8c37 c3d5 8437 a381 fc36
00000010: 4fec 1437 ea8f b636 6cf0 a137 d9b5 b136
00000020: 3bc7 5d37 e368 ac37 9963 3837 08b1 5337
00000030: 526d 7b37 f10a ef36 7581 0037 02ff ba36
8.824756e-06 1.6757116e-05 1.5835167e-05 7.525277e-06 8.876507e-06 5.4407765e-06 1.930465e-05 5.296181e-06
1.3219013e-05 2.055284e-05 1.0990444e-05 1.2617798e-05 1.4986219e-05 7.124029e-06 7.659536e-06 5.572919e-06

exp_avg f4 [16]
00000000: 36f1 a239 7f95 a53a bd2e d3b9 dc7e 9cb9
00000010: 578a ee39 2125 00b9 bccc d739 e4a1 32ba
00000020: 7d7b 17ba 1a83 c3b8 8429 9eb9 0d0f 8539
00000030: 4441 d539 a690 eab9 06be 14ba 5e5a 3f38
0.00031078764 0.0012633054 -0.0004027988 -0.00029849156 0.0004549797 -0.00012220863 0.00041160535 -0.0006814285
-0.0005778594 -9.322744e-05 -0.0003016704 0.0002537895 0.00040675153 -0.0004473973 -0.00056740677 4.562211e-05

exp_avg_sq f4 [16]
00000000: 3a78 4837 a16d 8437 116f b637 7561 a037
00000010: e738 d037 6a2a a437 b3ed 6637 1266 b337
00000020: 700c 4e37 82d6 d737 0520 5237 677d ea37
00000030: bd41 3938 cb24 8537 66e8 9437 7d7a e036
1.1948921e-05 1.5786676e-05 2.174781e-05 1.9118868e-05 2.482203e-05 1.9570074e-05 1.3764412e-05 2.1385993e-05
1.2281453e-05 2.5729885e-05 1.25244305e-05 2.7953369e-05 4.416866e-05 1.5871969e-05 1.7751194e-05 6.6899797e-06

exp_avg f4 [16]
00000000: 6404 4c39 52e1 d6b9 d635 a939 2367 d538
00000010: b1b7 8039 7eca 0e39 538b b639 01a2 b439
00000020: 4e6d 37b9 61bf 2aba 139c 90b9 92fe 93b9
00000030: 2b5d 4cba 1088 5d39 f0ba c438 d557 2739
0.00019456592 -0.00040985137 0.00032274303 0.00010175842 0.00024550923 0.0001361761 0.0003481755 0.00034452978
-0.00017492959 -0.0006513503 -0.00027582105 -0.00028227695 -0.00077958655 0.0002112689 9.380828e-05 0.00015959081

exp_avg_sq f4 [16]
00000000: 8f1a e036 c03c 1b37 fdb6 fe36 12f2 0537
00000010: b5bd 9236 66e9 8336 a915 3d37 3cf0 7d36
00000020: 3a82 dd36 2e30 6f37 1edb b736 7c4c 1437
00000030: 128c 0b37 37e8 8d36 38c5 b036 5d1f 3f36
6.678812e-06 9.252864e-06 7.5910925e-06 7.983779e-06 4.373224e-06 3.9312754e-06 1.1270321e-05 3.7839773e-06
6.6014736e-06 1.4256728e-05 5.4793336e-06 8.839295e-06 8.317658e-06 4.229161e-06 5.268168e-06 2.8479474e-06

exp_avg f4 [48, 16]
00000000: 5575 8335 6928 8cb5 99b3 81b6 2258 0736
00000010: ec74 93b5 ef7c 98b5 21df 0c36 232c 32b5
00000020: 8a09 6836 6b86 3ab6 c4b0 4f36 773d 8d35
00000030: 3dbd 0e36 8554 5331 6a44 90b6 5da7 f6b3
00000040: d4d2 dcb5 76be 48b5 52a5 c2b4 4122 ce36
00000050: 28cc 90b5 b6e9 9b36 a360 e5b5 df8e 0a36
00000060: 6aa2 5ab6 130b 3336 b619 4736 ffc6 02b7
00000070: 52d0 0637 8ff7 3ab6 98b9 7bb4 23f7 b7b6
00000080: 7cce ccb6 253a f0b4 64ee cfb5 5522 eb35
00000090: c2b5 32b6 6ffe 1437 da01 b436 cef6 6336
000000a0: a7ef 93b6 6354 0fb6 2471 9b36 2c7b 2fb6
000000b0: 8a15 8c36 8392 2bb7 0045 6b36 72a8 03b6
000000c0: add1 b2b5 c78a 8635 3bda ce35 db5f cfb6
000000d0: 6f3e 2db6 46db c636 f8fd 1635 67a3 e235
000000e0: a41a 79b6 b54c 25b6 ea61 c8b4 54c9 0137
000000f0: 5cb8 a7b6 09ad 37b4 121d 95b5 755b 3d36
00000100: e775 2137 fbf4 9ab4 2c9d 1537 501f 4636
00000110: 4aa5 d235 b7f2 d1b6 0d54 cfb6 b9b8 65b6
00000120: 22c6 08b6 b7cf e736 8f27 59b6 460d d334
00000130: f60a 48b7 93f2 5637 83e7 f9b6 d2ce bdb5
00000140: 2b90 dcb6 ecb9 d735 b349 4136 3650 8236
00000150: b47e 1b31 4269 ec36 6c3b 5d36 b682 1336
00000160: 50c9 c8b6 43d9 89b6 f8ea 8b36 fd98 f6b5
00000170: b9d5 9a36 57ba 42b7 f74b 9736 5a53 a0b6
00000180: ddaa acb6 cb2d 1136 7126 3bb6 f862 8d36
00000190: a40c 31b5 29ce e7b5 2ffa 4c36 f43b ecb5
000001a0: 0915 8d36 ccd9 11b6 3b33 cc36 6104 82b6
000001b0: 0969 fb36 f2b8 14b7 d3d5 b335 096e ecb5
000001c0: 8e47 45b7 c074 2136 8c1d d1b5 5b1e b236
000001d0: 69b9 50b6 b0a8 e436 afb3 39b6 52fc 0f37
000001e0: 15a9 f9b6 bb01 4835 8a11 0f36 90df d3b6
000001f0: 2691 0b37 fce3 0cb7 10c5 0537 45d9 b9b5
00000200: 55a9 09b7 bd64 2035 ae3e 96b6 b198 d536
00000210: 29de 5335 8fb5 5e36 730a 2f35 a691 f435
00000220: b57e 21b6 fb49 46b6 13aa 4735 cb30 5635
00000230: 5ac8 8336 3807 0bb7 2c39 8236 7191 0536
00000240: 0029 03b7 0d1e dbb4 8d87 d5b5 a7bc 6a33
00000250: 12aa 41b6 319b 1537 3d79 b836 62b3 46b6
00000260: ad87 6ab6 b6b2 f5b5 639f 95b6 c649 5136
00000270: ba80 7536 9bad 25b7 6236 2c37 c7fd 4736
00000280: f75d 9535 69f5 b333 3f3a e4b4 9005 2eb7
00000290: 948f dbb6 1334 a436 51a4 0336 8445 27b6
000002a0: 0182 1436 d09d 1035 7e61 41b6 df1b c536
000002b0: 9e76 ee35 68d9 4ab6 9684 ae36 d4c5 0936
000002c0: 6e4f 8fb6 a710 de35 2560 22b6 38ea 2f36
000002d0: 9969 59b5 2c9f f035 1796 c834 55a9 3b35
000002e0: 6bb3 f2b5 9dac f8b5 bee0 8cb1 2c51 f934
000002f0: 76bd 3d36 9e48 7db6 480f 4236 015f 7635
00000300: 4ef0 7936 251c 71b3 b012 f235 1b3a 31b7
00000310: 1455 43b6 e450 2336 8f67 f834 77cb 86b6
00000320: 613c ec36 2a8d 3235 e087 dab4 d34a b736
00000330: 5aec bdb5 2e31 b4b5 77de d2b5 1381 4935
00000340: 7bb0 2136 de6a 2b37 aae8 aa36 520e af36
00000350: ec81 d2b5 f3d8 21b7 6fe2 a4b6 c994 f436
00000360: 9e05 27b6 8161 9435 90b4 b934 006e adb6
00000370: c3a1 93b6 a35a 1f37 3e55 26b7 8e69 20b6
00000380: 6c93 8836 02fb 7d34 44d1 60b6 83a4 a1b6
00000390: e6e6 11b6 29d8 8a36 a600 52b6 9246 86b5
000003a0: e734 b036 8430 5b35 b04f 3136 c743 01b6
000003b0: 895a f9b5 9d58 8936 1be2 20b6 fa82 b2b4
000003c0: 6323 15b5 afea 6536 5568 41b3 b3ed 33b6
000003d0: e141 68b5 85e2 d9b5 a02f 80b6 c8e6 8e35
000003e0: cf7d 6b36 8645 32b5 bd74 c435 1d1c f835
000003f0: 8862 1334 ad7b e435 2f23 38b6 e04e 15b5
9.794409e-07 -1.0442574e-06 -3.8654075e-06 2.0167868e-06 -1.0986382e-06 -1.1361243e-06 2.0991504e-06 -6.6374395e-07
3.4576246e-06 -2.7794401e-06 3.0948295e-06 1.0523207e-06 2.12698e-06 3.0752585e-09 -4.299499e-06 -1.1485711e-07
-1.6452636e-06 -7.4782963e-07 -3.6255602e-07 6.143266e-06 -1.0788253e-06 4.6465675e-06 -1.7089955e-06 2.0646764e-06
-3.2579069e-06 2.6679525e-06 2.9668277e-06 -7.794936e-06 8.035526e-06 -2.7860258e-06 -2.3443715e-07 -5.4825955e-06
-6.1037117e-06 -4.474579e-07 -1.5492083e-06 1.7518856e-06 -2.6629864e-06 8.880727e-06 5.3646336e-06 3.3969295e-06
-4.4088406e-06 -2.135778e-06 4.6325313e-06 -2.6148728e-06 4.1748326e-06 -1.0226507e-05 3.5057892e-06 -1.961857e-06
-1.3323057e-06 1.0024168e-06 1.541171e-06 -6.18024e-06 -2.581535e-06 5.9263866e-06 5.624893e-07 1.6885868e-06
-3.7119398e-06 -2.4631565e-06 -3.7324145e-07 7.7358745e-06 -4.99845e-06 -1.7106153e-07 -1.1109826e-06 2.821643e-06
9.623799e-06 -2.8862982e-07 8.9176865e-06 2.9522525e-06 1.5694325e-06 -6.256941e-06 -6.1788655e-06 -3.4231182e-06
-2.0380908e-06 6.9085177e-06 -3.2358546e-06 3.931147e-07 -1.1923481e-05 1.2811873e-05 -7.44773e-06 -1.414179e-06
-6.5732943e-06 1.6072859e-06 2.880214e-06 3.8836397e-06 2.262749e-09 7.0456017e-06 3.2966154e-06 2.198079e-06
-5.9839003e-06 -4.1082108e-06 4.169877e-06 -1.8372954e-06 4.6144382e-06 -1.1606687e-05 4.508994e-06 -4.778075e-06
-5.1458906e-06 2.1633339e-06 -2.7887547e-06 4.213649e-06 -6.595603e-07 -1.7270842e-06 3.0543995e-06 -1.7600819e-06
4.2045763e-06 -2.1733458e-06 6.085638e-06 -3.8748117e-06 7.4926106e-06 -8.864548e-06 1.339877e-06 -1.7615395e-06
-1.1758775e-05 2.4058827e-06 -1.5580313e-06 5.308347e-06 -3.1102338e-06 6.8145673e-06 -2.7671738e-06 8.582212e-06
-7.440462e-06 7.4508324e-07 2.131887e-06 -6.314316e-06 8.318841e-06 -8.397732e-06 7.9733e-06 -1.3846808e-06
-8.205262e-06 5.975124e-07 -4.4776452e-06 6.3656703e-06 7.892691e-07 3.3186259e-06 6.5207786e-07 1.8221806e-06
-2.4064623e-06 -2.9547361e-06 7.438077e-07 7.9792216e-07 3.927428e-06 -8.286726e-06 3.8809576e-06 1.9903202e-06
-7.8177545e-06 -4.0813794e-07 -1.5909187e-06 5.465395e-08 -2.8858235e-06 8.917225e-06 5.4977413e-06 -2.9608714e-06
-3.494769e-06 -1.8305934e-06 -4.459101e-06 3.1186369e-06 3.6582774e-06 -9.875187e-06 1.0264661e-05 2.9801029e-06
1.1128712e-06 8.379977e-08 -4.251069e-07 -1.0372503e-05 -6.5434233e-06 4.893643e-06 1.9616166e-06 -2.4925403e-06
2.212939e-06 5.387383e-07 -2.881599e-06 5.874302e-06 1.7766904e-06 -3.0226893e-06 5.201039e-06 2.0529742e-06
-4.270979e-06 1.6545135e-06 -2.4195845e-06 2.6213365e-06 -8.0992464e-07 1.7927719e-06 3.7362108e-07 6.990934e-07
-1.8082623e-06 -1.8527677e-06 -4.1000865e-09 4.6438925e-07 2.8273475e-06 -3.7742207e-06 2.8917148e-06 9.178039e-07
3.7243767e-06 -5.6137782e-08 1.8035844e-06 -1.0563551e-05 -2.9106786e-06 2.4335977e-06 4.6268948e-07 -4.0171976e-06
7.040377e-06 6.651559e-07 -4.0704526e-07 5.4625357e-06 -1.4150385e-06 -1.3425358e-06 -1.5710965e-06 7.506616e-07
2.4093595e-06 1.0217276e-05 5.0934805e-06 5.2170735e-06 -1.5684031e-06 -9.64686e-06 -4.913941e-06 7.2890875e-06
-2.4888209e-06 1.1055237e-06 3.4590312e-07 -5.1686075e-06 -4.399773e-06 9.4982415e-06 -9.914218e-06 -2.3903299e-06
4.070278e-06 2.3653777e-07 -3.350041e-06 -4.8173256e-06 -2.1741084e-06 4.137885e-06 -3.1292816e-06 -1.0004317e-06
5.2513674e-06 8.1654457e-07 2.642144e-06 -1.926195e-06 -1.8578295e-06 4.093234e-06 -2.3973469e-06 -3.3250382e-07
-5.555832e-07 3.4260263e-06 -4.5031204e-08 -2.6811438e-06 -8.65226e-07 -1.6233686e-06 -3.8202415e-06 1.0646991e-06
3.509096e-06 -6.641134e-07 1.4637113e-06 1.8485622e-06 1.3726287e-07 1.7023318e-06 -2.7438616e-06 -5.5621604e-07

exp_avg_sq f4 [48, 16]
00000000: 6790 1a31 c385 3730 a50f 1b30 07c2 2030
00000010: 491a 2130 d8c0 4b30 19cd 8430 e7c9 2531
00000020: a850 2031 9509 8a30 4919 7830 d971 d62f
00000030: 405d 1b30 d96c da30 ec26 a730 e933 1e30
00000040: e8d6 e831 31cd a230 528b 6f31 8ac4 2f31
00000050: 7d11 0d31 378b 0732 4ff0 9931 9b73 1531
00000060: 5be9 1031 f43d 8331 0c76 fd30 eeb0 ad30
00000070: 18fa ea31 e5fa c932 727a 0532 0c44 7230
00000080: 334d c630 f4aa 4430 6f1c 4c30 db51 5730
00000090: bd6b bb30 78a3 9830 63a9 8d30 327d c630
000000a0: d607 a030 13e0 9a30 7739 4c30 60df 6430
000000b0: c806 6630 29dd 6931 df3a b630 e9cd e02f
000000c0: c206 6e31 49ee a130 5e96 0331 8feb 1631
000000d0: 3244 ca30 9944 0931 83b0 2431 4c08 1f31
000000e0: 53b1 df30 777a 4f31 cdf6 b230 568a cf30
000000f0: fcf3 6931 36f3 3532 e95c 8c31 cced 4d30
00000100: ab70 7031 a44e 3130 14dc a130 46a7 8630
00000110: 5a31 8630 c2cd 8e30 80f7 4530 35e9 3d31
00000120: f9ba 4d31 062b ae30 79f5 2230 25ab b930
00000130: f920 a630 1b89 2131 5396 1531 7490 7830
00000140: 7b7c 1331 0b8f df30 034f 3f30 2b6e 4230
00000150: 7e29 fd30 d8a2 2130 39bd db30 94b4 1831
00000160: 81cf 0631 6011 c230 0da4 0031 3134 a930
00000170: 14bb 4b30 a0a4 bb30 dc0d e330 8549 3e30
00000180: 1ca5 cf30 e0aa 0330 dc06 e42f 0765 3030
00000190: 89b0 1e30 41fa 5730 1e91 0e30 57a1 4730
000001a0: 092c 4230 dd0b 5830 1a13 0730 edc9 e52f
000001b0: c5f0 d030 36d1 a331 129b f330 a308 962f
000001c0: 550e 4931 a332 1631 9854 6730 70a6 9d30
000001d0: 36d3 d630 8725 3230 ccd4 0831 3fdb 8331
000001e0: 4455 3931 e624 0e31 0649 0131 c554 9030
000001f0: 64fa 8c30 fa93 0d31 326c 3331 037d 5930
00000200: f950 d430 d7eb ed2f 2684 5830 8fbf 5c30
00000210: 78e0 f52f 0b43 0030 5384 0430 22c6 9330
00000220: 88e7 0330 13ad 0d30 52e5 842f 2de4 bf2f
00000230: 9ebe bb30 6fef 2d31 301c a830 724d 4e2f
00000240: 0d57 1231 106f 9630 3231 6b30 a952 a030
00000250: 1858 ac30 c227 1e31 69d8 2c30 5925 2e31
00000260: 71b0 b330 b94d e730 19f5 2b30 aeab 4b30
00000270: cc09 e430 de39 8031 4545 1b31 549d 3130
00000280: 0afe 1131 3cb1 8030 8a3e 4f30 9db7 a630
00000290: 8b54 c430 fd54 0031 4af6 df2f 065e f030
000002a0: 3d59 c530 3fbc f330 12a7 0230 1bb6 fe2f
000002b0: b74e cd30 b6f0 a331 fa42 5c31 ebac 0c30
000002c0: aa97 9e2f 81a8 f32e 365c 5e2f ed9f 1e2f
000002d0: 169f 722f 9020 2f2f ca74 f92e 5a70 362f
000002e0: 9ca8 3f2f f645 f22e 1995 c32e 7312 3a2f
000002f0: 715e 852f 6062 e72f 5a5b 7d2f 015a aa2e
00000300: 7475 3331 b82e 2c30 41ae 9f30 bf6d d730
00000310: 2247 d230 bcea b630 9eb1 6430 bd6e 9b30
00000320: 1657 cb30 7ec3 7e30 1bb6 3130 ae71 8830
00000330: 3931 f330 422e 7931 cb98 0031 9a46 3330
00000340: 640a de31 ddb8 1031 4440 ae31 7be9 6331
00000350: 65fa aa31 db0f c931 474f a630 2e5a e231
00000360: 14f0 bd31 9878 2f31 ae8c f230 740e bd31
00000370: 894f 6031 91b2 0432 50ba f631 0620 5931
00000380: 7979 6d31 cf38 ce30 27d9 5b30 6447 e530
00000390: a810 a030 4c8a 0c31 26d7 db2f a1da b530
000003a0: abaf 3231 5745 8930 debb 3930 35f0 9030
000003b0: 7a89 cf30 5b9e f231 16df 2931 9f18 0d30
000003c0: bf6d f230 813b 2b30 1261 b130 ea92 8f30
000003d0: 2018 b430 4085 a530 7d96 1e30 6afc 9e30
000003e0: 4cb8 a030 63f4 0930 904e ea2f 78a3 a330
000003f0: 7832 9630 53a6 2c31 0bf3 a130 d7e5 1d30
2.2492033e-09 6.67651e-10 5.6410904e-10 5.848339e-10 5.860881e-10 7.412502e-10 9.662556e-10 2.4125428e-09
2.3328912e-09 1.0043545e-09 9.0257807e-10 3.9007267e-10 5.652119e-10 1.5892524e-09 1.2161911e-09 5.7553834e-10
6.7765207e-09 1.184537e-09 3.4858272e-09 2.5577571e-09 2.0528141e-09 7.889688e-09 4.480206e-09 2.1748068e-09
2.1087405e-09 3.819645e-09 1.8441724e-09 1.2637693e-09 6.8387287e-09 2.3513573e-08 7.76946e-09 8.813579e-10
1.4428337e-09 7.1547324e-10 7.4255174e-10 7.833287e-10 1.3636662e-09 1.1105916e-09 1.0307243e-09 1.4441979e-09
1.1643759e-09 1.126866e-09 7.429643e-10 8.326335e-10 8.368315e-10 3.4031677e-09 1.3258975e-09 4.089167e-10
3.46374e-09 1.1782016e-09 1.9148483e-09 2.1961772e-09 1.4716817e-09 1.9975117e-09 2.3965476e-09 2.3142261e-09
1.6275784e-09 3.0192078e-09 1.302135e-09 1.510055e-09 3.4044652e-09 1.0590886e-08 4.085099e-09 7.4916495e-10
3.498864e-09 6.450398e-10 1.1776842e-09 9.797325e-10 9.76381e-10 1.039034e-09 7.20199e-10 2.7635683e-09
2.9937708e-09 1.2672394e-09 5.9284094e-10 1.3509164e-09 1.2087461e-09 2.350652e-09 2.1767803e-09 9.0427155e-10
2.1462074e-09 1.6266041e-09 6.959768e-10 7.0733347e-10 1.8419966e-09 5.8802874e-10 1.5988127e-09 2.2221558e-09
1.9617519e-09 1.4120296e-09 1.8719704e-09 1.2311202e-09 7.4116824e-10 1.365283e-09 1.6520363e-09 6.9226075e-10
1.5108159e-09 4.790035e-10 4.1477832e-10 6.4171995e-10 5.7730937e-10 7.8572177e-10 5.1865523e-10 7.2625056e-10
7.0639367e-10 7.85972e-10 4.913986e-10 4.1798334e-10 1.5202423e-09 4.767709e-09 1.7724651e-09 2.7290978e-10
2.9257496e-09 2.1856656e-09 8.4157525e-10 1.1470558e-09 1.5630579e-09 6.480935e-10 1.9911566e-09 3.837527e-09
2.696951e-09 2.0684694e-09 1.881348e-09 1.0501472e-09 1.0257506e-09 2.0602315e-09 2.610943e-09 7.912179e-10
1.5448044e-09 4.3277623e-10 7.8768136e-10 8.0307755e-10 4.4724735e-10 4.66614e-10 4.8209364e-10 1.075197e-09
4.798655e-10 5.1541454e-10 2.4173602e-10 3.4904826e-10 1.3660217e-09 2.5310916e-09 1.223162e-09 1.8763105e-10
2.1295279e-09 1.0945502e-09 8.556241e-10 1.1665026e-09 1.2539685e-09 2.3014626e-09 6.2880773e-10 2.5341562e-09
1.3074112e-09 1.6829552e-09 6.255774e-10 7.409494e-10 1.6591968e-09 3.731869e-09 2.2594844e-09 6.46158e-10
2.1244682e-09 9.363599e-10 7.5395035e-10 1.2130276e-09 1.4284905e-09 1.8674762e-09 4.0738463e-10 1.7489021e-09
1.4359e-09 1.773408e-09 4.7531146e-10 4.6331725e-10 1.4938085e-09 4.77129e-09 3.2052285e-09 5.1177435e-10
2.8847796e-10 1.1080293e-10 2.0223542e-10 1.4426833e-10 2.206629e-10 1.5927726e-10 1.1343955e-10 1.6592719e-10
1.7431251e-10 1.10173135e-10 8.8940584e-11 1.6923156e-10 2.4259664e-10 4.2088555e-10 2.304267e-10 7.746693e-11
2.6114693e-09 6.2639627e-10 1.1618299e-09 1.5674501e-09 1.5299728e-09 1.3308958e-09 8.3198326e-10 1.1309208e-09
1.4794945e-09 9.2682473e-10 6.465101e-10 9.927612e-10 1.7694567e-09 3.6260563e-09 1.8713304e-09 6.522015e-10
6.4622316e-09 2.105984e-09 5.0713727e-09 3.3165566e-09 4.9761177e-09 5.8516725e-09 1.2100622e-09 6.587718e-09
5.5279177e-09 2.5534401e-09 1.7647801e-09 5.502267e-09 3.26415e-09 7.7240125e-09 7.1807236e-09 3.159586e-09
3.4557088e-09 1.5004619e-09 7.998033e-10 1.6682233e-09 1.1646266e-09 2.0451294e-09 3.998874e-10 1.3231621e-09
2.6002265e-09 9.98777e-10 6.7569583e-10 1.054565e-09 1.5100305e-09 7.06113e-09 2.4719546e-09 5.133049e-10
1.7639009e-09 6.2294e-10 1.2906034e-09 1.0446375e-09 1.310358e-09 1.2043202e-09 5.769392e-10 1.1567753e-09
1.1693913e-09 5.0187604e-10 4.2620174e-10 1.1906272e-09 1.092828e-09 2.5123839e-09 1.1783369e-09 5.744289e-10

exp_avg f4 [48]
00000000: ab08 9236 0461 6435 cb50 f335 4fa8 f9b6
00000010: 2960 9db6 775f 7f36 d34d 2d37 2ee8 d0b4
00000020: 897d d635 7c2d d336 e5cb bd36 beee ce34
00000030: 5124 c136 5604 0eb7 dc22 4136 7a1d 9fb5
00000040: 9227 daac 5933 962c dbaa 3cac ded4 de2c
00000050: 68e3 c0aa 8584 022d 3e44 96ac 6bcb 6c2d
00000060: 8492 772c 1e0f df2c 3ba1 a72c b75c e0ab
00000070: 5555 9aac 37cc d3ab d3d3 88ac dcf4 24ac
00000080: ee37 45b7 a9c3 9e38 bec6 1bb7 01bd eab7
00000090: e4f2 8cb7 29be f236 8512 92b8 5286 86b8
000000a0: 91f0 02b9 6e22 4336 ec75 43b8 9886 b237
000000b0: 5b0e 68b7 7fce 8438 0e01 6d37 f713 db37
4.352148e-06 8.5077795e-07 1.8128425e-06 -7.440372e-06 -4.690159e-06 3.805353e-06 1.0329723e-05 -3.8911952e-07
1.5980778e-06 6.293585e-06 5.6563754e-06 3.8544198e-07 5.756076e-06 -8.464869e-06 2.8779532e-06 -1.1855002e-06
-6.200326e-12 4.268957e-12 -2.681125e-12 6.3332525e-12 -3.4263846e-13 7.41907e-12 -4.270833e-12 1.3460215e-11
3.5182144e-12 6.3397195e-12 4.7643257e-12 -1.5941891e-12 -4.386417e-12 -1.5049133e-12 -3.8888697e-12 -2.3441726e-12
-1.1755137e-05 7.570472e-05 -9.284993e-06 -2.7982986e-05 -1.6802405e-05 7.2342996e-06 -6.965272e-05 -6.414637e-05
-0.00012487384 2.9077305e-06 -4.6601446e-05 2.1281929e-05 -1.383162e-05 6.3327134e-05 1.4126546e-05 2.6116131e-05

exp_avg_sq f4 [48]
00000000: 063e 4931 1930 0232 5163 d230 4388 9f31
00000010: 33a1 1e31 5b58 1f31 c686 a830 c685 8531
00000020: 0d0d 8130 2278 ad30 4d19 e430 cf31 0d2f
00000030: 74fd af30 606f df30 9116 4731 2eca 8730
00000040: 17e5 151c 3093 c11d bd8b df1b 920d be1c
00000050: 6755 311b 89c8 c61c 4a52 931c 7b44 7f1d
00000060: 4e69 3b1b 2af9 f51b 180b 821c a356 3c1a
00000070: 91d5 201b beb5 a31b 9ce5 971a dfdc 611b
00000080: d15b 0e33 c167 6836 4d70 b834 37c5 8534
00000090: 094f bd32 8e27 e232 8e2c 1736 cf98 f233
000000a0: 38e3 8235 7f88 b332 d87b 9634 5ec6 2433
000000b0: e9e9 8d33 27de 4734 91e9 4833 3894 2a35
2.9284606e-09 7.577932e-09 1.5307738e-09 4.643e-09 2.3083657e-09 2.318777e-09 1.2261914e-09 3.8860177e-09
9.389695e-10 1.262155e-09 1.6596374e-09 1.2841571e-10 1.2804962e-09 1.625704e-09 2.8971139e-09 9.880006e-10
4.9596056e-22 5.1238863e-21 3.698256e-22 1.2576653e-21 1.4668692e-22 1.3154378e-21 9.748915e-22 3.3784373e-21
1.5502303e-22 4.0692869e-22 8.605546e-22 3.8947473e-23 1.3303897e-22 2.7083536e-22 6.282309e-23 1.8682931e-22
3.3145458e-08 3.4631087e-06 3.435438e-07 2.4916673e-07 2.2038437e-08 2.632785e-08 2.2526688e-06 1.1296799e-07
9.751884e-07 2.0900414e-08 2.8029785e-07 3.836464e-08 6.608372e-08 1.8614138e-07 4.6778556e-08 6.354562e-07
