models/mnist_gen.ckpt (torch_old, 523290 bytes, 304 tensors)

exp_avg f4 [16]
0	0xb6703e42	-3.5799026e-06
1	0xb7297d0f	-1.0102302e-05
2	0xb623ed13	-2.4426888e-06
3	0xb6454dc8	-2.9400562e-06
4	0x365bdf3c	3.2763483e-06
5	0x371cb682	9.340818e-06
6	0xb6c4244a	-5.84548e-06
7	0xb7567e3f	-1.2784788e-05
8	0x36c7c625	5.953729e-06
9	0x36dae738	6.5238237e-06
10	0x371f5dd9	9.498989e-06
11	0xb62f711b	-2.6142868e-06
12	0xb6e819d7	-6.917147e-06
13	0xb642e91c	-2.904394e-06
14	0x37dacd19	2.6083131e-05
15	0xb730edd7	-1.0545794e-05

exp_avg_sq f4 [16]
0	0x32133908	8.569494e-09
1	0x32122b4b	8.508162e-09
2	0x32b5e893	2.1176936e-08
3	0x32682235	1.3511955e-08
4	0x338092f6	5.9871965e-08
5	0x31fccc29	7.3573756e-09
6	0x323063f0	1.02672715e-08
7	0x31b5111b	5.269738e-09
8	0x319cb964	4.561274e-09
9	0x31b9ceab	5.407704e-09
10	0x32179b11	8.824615e-09
11	0x31d67123	6.241082e-09
12	0x329d1032	1.828457e-08
13	0x30d95142	1.5811923e-09
14	0x333f1a6a	4.4494676e-08
15	0x316d8b21	3.4567125e-09

exp_avg f4 [16, 16]
0	0x38dad9ef	0.00010435643
1	0xb691027a	-4.321625e-06
2	0xb97c6da0	-0.00024073431
3	0xb7fdb9d9	-3.0246492e-05
4	0xb97cf282	-0.00024122934
5	0x389336a3	7.019683e-05
6	0x383925b4	4.414255e-05
7	0x388fe57b	6.8615154e-05
8	0xb7a85add	-2.0069472e-05
9	0xb9a9e6fa	-0.00032406283
10	0xb9126264	-0.00013960298
11	0xb76bcf59	-1.4055368e-05
12	0x39b69568	0.0003482506
13	0x38e3bdf6	0.000108595865
14	0x39ed0260	0.00045205932
15	0xb93ebb9e	-0.00018189705
16	0x3941f98c	0.00018498878
17	0xb8570355	-5.1263098e-05
18	0x38dfcee3	0.00010672004
19	0x379aa830	1.8436549e-05
20	0x37b5dc3e	2.167944e-05
21	0xb7c5150b	-2.3494029e-05
22	0x38bbc48f	8.953467e-05
23	0x38d2bd56	0.00010048847
24	0xb8533e6f	-5.0364466e-05
25	0xb93d05d2	-0.00018026613
26	0xb916d1a0	-0.00014383206
27	0xb7744c46	-1.4561292e-05
28	0x38722f1a	5.7741163e-05
29	0x386a6649	5.5885208e-05
30	0x37226d54	9.681407e-06
31	0xb93e2f63	-0.00018137465
32	0x390610be	0.00012785473
33	0xb8707d95	-5.7337416e-05
34	0x3911ed79	0.00013916743
35	0x37be2fcd	2.2672024e-05
36	0xb7158c58	-8.913768e-06
37	0x37395ef4	1.1048967e-05
38	0x37d79ee2	2.5703983e-05
39	0x38b3c6bc	8.572402e-05
40	0xb75373e9	-1.26035675e-05
41	0xb8de2506	-0.00010592681
42	0xb8839499	-6.274245e-05
43	0xb83e64f7	-4.539356e-05
44	0xb71e0aac	-9.420019e-06
45	0x37b7f892	2.193105e-05
46	0xb7cb2996	-2.421885e-05
47	0xb8e18a32	-0.00010754577
48	0xb84b5160	-4.8474758e-05
49	0xb841aab5	-4.617377e-05
50	0x39241e08	0.00015651446
51	0xb69d5013	-4.6882865e-06
52	0xb7cd3a42	-2.4465033e-05
53	0x3792cfb5	1.7501277e-05
54	0xb8411d8a	-4.6042296e-05
55	0xb79d730c	-1.8769431e-05
56	0x386c0451	5.6270805e-05
57	0x3944d01a	0.0001876954
58	0x393b8e81	0.00017886797
59	0xb812dd97	-3.5015484e-05
60	0xb94fbc57	-0.0001981122
61	0xb8898c76	-6.558832e-05
62	0xb94fc49b	-0.000198143
63	0x38b9daf6	8.862272e-05
64	0x38506fcc	4.9695183e-05
65	0xb80b4f16	-3.3213837e-05
66	0x38c39a42	9.327057e-05
67	0x37db45b2	2.6139289e-05
68	0xb79f3cad	-1.8982531e-05
69	0x37626055	1.3493079e-05
70	0xb708960b	-8.141166e-06
71	0x382368f3	3.895997e-05
72	0x3790a9fc	1.7245293e-05
73	0xb80a0f05	-3.2915752e-05
74	0xb4737b7f	-2.2676066e-07
75	0xb80cf029	-3.3602268e-05
76	0xb813ae97	-3.521013e-05
77	0xb71cd678	-9.3482595e-06
78	0xb7d405e8	-2.527512e-05
79	0xb82fb072	-4.188758e-05
80	0xb951b0bc	-0.00019997632
81	0x38ce31bd	9.83211e-05
82	0xb981d8cf	-0.00024766332
83	0xb80f6181	-3.4184664e-05
84	0x36aad772	5.091476e-06
85	0xb75bfe9b	-1.3112697e-05
86	0xb83068a4	-4.2059124e-05
87	0xb91093c5	-0.00013787959
88	0x376ad4ee	1.3997063e-05
89	0x391ade46	0.00014769388
90	0x3891d770	6.954267e-05
91	0x38aa1ec0	8.111959e-05
92	0x383d169b	4.5082164e-05
93	0xb7cde814	-2.4545974e-05
94	0x3892c146	6.9978225e-05
95	0x3930c908	0.00016859558
96	0xb930039f	-0.00016786017
97	0x38de9c0e	0.00010614852
98	0xb9b5e48b	-0.00034693288
99	0xb6c74abf	-5.9393637e-06
100	0x3848005a	4.7684043e-05
101	0xb58c65d4	-1.0460449e-06
102	0xb80e5109	-3.3930908e-05
103	0xb8f31149	-0.000115903626
104	0xb772ee16	-1.4479758e-05
105	0xb6e8c06d	-6.93654e-06
106	0xb86e4e8d	-5.6816778e-05
107	0x38aeafae	8.3296894e-05
108	0x3939c211	0.0001771527
109	0x37420841	1.1565223e-05
110	0x39757369	0.00023408014
111	0x38bc92a7	8.991855e-05
112	0xb956b6fe	-0.000204768
113	0x38da72c0	0.00010416424
114	0xb95fe704	-0.00021352997
115	0x37603c53	1.3365486e-05
116	0xb784890c	-1.5799444e-05
117	0xb72bd8e1	-1.024289e-05
118	0xb899855a	-7.320447e-05
119	0xb905b5a5	-0.00012751536
120	0x38208bc8	3.8277154e-05
121	0x390cc4a1	0.0001342469
122	0x385ebfdf	5.310762e-05
123	0x38af94c2	8.3723586e-05
124	0x37926062	1.7449438e-05
125	0xb83665e1	-4.3487064e-05
126	0x38bec6cb	9.096934e-05
127	0x3920aff7	0.00015324341
128	0x37aa2a29	2.0285212e-05
129	0x378dad2f	1.6889155e-05
130	0xb779db88	-1.489267e-05
131	0x3793511b	1.7561533e-05
132	0xb78cf7d4	-1.6804705e-05
133	0xb712ec0f	-8.75724e-06
134	0x366fd999	3.5740434e-06
135	0x37fbc147	3.0011533e-05
136	0xb6f3d051	-7.2662156e-06
137	0xb8a31c77	-7.777748e-05
138	0xb890ad90	-6.8987836e-05
139	0x37424e0a	1.1581471e-05
140	0x38649d43	5.4505897e-05
141	0x378708e4	1.6097394e-05
142	0x38831f9f	6.252457e-05
143	0xb821aaf9	-3.8544622e-05
144	0x39109b3b	0.00013790738
145	0xb88ea981	-6.80266e-05
146	0x39280c02	0.00016026202
147	0xb814af5b	-3.5449262e-05
148	0xb69a5236	-4.5991283e-06
149	0xb77395dc	-1.45188205e-05
150	0x388c9020	6.7025656e-05
151	0x388451ea	6.309508e-05
152	0xb85d5e4c	-5.2778327e-05
153	0xb7ad7d21	-2.0681475e-05
154	0x3792a818	1.7482831e-05
155	0xb83d5892	-4.51436e-05
156	0xb81d5748	-3.7513004e-05
157	0x3823f82a	3.909335e-05
158	0xb9001b4b	-0.00012217199
159	0xb8b0209b	-8.398407e-05
160	0xb839f128	-4.433203e-05
161	0x38680d64	5.532558e-05
162	0xb908db10	-0.00013051578
163	0x377facb4	1.5239395e-05
164	0x379efdce	1.8953255e-05
165	0xb7678c84	-1.3801389e-05
166	0x367a776a	3.732241e-06
167	0xb7faaeb7	-2.988368e-05
168	0xb77e47c7	-1.5156292e-05
169	0xb84d823f	-4.899711e-05
170	0xb8a198df	-7.705553e-05
171	0x38704569	5.7285102e-05
172	0x38b2e8ea	8.531085e-05
173	0x375f8a8b	1.3324093e-05
174	0x38e8eea4	0.00011107072
175	0xb506163b	-4.995124e-07
176	0x390fe763	0.00013723741
177	0xb878c828	-5.9314218e-05
178	0x392ad94b	0.00016293411
179	0x37f748d6	2.9478611e-05
180	0x3746bd43	1.1845786e-05
181	0xb76101d4	-1.3411471e-05
182	0x384ca86d	4.879425e-05
183	0x38a7f9ad	8.009686e-05
184	0xb78861de	-1.6258036e-05
185	0xb897cab2	-7.237996e-05
186	0xb862bbba	-5.4057433e-05
187	0xb7e64e48	-2.745459e-05
188	0xb85dc9d4	-5.2878473e-05
189	0x3788fc64	1.6329992e-05
190	0xb89b51b9	-7.406198e-05
191	0xb8f528ac	-0.00011690086
192	0xb8c38fa1	-9.3250776e-05
193	0x36d304d7	6.2888535e-06
194	0xb88b7c35	-6.651172e-05
195	0xb8c6e257	-9.483535e-05
196	0xb63e55d2	-2.836216e-06
197	0x37a052e8	1.9112093e-05
198	0xb79b1c53	-1.849063e-05
199	0xb890bf2a	-6.902062e-05
200	0xb81c2919	-3.7231574e-05
201	0x392ad42d	0.00016291505
202	0x3930ef78	0.00016873877
203	0xb7c84903	-2.3875857e-05
204	0xb7a134fd	-1.921737e-05
205	0x37670582	1.3769955e-05
206	0xb8836b30	-6.266532e-05
207	0x38f5995f	0.00011711078
208	0x38bdfa2b	9.05882e-05
209	0xb895474d	-7.1181545e-05
210	0x38cc0367	9.728112e-05
211	0xb837afb8	-4.379425e-05
212	0x37e684b6	2.7479935e-05
213	0x37cfb71b	2.4761588e-05
214	0x3806f943	3.2180233e-05
215	0x3843eebf	4.6713973e-05
216	0xb81c99fd	-3.733671e-05
217	0xb795a124	-1.7837221e-05
218	0x38368318	4.3514272e-05
219	0xb886bcf2	-6.424812e-05
220	0xb7b97e4c	-2.211253e-05
221	0x37c4a166	2.3440178e-05
222	0xb8a74878	-7.976679e-05
223	0xb85061dd	-4.9682207e-05
224	0x37edac39	2.8332799e-05
225	0xb95be861	-0.00020972035
226	0x39d7971d	0.00041120584
227	0x388940d1	6.544742e-05
228	0x38f7d3fb	0.00011817362
229	0x390d1de5	0.00013457944
230	0xb8890a3c	-6.5345754e-05
231	0x38a6198e	7.920257e-05
232	0x3862219a	5.3913893e-05
233	0x390ee5b8	0.00013627752
234	0x3979db2c	0.00023828138
235	0xb92cfab8	-0.00016496598
236	0xb9ac12b6	-0.00032820337
237	0xb8de7c21	-0.00010608906
238	0xb9cb6f63	-0.00038802167
239	0xb64deba7	-3.0684548e-06
240	0x37b0f717	2.1095895e-05
241	0x37b6fbc7	2.1813334e-05
242	0xb8b50428	-8.631527e-05
243	0xb79021b6	-1.7181836e-05
244	0xb7bf0ff6	-2.2776407e-05
245	0xb75f5ae6	-1.3313e-05
246	0x3813a564	3.5201563e-05
247	0xb742ebc2	-1.1618193e-05
248	0xb8482473	-4.771766e-05
249	0xb88a1ff6	-6.586306e-05
250	0xb8956916	-7.1244474e-05
251	0x377857cf	1.4802396e-05
252	0x38ff2637	0.000121664656
253	0x3835927c	4.3290187e-05
254	0x38db1c47	0.00010448001
255	0xb7dcc5da	-2.6318176e-05

exp_avg_sq f4 [16, 16]
0	0x36e90e57	6.9456105e-06
1	0x363aa67b	2.7813064e-06
2	0x37844f4a	1.5772548e-05
3	0x369d8f50	4.6956484e-06
4	0x37385b42	1.0988502e-05
5	0x34e8ad0a	4.333927e-07
6	0x3664c00e	3.4086438e-06
7	0x36cc95d6	6.097117e-06
8	0x365e6268	3.3137858e-06
9	0x36cfd76d	6.1941596e-06
10	0x36d09b2b	6.216947e-06
11	0x35e9197e	1.7367272e-06
12	0x3722f53c	9.7130505e-06
13	0x35247c3d	6.127555e-07
14	0x3788785a	1.6268506e-05
15	0x36ad53c7	5.1655547e-06
16	0x3450633b	1.940761e-07
17	0x339a3c54	7.1821574e-08
18	0x352180d1	6.0164626e-07
19	0x3218af72	8.887456e-09
20	0x33046502	3.082551e-08
21	0x3223831a	9.517658e-09
22	0x332cac88	4.0203787e-08
23	0x33c05190	8.955533e-08
24	0x32bd85b0	2.206329e-08
25	0x3472bcf7	2.2606751e-07
26	0x3434d615	1.6841689e-07
27	0x332b4b9e	3.9882813e-08
28	0x34940e9a	2.7577772e-07
29	0x32d65513	2.4951566e-08
30	0x34beadcf	3.551672e-07
31	0x34179b6f	1.4119517e-07
32	0x34266543	1.5496794e-07
33	0x337feaea	5.9585467e-08
34	0x350902d3	5.1040587e-07
35	0x322442f9	9.561284e-09
36	0x32dfd94e	2.6059435e-08
37	0x320ea210	8.302337e-09
38	0x33099c3e	3.20399e-08
39	0x33a16e5a	7.5172196e-08
40	0x32ac648d	2.006916e-08
41	0x344dcc74	1.9166492e-07
42	0x341a4f06	1.4371116e-07
43	0x3316a237	3.507213e-08
44	0x347e8227	2.3702943e-07
45	0x32b81596	2.1430235e-08
46	0x34a3a818	3.048342e-07
47	0x33ee2d75	1.1091007e-07
48	0x342aa45a	1.5892275e-07
49	0x33834e00	6.114351e-08
50	0x3503749a	4.897098e-07
51	0x323e036d	1.10602345e-08
52	0x32bf69e5	2.2283482e-08
53	0x32129f29	8.534507e-09
54	0x33058ad9	3.1092757e-08
55	0x33a12137	7.5031885e-08
56	0x32bdc52c	2.209216e-08
57	0x3442adb0	1.8130845e-07
58	0x3416f692	1.405954e-07
59	0x331df73d	3.6779273e-08
60	0x3474b02d	2.2788363e-07
61	0x32b689f3	2.125032e-08
62	0x349c4f0d	2.911478e-07
63	0x33ebf7aa	1.098809e-07
64	0x341b7fd7	1.4482008e-07
65	0x3366f3f6	5.377293e-08
66	0x34e643d7	4.2890198e-07
67	0x324c2d7a	1.1884703e-08
68	0x32b278ae	2.0776806e-08
69	0x31de6bc0	6.4733e-09
70	0x32dfcb3c	2.6053037e-08
71	0x3391b5e2	6.785173e-08
72	0x329a3053	1.7949935e-08
73	0x342c4779	1.604475e-07
74	0x34000670	1.1923271e-07
75	0x33069e0e	3.1343056e-08
76	0x3449f65f	1.8809213e-07
77	0x329044d5	1.6795108e-08
78	0x3487f046	2.5320531e-07
79	0x33d1a621	9.7625396e-08
80	0x34179903	1.4118636e-07
81	0x3361049a	5.239108e-08
82	0x34d68df1	3.9963882e-07
83	0x32829cfe	1.5205384e-08
84	0x32c9dbef	2.3499494e-08
85	0x31e787b0	6.7384107e-09
86	0x32c6329d	2.307325e-08
87	0x3392ad91	6.830226e-08
88	0x329e6870	1.8441114e-08
89	0x3437bc58	1.7111722e-07
90	0x3407cc16	1.2647101e-07
91	0x330870e3	3.1767637e-08
92	0x3440e817	1.7965827e-07
93	0x32910547	1.6882622e-08
94	0x348008d2	2.3848276e-07
95	0x33e02e55	1.04392406e-07
96	0x341fc22b	1.4878667e-07
97	0x337d5271	5.8981133e-08
98	0x34f58486	4.573123e-07
99	0x328a5186	1.6102387e-08
100	0x32dcd8fc	2.5710044e-08
101	0x31eaa115	6.8286092e-09
102	0x32c3227f	2.2716675e-08
103	0x3398d720	7.1171826e-08
104	0x32a583fa	1.9268544e-08
105	0x3428de4b	1.5727089e-07
106	0x3406e8a5	1.2564358e-07
107	0x33225191	3.779275e-08
108	0x34506cd1	1.9411097e-07
109	0x329131c8	1.690286e-08
110	0x348b6fb9	2.5972057e-07
111	0x33d24cf1	9.7928826e-08
112	0x343ee79e	1.7779391e-07
113	0x339b166b	7.221828e-08
114	0x351416ff	5.516776e-07
115	0x329f1ba5	1.8522607e-08
116	0x32d38518	2.4624157e-08
117	0x3202be61	7.610283e-09
118	0x32e49c98	2.6613904e-08
119	0x33b78a00	8.5467036e-08
120	0x32c364de	2.2746857e-08
121	0x3456a184	1.9989062e-07
122	0x3431e55a	1.6567847e-07
123	0x334a6533	4.712383e-08
124	0x3480a6c4	2.3963196e-07
125	0x32ac8bfc	2.0087093e-08
126	0x34a98db8	3.1581817e-07
127	0x33fe6ea1	1.184792e-07
128	0x34319126	1.6537214e-07
129	0x3386979d	6.2674395e-08
130	0x3502a975	4.8675366e-07
131	0x32bdce90	2.209643e-08
132	0x32fa172e	2.9114371e-08
133	0x31dc2ebf	6.408157e-09
134	0x32c56ae9	2.2982436e-08
135	0x33a8cd19	7.860417e-08
136	0x32b8b3ff	2.1502272e-08
137	0x343ec3c3	1.7766347e-07
138	0x341fd917	1.4887006e-07
139	0x3334436b	4.1970832e-08
140	0x345cfe48	2.0581604e-07
141	0x32aa1213	1.9798824e-08
142	0x348fb92c	2.6770556e-07
143	0x33f044ef	1.118841e-07
144	0x342b184c	1.5934455e-07
145	0x337bb4c4	5.8604897e-08
146	0x34f7c494	4.6150365e-07
147	0x32c5bcc2	2.3019656e-08
148	0x3303ef11	3.0718244e-08
149	0x31c348ae	5.6835097e-09
150	0x32c16899	2.2515723e-08
151	0x33a065a9	7.4690725e-08
152	0x32cde84b	2.3970776e-08
153	0x34403feb	1.7904647e-07
154	0x3426b2dd	1.5525025e-07
155	0x3335899b	4.2267498e-08
156	0x34578fcc	2.0075748e-07
157	0x32ba581c	2.1693317e-08
158	0x348ba15f	2.600818e-07
159	0x33e4e0bd	1.0657957e-07
160	0x34487891	1.8670313e-07
161	0x339859ee	7.09441e-08
162	0x350d7b84	5.270633e-07
163	0x32dd4b24	2.5761956e-08
164	0x330b251d	3.2397214e-08
165	0x31d7647a	6.2687464e-09
166	0x32bf49e6	2.2268932e-08
167	0x33bf6518	8.9125194e-08
168	0x32c638c2	2.3076044e-08
169	0x344a7e54	1.8858674e-07
170	0x34313444	1.6503424e-07
171	0x33625bcc	5.2703214e-08
172	0x3469a7c3	2.1760847e-07
173	0x32c1dc94	2.2568464e-08
174	0x3491b6bc	2.714131e-07
175	0x34092802	1.2773674e-07
176	0x34837d62	2.449188e-07
177	0x33d658fd	9.9813384e-08
178	0x35431269	7.266995e-07
179	0x331c57c8	3.6401417e-08
180	0x33169329	3.5058438e-08
181	0x320c6254	8.17143e-09
182	0x32e97f22	2.7182583e-08
183	0x33ff0df4	1.1876901e-07
184	0x3304ae5f	3.0892235e-08
185	0x3481c532	2.41716e-07
186	0x3471bc12	2.2513294e-07
187	0x33a2c86c	7.5801694e-08
188	0x349d266f	2.9271493e-07
189	0x32f2074f	2.8175831e-08
190	0x34c7d556	3.722186e-07
191	0x342ce131	1.6100672e-07
192	0x34788251	2.3144209e-07
193	0x33b3e6c5	8.377314e-08
194	0x352a2c4d	6.33944e-07
195	0x335fa16b	5.2068042e-08
196	0x335b2826	5.1026426e-08
197	0x3209a5af	8.012122e-09
198	0x32e82134	2.7023454e-08
199	0x33ef0fb9	1.1132165e-07
200	0x331fb9d7	3.7189093e-08
201	0x346fd86c	2.2337343e-07
202	0x346ab334	2.1858142e-07
203	0x33ad6f02	8.0761325e-08
204	0x3488ea4d	2.550245e-07
205	0x330cc3cd	3.277437e-08
206	0x34aa6b5a	3.1743076e-07
207	0x3421a4eb	1.505429e-07
208	0x349fcb96	2.9764186e-07
209	0x33e9bf4a	1.0884703e-07
210	0x355b946e	8.179985e-07
211	0x33d42cf0	9.8801934e-08
212	0x33881737	6.337216e-08
213	0x328b0844	1.6185489e-08
214	0x330c7166	3.2699425e-08
215	0x341b7dc4	1.4481253e-07
216	0x336bb74c	5.488191e-08
217	0x3495b341	2.7883837e-07
218	0x34a3dee8	3.0523302e-07
219	0x3401d99a	1.2093224e-07
220	0x34b69c55	3.4013888e-07
221	0x333bb3f1	4.3702986e-08
222	0x34cbdab4	3.7970824e-07
223	0x3461f947	2.1045444e-07
224	0x37107e63	8.612496e-06
225	0x367a7625	3.7321672e-06
226	0x37c9efd2	2.4072742e-05
227	0x35b4244d	1.342161e-06
228	0x3603c642	1.9635922e-06
229	0x345f5adc	2.0801548e-07
230	0x35103b39	5.373036e-07
231	0x3652f9d2	3.1437853e-06
232	0x34bc1436	3.5032434e-07
233	0x366d9c08	3.5406574e-06
234	0x3661d4c4	3.3651459e-06
235	0x35f3caf3	1.8163977e-06
236	0x37055af4	7.948594e-06
237	0x34ce81e5	3.8465e-07
238	0x373ac7f3	1.1133018e-05
239	0x36b470a0	5.3775293e-06
240	0x342faaa7	1.6360228e-07
241	0x3382ce0d	6.091077e-08
242	0x34e2377d	4.2136153e-07
243	0x3286b45c	1.5681671e-08
244	0x33399111	4.3205606e-08
245	0x31c77728	5.8052088e-09
246	0x32aeec2f	2.036367e-08
247	0x33b63a0e	8.4855955e-08
248	0x32298267	9.866745e-09
249	0x341d247b	1.4635036e-07
250	0x33b01bf4	8.200723e-08
251	0x336f7cc5	5.576e-08
252	0x34280cd8	1.5650892e-07
253	0x3285dc10	1.558331e-08
254	0x345b7910	2.0440007e-07
255	0x33de40b0	1.0349447e-07

exp_avg f4 [784, 16]
0	0xb6703e42	-3.5799026e-06
1	0xb7297d0f	-1.0102302e-05
2	0xb623ed13	-2.4426888e-06
3	0xb6454dc8	-2.9400562e-06
4	0x365bdf3c	3.2763483e-06
5	0x371cb682	9.340818e-06
6	0xb6c4244a	-5.84548e-06
7	0xb7567e3f	-1.2784788e-05
8	0x36c7c625	5.953729e-06
9	0x36dae738	6.5238237e-06
10	0x371f5dd9	9.498989e-06
11	0xb62f711b	-2.6142868e-06
12	0xb6e819d7	-6.917147e-06
13	0xb642e91c	-2.904394e-06
14	0x37dacd19	2.6083131e-05
15	0xb730edd7	-1.0545794e-05
16	0x3748136e	1.1925453e-05
17	0x359b5a00	1.1574593e-06
18	0x37eb30da	2.8036931e-05
19	0x35cbed3a	1.5193721e-06
20	0xb806f3a6	-3.2175005e-05
21	0xb64e50dc	-3.0743458e-06
22	0xb6f0e6a6	-7.1794084e-06
23	0x362ccde0	2.5749832e-06
24	0x3700d300	7.678522e-06
25	0x36074c92	2.0161137e-06
26	0x368eefbe	4.2598394e-06
27	0xb750434b	-1.2413434e-05
28	0xb7957b9e	-1.7819748e-05
29	0x365e0473	3.3083168e-06
30	0x373b9fe7	1.1183299e-05
31	0xb585feaa	-9.983389e-07
32	0x36542b9b	3.1615843e-06
33	0xb35720c5	-5.0088392e-08
34	0x367f8c96	3.8079793e-06
35	0x36869ae6	4.0115438e-06
36	0xb6a42f13	-4.893061e-06
37	0xb58700f3	-1.005856e-06
38	0xb5c2acc2	-1.4504405e-06
39	0xb518c7cf	-5.691517e-07
40	0x33b46ba6	8.401484e-08
41	0xb5a9fbb3	-1.2664735e-06
42	0xb5ba3ac9	-1.3875189e-06
43	0xb5b13eb9	-1.3205782e-06
44	0xb6601409	-3.3390263e-06
45	0x3448c525	1.8698172e-07
46	0x36c771eb	5.943924e-06
47	0xb6006f65	-1.9138326e-06
48	0x365a447f	3.2524401e-06
49	0x359d4cc5	1.1719754e-06
50	0x35529116	7.8442224e-07
51	0x3649a1db	3.0045546e-06
52	0xb6549bb9	-3.1681104e-06
53	0xb60eb745	-2.1266326e-06
54	0xb3184a41	-3.545779e-08
55	0xb4f73251	-4.6043945e-07
56	0xb5a19fdd	-1.2041961e-06
57	0xb6365f96	-2.7175752e-06
58	0xb67fe650	-3.813202e-06
59	0xb52b74b1	-6.387227e-07
60	0xb532d702	-6.6623045e-07
61	0x356bcb16	8.783985e-07
62	0x37064c24	8.00475e-06
63	0xb618112d	-2.2659763e-06
64	0xb6336697	-2.6732794e-06
65	0x3613412f	2.1942649e-06
66	0xb5cf2353	-1.5432983e-06
67	0xb4c094a1	-3.587093e-07
68	0xb6ca1242	-6.0221946e-06
69	0xb55bc912	-8.1876453e-07
70	0xb67822ac	-3.6975061e-06
71	0x3509917f	5.12482e-07
72	0x368687e0	4.009329e-06
73	0xb62111a9	-2.400115e-06
74	0x3569ace4	8.7050853e-07
75	0xb61165f3	-2.1666026e-06
76	0x35846265	9.863403e-07
77	0x35e2ca8f	1.6897264e-06
78	0x371458e3	8.842183e-06
79	0x351a856e	5.7563636e-07
80	0x354e1ae4	7.678011e-07
81	0x368de579	4.2288416e-06
82	0xb7108787	-8.614624e-06
83	0xb64dca53	-3.0665149e-06
84	0x360b1968	2.0727402e-06
85	0xb66002b8	-3.3380184e-06
86	0x35e984f8	1.7398552e-06
87	0xb702c6a5	-7.794854e-06
88	0xb61151af	-2.165423e-06
89	0x36e7b71f	6.9056546e-06
90	0x36ec4717	7.041624e-06
91	0xb5cb6cbe	-1.5156327e-06
92	0xb541ef33	-7.2246183e-07
93	0x3690fba3	4.320829e-06
94	0xb703b894	-7.851184e-06
95	0x370612a6	7.991364e-06
96	0x35fa9763	1.8670511e-06
97	0x35f9b099	1.8603342e-06
98	0x36aadefe	5.0923545e-06
99	0xb558e7ea	-8.080375e-07
100	0xb70cd831	-8.394986e-06
101	0xb602641c	-1.942978e-06
102	0xb523cf44	-6.1023843e-07
103	0x3541a195	7.2133236e-07
104	0x35e98058	1.7397206e-06
105	0xb4e6e0f7	-4.3004522e-07
106	0xb5878e0c	-1.0099625e-06
107	0xb60a33c6	-2.0593739e-06
108	0xb6810e8c	-3.846193e-06
109	0x3589740d	1.0241071e-06
110	0x36ddc6e0	6.6094653e-06
111	0x344945aa	1.8744927e-07
112	0x375c7a8b	1.3141554e-05
113	0xb5d771a2	-1.605182e-06
114	0x37ab66e0	2.0432693e-05
115	0x363c6271	2.8071483e-06
116	0xb79648dd	-1.7915323e-05
117	0xb62124bc	-2.4012252e-06
118	0x35a4ff98	1.229334e-06
119	0x37146689	8.845361e-06
120	0xb6a3308a	-4.8634292e-06
121	0xb658d94d	-3.2312994e-06
122	0xb5a779aa	-1.2477878e-06
123	0xb6db4254	-6.53443e-06
124	0xb6cad194	-6.044467e-06
125	0x36b5db09	5.4197194e-06
126	0x35905e44	1.0756271e-06
127	0xb718cfd2	-9.108293e-06
128	0x36393f11	2.7603858e-06
129	0x3412bd2d	1.3666131e-07
130	0x3678abec	3.7054951e-06
131	0x350a4ac2	5.1517793e-07
132	0xb6dae3b6	-6.5234153e-06
133	0xb5bc707b	-1.4039828e-06
134	0xb4af412a	-3.2643703e-07
135	0x359de95f	1.1765331e-06
136	0x357682c9	9.183246e-07
137	0x359d47b5	1.1718281e-06
138	0xb6613b4b	-3.3562126e-06
139	0xb512faab	-5.475401e-07
140	0xb6972276	-4.5041625e-06
141	0x34e7efba	4.3201527e-07
142	0x36c3e236	5.8377873e-06
143	0x32018ca1	7.540764e-09
144	0x358de0c5	1.0570735e-06
145	0x35be334e	1.4171035e-06
146	0x34c94657	3.7490346e-07
147	0x340782cc	1.2620438e-07
148	0xb67f9dc8	-3.8089802e-06
149	0xb50664c0	-5.00655e-07
150	0xb5aa27b5	-1.2677543e-06
151	0xb4d37c9b	-3.9392475e-07
152	0x348e89f2	2.654993e-07
153	0xb5967dfc	-1.1212537e-06
154	0xb64727cd	-2.9676478e-06
155	0x35743dd1	9.098704e-07
156	0xb59c1c32	-1.1631112e-06
157	0xb4cf8545	-3.865372e-07
158	0x36c08b64	5.738273e-06
159	0x35e6fae9	1.720936e-06
160	0x36664dfe	3.4318068e-06
161	0x360853db	2.031439e-06
162	0x36724b63	3.610469e-06
163	0x34ff187f	4.7515275e-07
164	0xb6ef0af0	-7.1240283e-06
165	0xb5a9cb24	-1.2650603e-06
166	0x35541929	7.901277e-07
167	0x3659a9e8	3.2434418e-06
168	0xb3f629fe	-1.1462906e-07
169	0xb6bb3cdb	-5.580119e-06
170	0xb5d847e0	-1.6114172e-06
171	0xb5d3e9ae	-1.5788735e-06
172	0x3599f76a	1.1471395e-06
173	0x36418641	2.8837387e-06
174	0x36728a8d	3.6141457e-06
175	0xb684a6db	-3.953331e-06
176	0x3632ba4c	2.6632506e-06
177	0x36177f98	2.2575023e-06
178	0x362284ad	2.4217109e-06
179	0xb599c4b7	-1.145664e-06
180	0xb6e168f4	-6.7177407e-06
181	0xb533d76e	-6.699619e-07
182	0x33252b18	3.845625e-08
183	0x35b4a258	1.3458293e-06
184	0x34bd4ffc	3.526219e-07
185	0xb5f4c4cc	-1.8236692e-06
186	0xb5b91747	-1.3790349e-06
187	0xb5c52d64	-1.4690854e-06
188	0xb5e717b5	-1.7217741e-06
189	0x358c61ef	1.0459315e-06
190	0x36ce024e	6.1395467e-06
191	0xb5b39291	-1.3379196e-06
192	0x34f3d98a	4.5420558e-07
193	0x356ac8b7	8.746387e-07
194	0x35a461f4	1.224746e-06
195	0x35092acb	5.109875e-07
196	0xb69babe8	-4.6393725e-06
197	0xb3cfb6c0	-9.672431e-08
198	0xb5e4d60f	-1.7049623e-06
199	0x359f2a85	1.1858798e-06
200	0x357ddf21	9.457454e-07
201	0xb5be69c1	-1.4186882e-06
202	0xb59e6b4b	-1.1803144e-06
203	0xb550d0db	-7.7789963e-07
204	0xb5133c4a	-5.48495e-07
205	0x34e01c9d	4.174407e-07
206	0x36a60ac6	4.9484397e-06
207	0xb4520dcb	-1.9562792e-07
208	0xb537826e	-6.836261e-07
209	0x3598cdd5	1.1384788e-06
210	0x34ed026e	4.4146458e-07
211	0xb5d881a9	-1.613099e-06
212	0xb6ac1563	-5.128489e-06
213	0xb53c1d47	-7.007806e-07
214	0xb61a64e6	-2.3006519e-06
215	0x34e8a09d	4.333023e-07
216	0x35d3ff3b	1.5795007e-06
217	0x35cfe894	1.5490391e-06
218	0x34b3b53a	3.3473208e-07
219	0xb3bd4883	-8.814188e-08
220	0xb621cb7c	-2.4109313e-06
221	0xb3af1798	-8.153364e-08
222	0x36acb2ee	5.1468296e-06
223	0x361ffb35	2.3839068e-06
224	0xb54f8fc9	-7.7322744e-07
225	0xb34af3eb	-4.7253632e-08
226	0x3600ee53	1.921221e-06
227	0xb5733481	-9.060096e-07
228	0xb62a5632	-2.5382146e-06
229	0xb552a5a6	-7.8472146e-07
230	0xb48cdc9a	-2.623754e-07
231	0xb3dcea24	-1.0287138e-07
232	0x33b07f07	8.218745e-08
233	0x35989005	1.1366798e-06
234	0xb5d23f1b	-1.5664585e-06
235	0x3573e206	9.085346e-07
236	0xb618c9a4	-2.2767135e-06
237	0x35061c3f	4.9959993e-07
238	0x362e0a7d	2.5934125e-06
239	0x360e0430	2.1162086e-06
240	0xb5093c64	-5.1124357e-07
241	0x352275ba	6.052102e-07
242	0x33e32256	1.0576757e-07
243	0xb4fea36e	-4.7430098e-07
244	0xb61d21d3	-2.3414511e-06
245	0xb3a9a796	-7.9001595e-08
246	0xb52d5ece	-6.458548e-07
247	0xb42603ba	-1.546131e-07
248	0x35258fae	6.167637e-07
249	0xb2fd46af	-2.948522e-08
250	0xb53695a5	-6.8018045e-07
251	0xb45e0258	-2.0676214e-07
252	0xb578cd0c	-9.268558e-07
253	0x3526f7e8	6.220057e-07
254	0x364f18fc	3.0859946e-06
255	0x358818fb	1.014006e-06

exp_avg_sq f4 [784, 16]
0	0x32133908	8.569494e-09
1	0x32122b4b	8.508162e-09
2	0x32b5e893	2.1176936e-08
3	0x32682235	1.3511955e-08
4	0x338092f6	5.9871965e-08
5	0x31fccc29	7.3573756e-09
6	0x323063f0	1.02672715e-08
7	0x31b5111b	5.269738e-09
8	0x319cb964	4.561274e-09
9	0x31b9ceab	5.407704e-09
10	0x32179b11	8.824615e-09
11	0x31d67123	6.241082e-09
12	0x329d1032	1.828457e-08
13	0x30d95142	1.5811923e-09
14	0x333f1a6a	4.4494676e-08
15	0x316d8b21	3.4567125e-09
16	0x31110942	2.110554e-09
17	0x3031d86a	6.469977e-10
18	0x32a9e4d2	1.9778245e-08
19	0x3099575b	1.1157043e-09
20	0x32ea68ba	2.728881e-08
21	0x3024bdad	5.99324e-10
22	0x30d8ab76	1.5764801e-09
23	0x308d9f6d	1.0304412e-09
24	0x31305f7f	2.5665654e-09
25	0x309c4df6	1.1372652e-09
26	0x307f5d41	9.290098e-10
27	0x31440e02	2.8529716e-09
28	0x32545c5b	1.2361023e-08
29	0x2f771066	2.2470345e-10
30	0x31ed59d7	6.9078214e-09
31	0x304ac686	7.376929e-10
32	0x300cd5bb	5.123543e-10
33	0x2f9c5003	2.8433086e-10
34	0x314b0c15	2.9547256e-09
35	0x30468585	7.2221723e-10
36	0x31958ab6	4.3522403e-09
37	0x2f632856	2.065986e-10
38	0x2f6c5477	2.1494083e-10
39	0x2f6711a0	2.1015589e-10
40	0x2eaea783	7.94236e-11
41	0x30a1443c	1.1733685e-09
42	0x2fa403e8	2.9834202e-10
43	0x2f922e97	2.659035e-10
44	0x31583fed	3.1468474e-09
45	0x2f51a280	1.9066171e-10
46	0x3166ffab	3.3614735e-09
47	0x2fa6e15d	3.0355354e-10
48	0x2fb93124	3.368622e-10
49	0x2f5c2d28	2.0024926e-10
50	0x310a7845	2.0150008e-09
51	0x3040facd	7.02056e-10
52	0x3127401b	2.4338138e-09
53	0x2f470ea9	1.8104153e-10
54	0x2ec90794	9.141768e-11
55	0x2f84eacf	2.4177502e-10
56	0x2e907bc5	6.570348e-11
57	0x3050d5f0	7.597398e-10
58	0x2f713c0c	2.1940155e-10
59	0x2ec0f425	8.774518e-11
60	0x30ff0dcf	1.8557617e-09
61	0x2e3f26d9	4.3462876e-11
62	0x30bdd4a9	1.3812002e-09
63	0x2fb2f4aa	3.2551856e-10
64	0x2fcccf93	3.7254874e-10
65	0x2f648f7e	2.0787458e-10
66	0x303fbcd9	6.9753764e-10
67	0x2fdb4521	3.9884987e-10
68	0x31827d42	3.797738e-09
69	0x2f1ea2c1	1.4427838e-10
70	0x30c3cb69	1.424593e-09
71	0x2f99bbf5	2.796409e-10
72	0x30bf96a4	1.3939894e-09
73	0x3039d7be	6.7609196e-10
74	0x2f357b14	1.650558e-10
75	0x2f4f2149	1.8838366e-10
76	0x2fd175f7	3.8100698e-10
77	0x2e65aca0	5.2221893e-11
78	0x31778eac	3.602433e-09
79	0x2f0c6abc	1.2770845e-10
80	0x31405633	2.7988676e-09
81	0x302876ce	6.1286876e-10
82	0x31e6b65b	6.7146124e-09
83	0x31a34c81	4.752622e-09
84	0x31f93178	7.2524777e-09
85	0x2fdf6114	4.0632442e-10
86	0x309661af	1.09417e-09
87	0x31f4d163	7.125139e-09
88	0x30a2d8bc	1.1848651e-09
89	0x31bc20ef	5.4752642e-09
90	0x30163aca	5.4653226e-10
91	0x30cca1d1	1.4888945e-09
92	0x30889dd1	9.940156e-10
93	0x307e4877	9.250764e-10
94	0x321aac9a	9.003225e-09
95	0x320a1d9f	8.039392e-09
96	0x2fcc5c74	3.7173076e-10
97	0x2f246b21	1.4953773e-10
98	0x30b9c6e3	1.3517049e-09
99	0x30028155	4.7477516e-10
100	0x312d02df	2.5176445e-09
101	0x2fbcd8af	3.4350964e-10
102	0x2e9a5984	7.0190104e-11
103	0x2f41b469	1.7617342e-10
104	0x2f3ea8ad	1.7340325e-10
105	0x2f00fdb5	1.1731667e-10
106	0x2ed0ce77	9.4954204e-11
107	0x2fb32dba	3.25924e-10
108	0x3081b27a	9.436711e-10
109	0x2dd08d48	2.3709604e-11
110	0x30db205c	1.5943544e-09
111	0x2e52cb57	4.7929074e-11
112	0x31ad520f	5.0442917e-09
113	0x30009b2d	4.6786647e-10
114	0x3280b26f	1.4982303e-08
115	0x306a363c	8.5205776e-10
116	0x32047677	7.710347e-09
117	0x300a499a	5.03087e-10
118	0x2ea26168	7.38421e-11
119	0x315591bb	3.1078418e-09
120	0x2f3b3b2a	1.702857e-10
121	0x30adff33	1.2659939e-09
122	0x30821221	9.463897e-10
123	0x3124661b	2.3923181e-09
124	0x315e3136	3.2333225e-09
125	0x2f859f53	2.4305766e-10
126	0x316c8026	3.4415364e-09
127	0x30e14222	1.6389701e-09
128	0x3062c444	8.249723e-10
129	0x2f059551	1.2149327e-10
130	0x3042f3d8	7.092331e-10
131	0x3096f36a	1.0983119e-09
132	0x30dd1f6e	1.6088799e-09
133	0x2f9a93f8	2.8117575e-10
134	0x2f2ebd18	1.5892387e-10
135	0x2fba58be	3.3896258e-10
136	0x2e4cea2c	4.6592216e-11
137	0x2f6b1321	2.1379921e-10
138	0x30015ab7	4.705884e-10
139	0x3000d88b	4.6873855e-10
140	0x302437cf	5.974216e-10
141	0x2e4bae9d	4.6311944e-11
142	0x313346e0	2.6088216e-09
143	0x2fa0b4fc	2.9232428e-10
144	0x2f981dc1	2.766978e-10
145	0x2efcae38	1.1490581e-10
146	0x2f9f569f	2.898348e-10
147	0x3016e37a	5.4892946e-10
148	0x305cd835	8.034278e-10
149	0x2f0bb326	1.2705623e-10
150	0x2ecb0696	9.232541e-11
151	0x2f26c65d	1.5168085e-10
152	0x2e2a4d88	3.8722386e-11
153	0x2f08ee6b	1.2453831e-10
154	0x2f92709f	2.6637267e-10
155	0x2e6b9635	5.3566224e-11
156	0x2f9ad26b	2.8161948e-10
157	0x2e349bd5	4.1065668e-11
158	0x306906e6	8.477471e-10
159	0x2e3660ec	4.1468093e-11
160	0x2f6cf4f3	2.1551098e-10
161	0x2f927f4a	2.664769e-10
162	0x309b33f8	1.1292505e-09
163	0x2ff6ab8e	4.4869036e-10
164	0x30b605e1	1.3243914e-09
165	0x2edc1fae	1.0010069e-10
166	0x2f1f4fbf	1.4489297e-10
167	0x2fbae66e	3.3996933e-10
168	0x3020eecb	5.8547006e-10
169	0x30102932	5.2445437e-10
170	0x2fc9d770	3.6714765e-10
171	0x3026528d	6.050776e-10
172	0x3045093e	7.1681316e-10
173	0x2f091ea3	1.2470962e-10
174	0x307deef8	9.238046e-10
175	0x2f48955a	1.8242954e-10
176	0x2fb31c3f	3.257998e-10
177	0x2ef1131c	1.0962806e-10
178	0x3085f343	9.746163e-10
179	0x2fdf2964	4.0592874e-10
180	0x307a3908	9.1030516e-10
181	0x2eba3f65	8.469562e-11
182	0x2def47dc	2.7203066e-11
183	0x2f42aea0	1.7706236e-10
184	0x2f529ad5	1.9154396e-10
185	0x2f3e9a73	1.7335271e-10
186	0x2ebdd627	8.632766e-11
187	0x2fa622f2	3.0220054e-10
188	0x2fe9e0fe	4.254232e-10
189	0x2e809fbb	5.84914e-11
190	0x302fed89	6.4002187e-10
191	0x2ee4bc5d	1.04016996e-10
192	0x2f7bb7fd	2.2893683e-10
193	0x2edb58ec	9.974763e-11
194	0x2faf2ded	3.1864947e-10
195	0x2fbfa9d2	3.4863362e-10
196	0x30ab5309	1.2465488e-09
197	0x2ef107c4	1.09607906e-10
198	0x300e749a	5.1825e-10
199	0x2fada782	3.1587538e-10
200	0x2ebbd36c	8.5413315e-11
201	0x302f215d	6.371204e-10
202	0x2ed877a9	9.843799e-11
203	0x2f2828ab	1.5293959e-10
204	0x2f896940	2.499494e-10
205	0x2dd4b1fd	2.4180652e-11
206	0x3113f49e	2.1530364e-09
207	0x2f4ca913	1.8613759e-10
208	0x2f08be8a	1.2436821e-10
209	0x2e542caa	4.824289e-11
210	0x2ee1b665	1.0264215e-10
211	0x2f6b6e55	2.1412323e-10
212	0x2fe7b4cc	4.214712e-10
213	0x2ea6006f	7.548883e-11
214	0x2f07e2e3	1.2358785e-10
215	0x2f0fc11f	1.3074385e-10
216	0x2d984546	1.7311163e-11
217	0x2e06bf90	3.0638214e-11
218	0x2e7bf139	5.728504e-11
219	0x2e1cb2e9	3.5629198e-11
220	0x2f3de386	1.7270282e-10
221	0x2d9a6ff2	1.7557487e-11
222	0x30076bb7	4.9265786e-10
223	0x2e46cc84	4.5201634e-11
224	0x2ef13218	1.09683096e-10
225	0x2e6b0df3	5.3445203e-11
226	0x2fa5d8a4	3.0167258e-10
227	0x2fbafa20	3.4010927e-10
228	0x300c8495	5.1120114e-10
229	0x2f4b0075	1.8462905e-10
230	0x2f01c151	1.1801161e-10
231	0x2f6afd18	2.1372093e-10
232	0x2eb9e047	8.4526657e-11
233	0x2ef6f91a	1.1231034e-10
234	0x2f2c06df	1.564575e-10
235	0x2f01b75d	1.1797625e-10
236	0x2fe0ed7d	4.0914108e-10
237	0x2e66666e	5.238692e-11
238	0x300012f3	4.6593057e-10
239	0x2ee7f435	1.0548044e-10
240	0x2e9313ef	6.688327e-11
241	0x2dd86db5	2.4605077e-11
242	0x2ef84eb2	1.12917134e-10
243	0x2f188e19	1.3874803e-10
244	0x2f902382	2.6218677e-10
245	0x2e1f4a54	3.621843e-11
246	0x2d5e70fc	1.26443266e-11
247	0x2e5f9547	5.0836915e-11
248	0x2d32f2f3	1.0172074e-11
249	0x2e20c097	3.6550842e-11
250	0x2e5f4728	5.076753e-11
251	0x2e15a4f6	3.4025192e-11
252	0x2ee430ec	1.037693e-10
253	0x2d764341	1.3998414e-11
254	0x2f767b19	2.2417303e-10
255	0x2daffa69	2.0006401e-11

exp_avg f4 [16]
0	0x3a0789f7	0.00051703997
1	0x399cd1e6	0.00029911025
2	0xb94ba946	-0.00019422648
3	0xb8aac1c5	-8.142324e-05
4	0x3980f4ce	0.00024596456
5	0x391bab2a	0.00014845715
6	0xb7da94d3	-2.6056927e-05
7	0xb991a989	-0.0002778287
8	0xb9b4c8f0	-0.00034481985
9	0xba7ecd31	-0.0009719907
10	0xb98a75ac	-0.00026409084
11	0xb97be3fe	-0.00024022159
12	0x3a90b4ff	0.0011040269
13	0xb89451a1	-7.0723945e-05
14	0xba098dce	-0.0005247266
15	0x37ae0d79	2.074869e-05

exp_avg_sq f4 [16]
0	0x371792f4	9.034517e-06
1	0x36709aa0	3.585279e-06
2	0x37202982	9.5464075e-06
3	0x36f0ecd7	7.180129e-06
4	0x371526a1	8.890086e-06
5	0x35ec2e4f	1.7596848e-06
6	0x37102f29	8.594049e-06
7	0x368d74bf	4.2157185e-06
8	0x371dc146	9.402929e-06
9	0x375d84fc	1.3203589e-05
10	0x37fecc95	3.0374425e-05
11	0x373ebb9b	1.1368563e-05
12	0x37ed6b63	2.8302607e-05
13	0x36b016e1	5.247872e-06
14	0x37297cfe	1.0102287e-05
15	0x36faf8f9	7.479565e-06

exp_avg f4 [16]
0	0x39a9506e	0.00032294117
1	0xb9e1a3b6	-0.00043037318
2	0x390bdd81	0.0001333859
3	0xb904c514	-0.00012661918
4	0xb8c3891c	-9.323863e-05
5	0x39bb541e	0.00035730092
6	0x38c23a91	9.26155e-05
7	0x3960dd5f	0.00021444772
8	0xb959119d	-0.00020701294
9	0xb9b37c07	-0.00034233948
10	0x390284dd	0.00012447262
11	0xb98321ca	-0.00025011442
12	0x3994ac50	0.00028357143
13	0x39999da6	0.0002929989
14	0x39405bef	0.00018344795
15	0xb9edb421	-0.0004533837

exp_avg_sq f4 [16]
0	0x3714bd68	8.865587e-06
1	0x36dee700	6.6430075e-06
2	0x376a7e66	1.3976916e-05
3	0x3815c2da	3.5705838e-05
4	0x3842c67a	4.643805e-05
5	0x3647016a	2.9654134e-06
6	0x37523b60	1.25308e-05
7	0x376470f8	1.3616162e-05
8	0x374e590d	1.2299291e-05
9	0x375c3197	1.3124568e-05
10	0x3753c5b0	1.2622608e-05
11	0x37032deb	7.8189e-06
12	0x37a9dc64	2.0248997e-05
13	0x3660b6d8	3.348503e-06
14	0x37f8de7c	2.9667506e-05
15	0x3717e914	9.054569e-06

exp_avg f4 [16]
0	0x39d6b299	0.00040950326
1	0x39716107	0.00023019697
2	0x383d884d	4.518805e-05
3	0x3874a0a0	5.8323727e-05
4	0x394a1b7e	0.00019274463
5	0x3904aff4	0.00012654049
6	0x38c68732	9.466558e-05
7	0xb9509ac8	-0.00019894086
8	0xb975b474	-0.00023432245
9	0xba12750c	-0.00055868994
10	0xb98ea559	-0.00027207544
11	0x37ad51c8	2.066129e-05
12	0x3a6e865c	0.00090990006
13	0xb8ad919b	-8.276404e-05
14	0xb9c8e978	-0.0003832092
15	0xb73bbf79	-1.1190649e-05

exp_avg_sq f4 [16]
0	0x36c69d60	5.9191807e-06
1	0x3664e493	3.4107695e-06
2	0x36e82dfb	6.9194916e-06
3	0x3684290d	3.9386855e-06
4	0x36dcbaa9	6.578241e-06
5	0x35cd2a27	1.5285958e-06
6	0x36c666c8	5.912825e-06
7	0x3603afb9	1.9622805e-06
8	0x36a2379e	4.834451e-06
9	0x36e6af56	6.874946e-06
10	0x3789b6f6	1.641687e-05
11	0x3701c77a	7.735443e-06
12	0x379dcc20	1.8810912e-05
13	0x36672cbe	3.4447726e-06
14	0x36ea7f9c	6.988599e-06
15	0x369625d4	4.474752e-06

exp_avg f4 [16]
0	0x39de34eb	0.00042382567
1	0xb9a936bf	-0.0003227498
2	0x38ee5559	0.000113646216
3	0xb746bd20	-1.1845754e-05
4	0x391b4b7e	0.00014810075
5	0x38fa1083	0.000119240045
6	0x38bc1523	8.9684756e-05
7	0x39630160	0.00021648919
8	0xb93e28eb	-0.00018135055
9	0xb98768a1	-0.0002582716
10	0x37c83aab	2.3869177e-05
11	0xb9ad978c	-0.00033110043
12	0x382beabe	4.0988198e-05
13	0x394163f8	0.00018443156
14	0x3717915b	9.034145e-06
15	0xb93b2d41	-0.00017850568

exp_avg_sq f4 [16]
0	0x36714a9e	3.5955231e-06
1	0x3632c400	2.6638154e-06
2	0x36b2335c	5.3107924e-06
3	0x36da4e16	6.5059967e-06
4	0x36ddf57c	6.6148914e-06
5	0x367e7008	3.791416e-06
6	0x36213135	2.4019512e-06
7	0x36873631	4.0296222e-06
8	0x364a5445	3.0149397e-06
9	0x36b41369	5.3666777e-06
10	0x37368147	1.0878145e-05
11	0x36776e38	3.6870024e-06
12	0x36282b90	2.5059308e-06
13	0x36131960	2.1919477e-06
14	0x36440e3a	2.9214557e-06
15	0x36faa8c8	7.4702293e-06

exp_avg f4 [48, 16]
0	0xb842a011	-4.6402278e-05
1	0xb82b0b83	-4.0780298e-05
2	0x390a86b2	0.00013210883
3	0x383e356f	4.5349294e-05
4	0xb8160998	-3.577172e-05
5	0xb5fe0980	-1.892724e-06
6	0x3734bdff	1.0773073e-05
7	0x382dc5ae	4.1430518e-05
8	0x3855f126	5.1007744e-05
9	0x37ffa757	3.0476293e-05
10	0xb8985ec0	-7.2655734e-05
11	0xb7c0e6eb	-2.2995713e-05
12	0x37b99062	2.2120952e-05
13	0xb8482834	-4.7721158e-05
14	0xb7fb49d3	-2.9955909e-05
15	0xb7c692fe	-2.3671888e-05
16	0x37aff552	2.0975862e-05
17	0x37ba82ea	2.223389e-05
18	0x362df182	2.5919585e-06
19	0x3711775b	8.670463e-06
20	0xb5985879	-1.1350631e-06
21	0xb6275828	-2.4936253e-06
22	0x361aaf8d	2.3049972e-06
23	0xb7d30b09	-2.5158299e-05
24	0xb7a34094	-1.9461186e-05
25	0x37661899	1.3714795e-05
26	0xb7cf8e85	-2.4742689e-05
27	0xb796c941	-1.797511e-05
28	0x374e3d72	1.2292863e-05
29	0x34635cf2	2.1174836e-07
30	0x371451f6	8.84057e-06
31	0x36902a33	4.296447e-06
32	0x37b0df39	2.1084781e-05
33	0x3833a91e	4.283443e-05
34	0x37f38f64	2.9034629e-05
35	0xb7e23cbd	-2.6969583e-05
36	0xb8851c2f	-6.347184e-05
37	0xb75c46c8	-1.3129502e-05
38	0xb833669e	-4.2772495e-05
39	0x375ce582	1.3166458e-05
40	0x370380d0	7.8382e-06
41	0x37cc0b11	2.4323848e-05
42	0x36c467ab	5.8533237e-06
43	0xb67c0244	-3.7552245e-06
44	0x362fbb3c	2.6186017e-06
45	0xb62dccab	-2.5898141e-06
46	0xb7edb62e	-2.8337436e-05
47	0x37cdf879	2.4553608e-05
48	0x371c3540	9.310723e-06
49	0x36ca7d60	6.0346647e-06
50	0xb74ca185	-1.2196954e-05
51	0xb7dc743b	-2.6280168e-05
52	0x377d85b4	1.5111105e-05
53	0x3635a656	2.7067922e-06
54	0xb7d988e3	-2.5932159e-05
55	0x36c9e8d6	6.0173725e-06
56	0xb7a61a47	-1.9800978e-05
57	0xb647aaa4	-2.9752637e-06
58	0xb4d289a1	-3.9215686e-07
59	0xb720040c	-9.537685e-06
60	0x383fdcdc	4.574364e-05
61	0xb6b07fd0	-5.260088e-06
62	0x3730c210	1.0535601e-05
63	0x370cf83a	8.402445e-06
64	0x36e0d4e8	6.7005058e-06
65	0xb78a6d39	-1.6501743e-05
66	0x38887e0d	6.508464e-05
67	0x36c08fab	5.738771e-06
68	0xb7a9a0c9	-2.0221241e-05
69	0xb54c00db	-7.5997167e-07
70	0xb73cb865	-1.1248606e-05
71	0x37f19c79	2.8802302e-05
72	0x38140799	3.5293026e-05
73	0xb65948d5	-3.2377914e-06
74	0xb843ca65	-4.6680118e-05
75	0xb4f381bd	-4.5356674e-07
76	0x36b7ca5d	5.477383e-06
77	0xb784c16b	-1.5825693e-05
78	0xb7dd8d53	-2.6411062e-05
79	0xb6aad35e	-5.091001e-06
80	0x37750c3f	1.4605989e-05
81	0xb82ea27d	-4.163616e-05
82	0x388f6a81	6.838609e-05
83	0xb7252528	-9.8434175e-06
84	0xb73c27da	-1.1214952e-05
85	0x380dafbc	3.3780685e-05
86	0xb8911147	-6.917357e-05
87	0x383aa4eb	4.4499448e-05
88	0x38973f42	7.212024e-05
89	0xb8015b78	-3.0841184e-05
90	0xb79ea44c	-1.8911574e-05
91	0xb85fbb60	-5.334185e-05
92	0x35a651e3	1.2391796e-06
93	0x36d784ee	6.4229744e-06
94	0xb72e57d1	-1.03916545e-05
95	0xb682e9b5	-3.901509e-06
96	0x378f9156	1.7114606e-05
97	0x3747df6d	1.1913345e-05
98	0x3728eeee	1.00692105e-05
99	0x370b3ba5	8.298933e-06
100	0xb876ee33	-5.887281e-05
101	0xb828c334	-4.023612e-05
102	0x38a47b7d	7.843131e-05
103	0xb7846d2f	-1.5786469e-05
104	0xb8908207	-6.8906746e-05
105	0x3874ceb4	5.836664e-05
106	0xb88ab7f7	-6.614619e-05
107	0x38200b17	3.81573e-05
108	0x3818fe24	3.647631e-05
109	0xb7146f90	-8.847463e-06
110	0xb748aecf	-1.196163e-05
111	0x378fe83d	1.7155073e-05
112	0xb67bcb09	-3.7520097e-06
113	0x3794ed9d	1.7753622e-05
114	0xb7b1026d	-2.1101174e-05
115	0x3701fc68	7.747767e-06
116	0x380803ad	3.242835e-05
117	0xb703c392	-7.853743e-06
118	0x37cae41d	2.41865e-05
119	0xb7ee44bc	-2.8403818e-05
120	0xb7a48a57	-1.9614743e-05
121	0x36b71011	5.4556954e-06
122	0x35cc5640	1.5224286e-06
123	0x377ba98a	1.500024e-05
124	0x36ef8b21	7.138952e-06
125	0xb7251303	-9.839193e-06
126	0xb72b8c39	-1.0225042e-05
127	0xb6096447	-2.047296e-06
128	0x3741dd4a	1.1555219e-05
129	0x376cc9b2	1.4113657e-05
130	0x36a408c8	4.888603e-06
131	0xb71f3a05	-9.490647e-06
132	0xb76c45bd	-1.4082933e-05
133	0x37283207	1.0025228e-05
134	0xb779f358	-1.4898214e-05
135	0x36d7226b	6.411506e-06
136	0x36edc902	7.086551e-06
137	0xb767d8f8	-1.381919e-05
138	0x380ee26c	3.406631e-05
139	0xb75a4e83	-1.30120925e-05
140	0xb81411e2	-3.5302604e-05
141	0x37bc15bb	2.2421465e-05
142	0xb72aa452	-1.0171048e-05
143	0xb6c346b7	-5.819685e-06
144	0xb77490a7	-1.4577213e-05
145	0xb7064e3d	-8.005239e-06
146	0x3761d98e	1.34616985e-05
147	0x371b78a8	9.266812e-06
148	0x36835300	3.9137667e-06
149	0xb7736b8e	-1.4508971e-05
150	0x362d0958	2.5784448e-06
151	0xb5b64e32	-1.3582815e-06
152	0xb6b18d84	-5.2914856e-06
153	0x378831ad	1.6235595e-05
154	0xb5bd3a19	-1.4098506e-06
155	0x3784812d	1.5795778e-05
156	0xb59d04e4	-1.1698835e-06
157	0xb74e1423	-1.2283245e-05
158	0x3595ff75	1.1175713e-06
159	0xb4c4f437	-3.6685535e-07
160	0xb7472f90	-1.1872398e-05
161	0x374f84da	1.2369093e-05
162	0x36ce1ce7	6.142643e-06
163	0xb5d96be7	-1.6199164e-06
164	0xb764e34c	-1.3642781e-05
165	0x36cebb6c	6.161097e-06
166	0xb6adf709	-5.1845605e-06
167	0x36cd26a0	6.1139726e-06
168	0x37802eec	1.5280639e-05
169	0xb7a7b9de	-1.9994503e-05
170	0x37c93b2d	2.3988623e-05
171	0x360d2efa	2.1037981e-06
172	0xb833f8f8	-4.2908796e-05
173	0x3768e3e8	1.3881341e-05
174	0xb68060be	-3.8259595e-06
175	0x36a531d0	4.923182e-06
176	0xb687fd34	-4.0527902e-06
177	0x37db68f9	2.6155716e-05
178	0x36bbfdc7	5.602578e-06
179	0xb7cdbfb7	-2.4527179e-05
180	0xb7290ca5	-1.0076129e-05
181	0xb6d5fad1	-6.3770935e-06
182	0x37a58d06	1.9735202e-05
183	0xb75df626	-1.3229937e-05
184	0xb8704046	-5.728032e-05
185	0x371894bc	9.094536e-06
186	0xb79804fd	-1.8122135e-05
187	0xb726fbfc	-9.953041e-06
188	0x384d8132	4.899613e-05
189	0x375a620e	1.3016643e-05
190	0x374706a9	1.1862875e-05
191	0x37369788	1.08833265e-05
192	0xb764f5eb	-1.3647116e-05
193	0x35d5d003	1.5930276e-06
194	0x3406e772	1.2563922e-07
195	0x37be1d55	2.2663424e-05
196	0x37a841f8	2.005788e-05
197	0xb7538363	-1.2607171e-05
198	0x3702f523	7.805679e-06
199	0x36169c2a	2.2442641e-06
200	0xb69bd2c1	-4.643895e-06
201	0x36559995	3.182887e-06
202	0xb7fc547c	-3.0080082e-05
203	0x36df5994	6.656346e-06
204	0x378fb98f	1.7133336e-05
205	0xb7bab217	-2.2255857e-05
206	0x3682e788	3.9012557e-06
207	0xb64a3ac4	-3.0134552e-06
208	0xb82568ee	-3.943679e-05
209	0x36e74525	6.892386e-06
210	0x3816c67f	3.594765e-05
211	0x37fd166d	3.0170393e-05
212	0x37c3ba62	2.3332603e-05
213	0xb7d07abe	-2.4852689e-05
214	0x37ac18cc	2.0515545e-05
215	0x3690d262	4.316026e-06
216	0xb85c7b08	-5.256667e-05
217	0x373500b7	1.0788607e-05
218	0xb8a1a16a	-7.707144e-05
219	0x36464f0a	2.9550306e-06
220	0x3875292f	5.8450907e-05
221	0xb7e66c11	-2.7468459e-05
222	0x37fc2d1d	3.0061748e-05
223	0xb6109061	-2.1541712e-06
224	0x3744a7d5	1.1721587e-05
225	0x37b1cc58	2.11952e-05
226	0xb7c81291	-2.3850504e-05
227	0xb78c4d37	-1.6725257e-05
228	0xb6e778fe	-6.898422e-06
229	0xb794f4bc	-1.7756938e-05
230	0x37bbff23	2.2410944e-05
231	0xb7837d92	-1.567489e-05
232	0xb8001be2	-3.0543546e-05
233	0x37fefeec	3.0397867e-05
234	0xb75cb25d	-1.315455e-05
235	0xb4c51d80	-3.6715574e-07
236	0x380b8f6d	3.3273758e-05
237	0x350eac06	5.314945e-07
238	0x370fbf10	8.567949e-06
239	0x367d5dc3	3.7754514e-06
240	0x37070048	8.0466925e-06
241	0x36f47c21	7.286217e-06
242	0x35a35877	1.2170193e-06
243	0xb71d49bc	-9.375097e-06
244	0xb640e1df	-2.8741704e-06
245	0x36ef63bc	7.1343657e-06
246	0xb586b558	-1.0036556e-06
247	0xb601b634	-1.9328554e-06
248	0xb703f6f7	-7.865709e-06
249	0xb753ceeb	-1.2624757e-05
250	0xb70de54a	-8.45764e-06
251	0xb747e0ac	-1.1913635e-05
252	0x37576c38	1.2840195e-05
253	0x3767f658	1.3826029e-05
254	0x36d31da0	6.291739e-06
255	0xb62ee70b	-2.6062505e-06

exp_avg_sq f4 [48, 16]
0	0x33c33d1e	9.091512e-08
1	0x33c49095	9.1532605e-08
2	0x33c99040	9.386031e-08
3	0x346acece	2.1868183e-07
4	0x34a7bc9a	3.12434e-07
5	0x34620734	2.105051e-07
6	0x35663003	8.5751543e-07
7	0x33104cd8	3.35975e-08
8	0x35377a37	6.835066e-07
9	0x33a49323	7.663609e-08
10	0x346aa85b	2.1854196e-07
11	0x34aaf7ec	3.1845354e-07
12	0x3498d9f8	2.84708e-07
13	0x341f804f	1.4854707e-07
14	0x33989368	7.1048646e-08
15	0x336890eb	5.414851e-08
16	0x3368632e	5.4106913e-08
17	0x33256a79	3.8513893e-08
18	0x33613c6d	5.244185e-08
19	0x3381556b	6.022568e-08
20	0x3413f407	1.3779218e-07
21	0x33ef76ef	1.1150939e-07
22	0x34c5418e	3.6741807e-07
23	0x33041173	3.0749515e-08
24	0x3418bea8	1.4225463e-07
25	0x33cf4891	9.6523884e-08
26	0x341b6285	1.4471341e-07
27	0x34b341cf	3.338923e-07
28	0x335aa61c	5.0908156e-08
29	0x333d0aa1	4.401466e-08
30	0x3355f835	4.981867e-08
31	0x3378e679	5.7951613e-08
32	0x330002c2	2.980483e-08
33	0x339a6131	7.188863e-08
34	0x33924db2	6.8127875e-08
35	0x3394b76e	6.925153e-08
36	0x33761e57	5.7303932e-08
37	0x3407f22e	1.2660959e-07
38	0x347f1a18	2.3758219e-07
39	0x32831ce4	1.5263545e-08
40	0x3441386d	1.7995053e-07
41	0x3399dd6a	7.164893e-08
42	0x33c64a8e	9.233655e-08
43	0x3411c8ad	1.3577183e-07
44	0x33b9df3f	8.655342e-08
45	0x333b8a07	4.3664866e-08
46	0x33069dd7	3.134286e-08
47	0x333d3e3f	4.4061604e-08
48	0x31b4b269	5.2589724e-09
49	0x323f5c72	1.1138683e-08
50	0x32416d88	1.1258983e-08
51	0x3284174d	1.5377418e-08
52	0x32a44dab	1.9127432e-08
53	0x33016d60	3.013463e-08
54	0x3394289d	6.8991746e-08
55	0x314b70e5	2.960456e-09
56	0x33410c1f	4.494734e-08
57	0x31d04eac	6.0625407e-09
58	0x3332e6f6	4.1653912e-08
59	0x3346f006	4.6318767e-08
60	0x32a2771d	1.8913449e-08
61	0x3208ce43	7.96314e-09
62	0x318ebf41	4.154487e-09
63	0x31d72b62	6.2622556e-09
64	0x33b4c44f	8.4176115e-08
65	0x33854497	6.2057715e-08
66	0x33f6ced6	1.1492891e-07
67	0x34050765	1.238928e-07
68	0x34d8ff21	4.0418766e-07
69	0x3410d78c	1.348946e-07
70	0x351461e0	5.5276723e-07
71	0x33d1275f	9.7394825e-08
72	0x34b2ba9b	3.3290857e-07
73	0x3424dd60	1.5354226e-07
74	0x3420c342	1.4972196e-07
75	0x34a26fd6	3.0256223e-07
76	0x3408e625	1.2749713e-07
77	0x337ee69f	5.9348732e-08
78	0x340b0e09	1.295049e-07
79	0x33a9b1d1	7.9020204e-08
80	0x333cf009	4.399047e-08
81	0x3355cb74	4.9777967e-08
82	0x33ad8e3a	8.081811e-08
83	0x336a9ea8	5.4626668e-08
84	0x3426f796	1.5550026e-07
85	0x33ccbebf	9.534187e-08
86	0x3484d5ec	2.4742565e-07
87	0x331ab285	3.601828e-08
88	0x345de234	2.0664521e-07
89	0x32e91f95	2.7139132e-08
90	0x3402f951	1.2197894e-07
91	0x33bec9de	8.884284e-08
92	0x3406eecd	1.2566598e-07
93	0x3335e445	4.2349956e-08
94	0x3313548e	3.4303007e-08
95	0x32d18fb9	2.439616e-08
96	0x32f07ddb	2.799691e-08
97	0x32fc6e85	2.938692e-08
98	0x32f28994	2.8235071e-08
99	0x33c14ca9	9.001207e-08
100	0x338fe2f7	6.700241e-08
101	0x3322ddcb	3.7920284e-08
102	0x33e038bf	1.0441135e-07
103	0x324a6681	1.1781254e-08
104	0x33a542d9	7.695571e-08
105	0x332bd122	4.0004245e-08
106	0x33ac3981	8.019834e-08
107	0x340181e1	1.2061311e-07
108	0x33bf012c	8.894344e-08
109	0x3300bcdb	2.9974085e-08
110	0x333d70e8	4.410768e-08
111	0x3316465d	3.498859e-08
112	0x32b3b8e1	2.0922416e-08
113	0x3330d374	4.117051e-08
114	0x33799bb6	5.811645e-08
115	0x3315e2e6	3.489813e-08
116	0x33ad27b5	8.063163e-08
117	0x33a68c3c	7.755486e-08
118	0x343009c8	1.6394836e-07
119	0x328ea2e8	1.6605057e-08
120	0x34114b0f	1.3531483e-07
121	0x32d5dc45	2.489663e-08
122	0x33a8884c	7.847902e-08
123	0x33a378e5	7.6122696e-08
124	0x33a420bb	7.642799e-08
125	0x32f6ed99	2.8746216e-08
126	0x32902fd8	1.6785563e-08
127	0x328683b6	1.5659548e-08
128	0x32340d8b	1.0480458e-08
129	0x324e4413	1.2006256e-08
130	0x32200c31	9.315998e-09
131	0x335066e1	4.852234e-08
132	0x32ea6f85	2.7291899e-08
133	0x328cde74	1.6399305e-08
134	0x3341b235	4.5098393e-08
135	0x31a48b59	4.78887e-09
136	0x3344c095	4.580996e-08
137	0x32828114	1.519269e-08
138	0x337965f5	5.806756e-08
139	0x336018d9	5.2176663e-08
140	0x3308a0a5	3.1811073e-08
141	0x32a0bf2e	1.871339e-08
142	0x325e3086	1.2933134e-08
143	0x3227fd3c	9.778258e-09
144	0x32153bc9	8.686535e-09
145	0x322ec9c6	1.0174011e-08
146	0x322b9038	9.986302e-09
147	0x3259ba53	1.2673428e-08
148	0x32864ba5	1.5634052e-08
149	0x327a46b6	1.4567993e-08
150	0x33203a1a	3.7305746e-08
151	0x31b7abe9	5.345545e-09
152	0x32c1e8d1	2.257403e-08
153	0x3204ba33	7.725748e-09
154	0x3321c593	3.7665426e-08
155	0x32dcb394	2.5693033e-08
156	0x328a127d	1.6073722e-08
157	0x320892ff	7.949665e-09
158	0x3252ce16	1.2270467e-08
159	0x31bea8ca	5.548917e-09
160	0x321dc064	9.182347e-09
161	0x32422137	1.1299838e-08
162	0x31dec386	6.483279e-09
163	0x3318107c	3.540525e-08
164	0x3287c01c	1.580343e-08
165	0x3265b391	1.3370383e-08
166	0x32cb83e0	2.369228e-08
167	0x314e2a83	3.000111e-09
168	0x32b87968	2.1475628e-08
169	0x320e7278	8.291515e-09
170	0x33278397	3.9002398e-08
171	0x3326a9c5	3.880429e-08
172	0x329da0bb	1.8350297e-08
173	0x32824dd1	1.5169379e-08
174	0x320dedad	8.261321e-09
175	0x31b409b3	5.239792e-09
176	0x3259ed72	1.2685051e-08
177	0x32c4d4e9	2.2914223e-08
178	0x3220956a	9.347199e-09
179	0x336ab57d	5.4647433e-08
180	0x3348057e	4.6571124e-08
181	0x330ab69d	3.2296715e-08
182	0x340de6ca	1.3215609e-07
183	0x31fbd115	7.3288313e-09
184	0x33bc2ea3	8.7629154e-08
185	0x329a0b3f	1.7933074e-08
186	0x33ad23ad	8.06243e-08
187	0x33a890f5	7.849477e-08
188	0x336a8cef	5.461055e-08
189	0x32cf8863	2.4159993e-08
190	0x3288c243	1.5920824e-08
191	0x3263414d	1.3227987e-08
192	0x31666703	3.352796e-09
193	0x319a8852	4.4974877e-09
194	0x318d3f7f	4.1108588e-09
195	0x320eb81a	8.307348e-09
196	0x320c4281	8.164194e-09
197	0x31b8c336	5.3772977e-09
198	0x328a7d89	1.6122401e-08
199	0x313afc1d	2.7209872e-09
200	0x321244e8	8.513986e-09
201	0x31e782d7	6.7378596e-09
202	0x32e27e4f	2.6367301e-08
203	0x32b7b108	2.1384508e-08
204	0x320b2297	8.09873e-09
205	0x31a25b93	4.7252313e-09
206	0x31b293eb	5.197298e-09
207	0x3125fc37	2.4154028e-09
208	0x330b8ba5	3.2490465e-08
209	0x33784f25	5.781398e-08
210	0x331e23e4	3.6819884e-08
211	0x341684c5	1.401814e-07
212	0x33e9cadc	1.0886808e-07
213	0x33c00b8b	8.9427964e-08
214	0x34a8a56f	3.1412807e-07
215	0x32962474	1.7478875e-08
216	0x346cae3d	2.20426e-07
217	0x33950c52	6.940594e-08
218	0x34863815	2.500025e-07
219	0x348379fd	2.448941e-07
220	0x34153457	1.3895747e-07
221	0x339a4a03	7.1846465e-08
222	0x33521340	4.8911943e-08
223	0x330f3dd3	3.335101e-08
224	0x322bdf68	1.0004307e-08
225	0x321faa7d	9.293783e-09
226	0x32092b79	7.984334e-09
227	0x332235fe	3.776767e-08
228	0x32a54076	1.9237842e-08
229	0x326d8315	1.382502e-08
230	0x32f4b85a	2.8489172e-08
231	0x317c3bd1	3.6704828e-09
232	0x32fa41c7	2.9133743e-08
233	0x32269bf6	9.697933e-09
234	0x332de24d	4.048552e-08
235	0x332b5095	3.988733e-08
236	0x32e49d5b	2.661425e-08
237	0x3289c9de	1.6040698e-08
238	0x320c9315	8.182515e-09
239	0x3222ab45	9.468583e-09
240	0x3188765d	3.9715773e-09
241	0x3159de02	3.1703853e-09
242	0x319fbcf7	4.648992e-09
243	0x31972988	4.3994e-09
244	0x3201f215	7.563831e-09
245	0x32024b6c	7.584145e-09
246	0x32caa29d	2.3589843e-08
247	0x315f8412	3.2525844e-09
248	0x325362b1	1.2304256e-08
249	0x31aed1fe	5.08794e-09
250	0x326ff55f	1.3967422e-08
251	0x3267581a	1.3466002e-08
252	0x31f8bf93	7.2395294e-09
253	0x31900910	4.191982e-09
254	0x31a134d3	4.691722e-09
255	0x312c8348	2.510392e-09

exp_avg f4 [48]
0	0x384af41d	4.83879e-05
1	0x374bf8b9	1.2157653e-05
2	0xb7973352	-1.80245e-05
3	0xb7a7ea95	-2.0017187e-05
4	0x378670ab	1.602651e-05
5	0x37124f39	8.720724e-06
6	0x377bbc3d	1.50045935e-05
7	0x3552a4c6	7.8470873e-07
8	0xb49118b1	-2.702632e-07
9	0xb74f6cfc	-1.2363536e-05
10	0xb6bb0923	-5.574098e-06
11	0xb77fca33	-1.5246263e-05
12	0xb786370b	-1.5999676e-05
13	0xb82e012f	-4.1485935e-05
14	0x36fd5d19	7.5508256e-06
15	0x35939ca1	1.0997938e-06
16	0x2dd6f8bf	2.4439449e-11
17	0x2cfa82d3	7.1199518e-12
18	0x2e067e13	3.058005e-11
19	0x2e0dc5db	3.223542e-11
20	0x2e7fea54	5.8188412e-11
21	0x2e09d846	3.1342283e-11
22	0x2e4728f6	4.5283742e-11
23	0xadd5350c	-2.4238854e-11
24	0xac5c82cf	-3.1336494e-12
25	0xae4c446e	-4.6445008e-11
26	0x2e85ee42	6.090463e-11
27	0x2e59b975	4.9504807e-11
28	0xaded27e7	-2.69615e-11
29	0x2c10d725	2.058306e-12
30	0xadb014dc	-2.0018147e-11
31	0xac2b7492	-2.4365271e-12
32	0x38c51db9	9.399228e-05
33	0xb8d20028	-0.000100136094
34	0xb724d435	-9.82457e-06
35	0x390f91d4	0.00013691868
36	0x38ecc0c5	0.00011289263
37	0x3879ea8f	5.9584676e-05
38	0xb8325e43	-4.2526295e-05
39	0xb65a56a7	-3.253497e-06
40	0x3826fae5	3.9811148e-05
41	0x39197b9d	0.00014637267
42	0x382d60c9	4.1336552e-05
43	0xb91d2d7b	-0.0001498963
44	0xb80966a7	-3.2758948e-05
45	0x387e03c4	6.0561826e-05
46	0x383e1696	4.5320565e-05
47	0xb8bb2f8a	-8.92571e-05
