models/mnist_gen.ckpt (torch, 568661 bytes, 309 tensors)

exp_avg f4 [16]
00000000: 664f 7fb7 9f9c a8b6 56f0 2f37 06f2 2737
00000010: 393e 8638 842e 1437 9919 72b7 0610 94b7
00000020: 3799 abb6 164f 7b38 102d bbb7 072f 2937
00000030: 0cb4 f5b7 9488 a1b7 7dfd acb5 c195 0db8
-1.5217671e-05 -5.0250233e-06 1.048677e-05 1.0010326e-05 6.401208e-05 8.832318e-06 -1.4430284e-05 -1.7650436e-05
-5.1140337e-06 5.9916718e-05 -2.2313121e-05 1.0084134e-05 -2.9290117e-05 -1.9256295e-05 -1.2888773e-06 -3.375649e-05

exp_avg_sq f4 [16]
00000000: 8de0 4731 f2e0 9731 09fa f930 04d0 8c31
00000010: 3e57 8832 a229 6c30 28f4 fa31 485f 1531
00000020: 39d6 9e30 8409 8632 0fe1 5331 7085 ae30
00000030: d4fd a931 1872 1131 02a3 ed30 768b bd31
2.9085954e-09 4.4202517e-09 1.8188199e-09 4.098185e-09 1.5872157e-08 8.5915464e-10 7.303715e-09 2.1736515e-09
1.1556899e-09 1.560398e-08 3.0832472e-09 1.2698091e-09 4.9474043e-09 2.1165132e-09 1.7290349e-09 5.516479e-09

exp_avg f4 [16, 16]
00000000: 7734 8ab7 0457 b6b7 55f0 c138 6213 0739
00000010: 9edf 7939 3791 07b8 5037 e5b7 73b2 88b8
00000020: 19e5 afb8 1848 d338 8e68 f2b7 36e1 4eb9
00000030: 576f ff37 264a 0bb7 8d19 cb38 903e 58b9
00000040: afe8 4f38 21e2 1a39 0fe6 b3b8 178f 2b39
00000050: d5b3 1db9 1715 e4b8 d721 efb7 6414 96b8
00000060: 1d3f fd37 d8db 90b8 ab74 3ab8 9f1f 41b8
00000070: cacb d338 5240 b338 f161 e3b8 830a 0e39
00000080: 5632 00b7 bfcc e9b8 89d7 0838 35d1 d6b7
00000090: 1693 0db6 9120 6436 1e8d 9f36 9b7a f637
000000a0: 8fec 8438 858e 3e38 59c5 4238 d888 ce38
000000b0: 76e7 18b9 7c0e ef37 e8ee 7238 c2bb f6b8
000000c0: b202 43b7 ce65 1bb8 b3dc 3438 0cd0 9db8
000000d0: 98c7 4137 dcdd e437 6e0c 0a37 e4c3 bd37
000000e0: 53b5 0eb8 428f 2738 ebd7 7738 bd21 6738
000000f0: 5265 72b8 1257 f533 59dd de36 9c20 73b8
00000100: d541 87b8 c840 03b9 d6c7 4938 8dfd b7b8
00000110: a182 2539 961f e0b7 4fe9 9c37 7ec1 bf38
00000120: 665b 0838 19f7 6d37 dfd6 e338 9006 8f35
00000130: 799f 17b8 f606 7db8 a381 dd38 1425 3ab9
00000140: ff01 6236 d7f1 6b38 b523 bcb7 fb47 2038
00000150: c982 5eb8 0cbf 89b7 0848 1ab7 1808 8fb7
00000160: b809 bc35 e7fd eab7 1a13 e1b7 0e7d 4cb7
00000170: 7b7b 3238 96b0 e037 1493 3eb8 891b 8238
00000180: ad43 5db8 1a95 13b9 7542 5638 6c08 16b9
00000190: 1e16 bd39 b876 1738 911e afb8 a93d 4439
000001a0: 88ca c9b8 b6ab 74b6 7c8d 8039 ffc4 fdb7
000001b0: 5608 46b9 d32f 5fb9 d3b3 ce39 301a a9b9
000001c0: f37d c5b8 ca93 43b8 2951 a238 3111 acb8
000001d0: 0724 dab8 c675 3237 9514 9338 db60 8f37
000001e0: 7033 6438 ce25 31b7 7c8d 39b8 d4a6 d538
000001f0: 6c8e aa38 1075 9b38 c489 20b9 a956 4838
00000200: 77c1 b6b8 ef5b 4fb8 b553 5b38 6b86 aab8
00000210: 5324 8f37 69ce 45b8 a19a 1338 f123 9438
00000220: 6502 d537 cbd0 1eb8 5238 c038 f0d3 5638
00000230: ccd2 5a38 39d3 fab6 0258 9bb7 c4e7 8bb8
00000240: 52ad 8237 685c 0839 ad55 83b8 9c9f bf38
00000250: e652 02b9 1206 59b8 c915 ee37 0edf 4db8
00000260: 7146 4eb6 384a 9eb8 8891 8db8 6053 8fb8
00000270: 2188 2e39 e817 0238 adfd f3b8 d033 2339
00000280: c6fd c938 22ed 7739 2355 00b9 06ff 7139
00000290: f3fd b1b9 57b9 d1b8 fa70 0538 1fb8 35b9
000002a0: c63a 2b38 81ed 71b8 6bbe 2fb9 a81d 61b8
000002b0: 8a42 3239 5d77 2939 64b7 92b9 f802 ab39
000002c0: d5af 2fb8 9139 cdb8 9a2d 6a38 d262 9fb8
000002d0: 3c20 b538 6d7f a2b6 ce60 ad36 fb00 5638
000002e0: cd2e 06b7 be8a 0638 3b23 f838 027c 6138
000002f0: 47d8 b3b8 a1fc f0b7 f4d2 9f38 c846 0eb9
00000300: edfd 2138 ce32 1938 f0e6 0c38 d122 3e37
00000310: d5c8 1cb9 7f29 b538 df6d 5b37 a132 f9b8
00000320: 6da9 47b7 7b53 b338 5ca3 2fb9 101a 8338
00000330: 9632 af37 511e e438 2a2d 56b9 4a4d 2239
00000340: b045 8339 6727 e139 2d89 8bb9 b373 fd39
00000350: 618d 82b9 819d 1fb9 3e55 f1b8 63c5 93b9
00000360: d416 f3b4 725d f1b8 2308 76b9 bc1a adb9
00000370: 8b98 5639 8c39 a738 44a8 10b9 9a0b e439
00000380: b62c fbb8 9de8 62b9 4c7f 2839 f39d 81b9
00000390: 5cbf 1339 5391 8d38 22d8 7c38 ce78 d638
000003a0: bbd4 0f36 b590 be38 d3a6 f738 f229 1539
000003b0: bc52 bbb8 00b9 03b8 34e7 0738 1ba6 5fb9
000003c0: 6077 bf38 4e09 0d38 2e9b b0b8 12d7 f638
000003d0: 5aca 40b8 1281 11b8 a245 7bb8 30ec 12b8
000003e0: 179d 2e38 c7e3 99b6 fbf2 e2b6 041f 77b7
000003f0: abcd f2b8 cf98 c537 895f 9738 67c5 b537
-1.6475313e-05 -2.173661e-05 9.2477225e-05 0.00012881824 0.00023829794 -3.232175e-05 -2.7324684e-05 -6.518224e-05
-8.387323e-05 0.000100746925 -2.8897335e-05 -0.00019729589 3.0450215e-05 -8.30231e-06 9.6845535e-05 -0.00020622672
4.956935e-05 0.00014770824 -8.578237e-05 0.00016361136 -0.0001503968 -0.000108758155 -2.8506778e-05 -7.1563554e-05
3.018934e-05 -6.907404e-05 -4.445451e-05 -4.6044235e-05 0.00010099223 8.547366e-05 -0.000108424465 0.00013546091
-7.641114e-06 -0.00011148443 3.262566e-05 -2.5608208e-05 -2.1096253e-06 3.3993604e-06 4.7549975e-06 2.9382578e-05
6.338313e-05 4.543226e-05 4.6437e-05 9.8483346e-05 -0.00014582076 2.8497765e-05 5.7919795e-05 -0.00011765167
-1.1623533e-05 -3.7049693e-05 4.3120886e-05 -7.525095e-05 1.1550168e-05 2.728303e-05 8.228335e-06 2.2621774e-05
-3.402431e-05 3.9949322e-05 5.909048e-05 5.5106113e-05 -5.7791658e-05 1.14245395e-07 6.641884e-06 -5.7966085e-05
-6.449564e-05 -0.00012517266 4.8108246e-05 -8.7733475e-05 0.0001578429 -2.671759e-05 1.8705292e-05 9.1436305e-05
3.251005e-05 1.4183833e-05 0.00010864226 1.065624e-06 -3.6149726e-05 -6.0326383e-05 0.00010562248 -0.00017752155
3.3677786e-06 5.6253597e-05 -2.2427974e-05 3.821401e-05 -5.3050728e-05 -1.6420636e-05 -9.195886e-06 -1.7050697e-05
1.400992e-06 -2.8013206e-05 -2.6830985e-05 -1.2188464e-05 4.2553507e-05 2.678511e-05 -4.5436507e-05 6.204012e-05
-5.2753534e-05 -0.00014074557 5.108347e-05 -0.00014308252 0.00036065368 3.611177e-05 -8.350344e-05 0.00018714987
-9.622151e-05 -3.6458782e-06 0.00024519477 -3.0251684e-05 -0.00018885857 -0.00021284753 0.0003942536 -0.00032253703
-9.417152e-05 -4.6629262e-05 7.739879e-05 -8.204801e-05 -0.00010401761 1.0637048e-05 7.01334e-05 1.709203e-05
5.440734e-05 -1.0558824e-05 -4.4239205e-05 0.000101877056 8.13276e-05 7.4127805e-05 -0.00015310111 4.7764424e-05
-8.714472e-05 -4.9438266e-05 5.2291627e-05 -8.131269e-05 1.7063843e-05 -4.7160695e-05 3.519154e-05 7.0638846e-05
2.5392694e-05 -3.786459e-05 9.165764e-05 5.1218958e-05 5.217157e-05 -7.47517e-06 -1.8518422e-05 -6.671206e-05
1.5577916e-05 0.00013004395 -6.262525e-05 9.137319e-05 -0.00012428648 -5.1742485e-05 2.8381955e-05 -4.9083545e-05
-3.0737394e-06 -7.5478514e-05 -6.750511e-05 -6.834301e-05 0.00016644645 3.101668e-05 -0.00011634394 0.00015564193
9.631696e-05 0.00023644094 -0.00012238747 0.00023078555 -0.00033949278 -0.00010000419 3.181489e-05 -0.00017330096
4.0824314e-05 -5.768007e-05 -0.00016760237 -5.36718e-05 0.0001700019 0.00016161562 -0.00027983927 0.00032617874
-4.1887008e-05 -9.785884e-05 5.5832417e-05 -7.6001175e-05 8.636757e-05 -4.8428105e-06 5.1670713e-06 5.102249e-05
-7.997919e-06 3.2077303e-05 0.00011832124 5.375967e-05 -8.57567e-05 -2.8727869e-05 7.621004e-05 -0.00013568543
3.8621878e-05 3.6525358e-05 3.359368e-05 1.1332989e-05 -0.00014952135 8.638482e-05 1.3078999e-05 -0.000118826756
-1.1900772e-05 8.5509346e-05 -0.00016750157 6.251421e-05 2.0885182e-05 0.00010877534 -0.00020425455 0.00015478316
0.00025038188 0.000429447 -0.0002661435 0.00048342123 -0.00024900868 -0.00015222096 -0.00011507653 -0.0002818509
-4.5278887e-07 -0.00011509181 -0.0002346342 -0.0003301705 0.00020465457 7.9738995e-05 -0.00013795594 0.00043496193
-0.00011976941 -0.00021639695 0.0001606915 -0.0002472248 0.000140903 6.750473e-05 6.028277e-05 0.00010226817
2.1432486e-06 9.08686e-05 0.00011808951 0.00014225373 -8.932265e-05 -3.140513e-05 3.2401833e-05 -0.00021328816
9.129825e-05 3.3625685e-05 -8.4212385e-05 0.00011770254 -4.596482e-05 -3.46909e-05 -5.9907914e-05 -3.502908e-05
4.1631134e-05 -4.586272e-06 -6.7636115e-06 -1.4729569e-05 -0.00011577768 2.3555387e-05 7.218036e-05 2.1668804e-05

exp_avg_sq f4 [16, 16]
00000000: 5629 1236 8e5c 5636 5712 e035 d375 5b36
00000010: 4cd1 ab36 7dfc 8a35 0d3f 1835 c61e bd35
00000020: 9e33 1435 16c8 0236 8658 b835 464d b835
00000030: 8686 7836 b6ef bc35 2d13 a936 2dca 8536
00000040: 7815 5334 5a61 1735 be07 9534 61d8 1c35
00000050: b740 2a35 a925 be33 b4d5 8733 b155 4434
00000060: 0443 0133 d1db 0d34 9817 1d34 8ebf 2e34
00000070: 1b89 6734 ac11 0634 3546 dd34 4531 3335
00000080: d80d 0d34 5258 ca34 aebd 4734 75ab d934
00000090: 31fa ef34 b4c3 7733 5fb9 4c33 b9af 0434
000000a0: 8542 c832 8712 7033 f40a 1034 ca6d 0734
000000b0: 1289 1834 869c d733 16b9 b934 ea8d fb34
000000c0: b198 e633 d5e6 b634 1868 2e34 cde9 b734
000000d0: 1344 dd34 e6a2 4a33 8334 2e33 d1e2 ef33
000000e0: 6caa bb32 0120 6433 bbd2 f833 bfd4 f133
000000f0: 155f 0b34 c38c cd33 de14 b834 f47d ea34
00000100: 2a39 3034 7ef2 fb34 f14e 7734 675d 0735
00000110: cf7e 0a35 9a79 a033 9151 6e33 640b 2434
00000120: e4ec dd32 f46b b233 8d8a 2734 29c6 2334
00000130: 4fac 2a34 e451 ea33 4cf1 c034 cdd0 1235
00000140: 3674 3034 8ad2 f834 46ca 7634 c164 0735
00000150: 0d94 0b35 0dbf 9d33 66e4 7733 1bab 2134
00000160: 9877 d532 4bf1 9b33 cda0 2734 e097 2534
00000170: 6069 2c34 b677 ec33 e711 c534 91fe 1135
00000180: 644e fe33 7e14 bb34 5d94 3934 4f1b c734
00000190: 8c03 dd34 b190 7233 fe3c 4333 123b ee33
000001a0: 50b9 d632 1912 6933 2a17 0534 49eb fd33
000001b0: 1bde 0934 2a7c c933 9a78 aa34 aa2a e534
000001c0: 489f c833 6aba ad34 8dd8 2434 9bc0 ab34
000001d0: 0687 f034 8986 4533 e0c9 2d33 aba3 f533
000001e0: 784b c432 662c 7c33 ca85 e333 6cae ee33
000001f0: f347 0f34 71cd f533 8df5 d734 9674 ed34
00000200: f9e3 1034 9105 c934 6d73 4834 519b e034
00000210: 2994 e834 5327 9033 0579 3f33 21ba 1034
00000220: 4f5c a332 2a3d ba33 6ff7 0534 cc23 0034
00000230: 98e9 0f34 e248 c033 23a3 9f34 e4e4 eb34
00000240: cd42 1034 7e1e d034 da8b 4c34 4950 de34
00000250: 1dcb ec34 671a 8733 744c 5833 e8c9 0434
00000260: abc6 c632 46ad 8333 530f 1734 9042 0834
00000270: bf0f 1a34 c19e cd33 aafb b134 d686 f734
00000280: 5b58 d333 9418 b134 1017 2834 bce9 b034
00000290: 3226 f234 8d17 4a33 4ef8 3333 e922 ef33
000002a0: c957 be32 8385 7333 e469 f133 b0e7 ed33
000002b0: 9576 0b34 d61f e433 22e3 c234 617f ed34
000002c0: bc0b f533 bf02 c134 e8a6 3934 03a6 c634
000002d0: e72a e734 ac9d 6a33 3bd6 3533 f8d0 f533
000002e0: d157 be32 49fb 7033 e527 0834 dac2 fc33
000002f0: 3aa7 0e34 e214 cd33 c8c3 b134 747b f234
00000300: c61f 0134 44b9 bc34 b350 3134 c85c ca34
00000310: f6f4 db34 007a 8333 f26a 3733 2af2 ff33
00000320: cf22 9332 46ce 9933 485c fc33 da57 e333
00000330: be05 0e34 093d af33 2321 9134 5a0f e034
00000340: ae8c 8735 8def 8836 7968 0336 ef54 8636
00000350: dde6 a936 e917 3c35 8dd1 8834 fe8d 9435
00000360: c6e7 3934 b3c1 ac35 bcbe 9935 237b 8135
00000370: bb89 b135 40c6 6735 77aa 2b36 5ac1 a936
00000380: 0c02 a733 bb35 9b34 7755 0c34 a631 9434
00000390: 454e e534 3032 3c33 112b 2f33 5096 dc33
000003a0: 4111 ad32 5d88 6c33 ee89 b633 dafb cb33
000003b0: 2816 0634 5f58 e533 ab12 c934 8289 d534
000003c0: 4503 1c34 5116 db34 ddda 5434 6420 ec34
000003d0: 86aa f234 e720 8a33 c000 4633 9bd9 1334
000003e0: 3ae9 ab32 9561 c433 4c28 fc33 9822 0334
000003f0: b432 1834 850a bf33 e0ba 9a34 b68d fd34
2.1779756e-06 3.194236e-06 1.6694638e-06 3.2702126e-06 5.1205625e-06 1.0355285e-06 5.6716163e-07 1.4090554e-06
5.520941e-07 1.9487975e-06 1.3734832e-06 1.3731558e-06 3.7033183e-06 1.4076857e-06 5.038825e-06 3.9872452e-06
1.9658717e-07 5.639355e-07 2.7759046e-07 5.84294e-07 6.342411e-07 8.854415e-08 6.3253e-08 1.8285097e-07
3.0096103e-08 1.3211617e-07 1.4630348e-07 1.62747e-07 2.156343e-07 1.2486151e-07 4.121554e-07 6.6754393e-07
1.3136685e-07 3.7689693e-07 1.8602324e-07 4.054415e-07 4.4699257e-07 5.768716e-08 4.7666045e-08 1.2357386e-07
2.3313314e-08 5.5896205e-08 1.341503e-07 1.2612796e-07 1.4205969e-07 1.0040189e-07 3.4593603e-07 4.685565e-07
1.0737984e-07 3.4068094e-07 1.6242882e-07 3.425652e-07 4.1213988e-07 4.7179945e-08 4.056029e-08 1.11705624e-07
2.1847164e-08 5.3114494e-08 1.15867316e-07 1.1261135e-07 1.2979974e-07 9.571661e-08 3.4287854e-07 4.367754e-07
1.6412073e-07 4.692883e-07 2.3032386e-07 5.042734e-07 5.1593537e-07 7.4727e-08 5.5487877e-08 1.5277834e-07
2.5835512e-08 8.3084075e-08 1.5603491e-07 1.5252648e-07 1.5895169e-07 1.091137e-07 3.5938353e-07 5.4693083e-07
1.6433555e-07 4.6346787e-07 2.2984122e-07 5.0438035e-07 5.199698e-07 7.345634e-08 5.7716896e-08 1.5056541e-07
2.4850848e-08 7.261641e-08 1.5611586e-07 1.5422074e-07 1.6057083e-07 1.1011382e-07 3.6707135e-07 5.438715e-07
1.1842056e-07 3.4846374e-07 1.7283442e-07 3.7086508e-07 4.1167038e-07 5.6476612e-08 4.5457448e-08 1.10934835e-07
2.499715e-08 5.4266e-08 1.2395017e-07 1.1824029e-07 1.2839921e-07 9.382377e-08 3.1752717e-07 4.2685616e-07
9.342199e-08 3.2359395e-07 1.5352471e-07 3.199137e-07 4.4801726e-07 4.5989996e-08 4.0463306e-08 1.14384726e-07
2.2851722e-08 5.8713702e-08 1.0594847e-07 1.1114466e-07 1.3344088e-07 1.1446071e-07 4.0225532e-07 4.4229517e-07
1.3493981e-07 3.7443218e-07 1.8668443e-07 4.183626e-07 4.3321168e-07 6.7126756e-08 4.458072e-08 1.3478758e-07
1.9017675e-08 8.6724256e-08 1.2476606e-07 1.1933952e-07 1.3402894e-07 8.953954e-08 2.9734755e-07 4.39387e-07
1.3435347e-07 3.8765205e-07 1.9049858e-07 4.1409137e-07 4.410621e-07 6.29123e-08 5.0360953e-08 1.2366911e-07
2.3140577e-08 6.131681e-08 1.4068546e-07 1.2690202e-07 1.4348096e-07 9.5749336e-08 3.315193e-07 4.610544e-07
9.841525e-08 3.2986702e-07 1.565461e-07 3.295262e-07 4.5103803e-07 4.705321e-08 4.1902517e-08 1.1135655e-07
2.2158831e-08 5.6699275e-08 1.12416984e-07 1.1078316e-07 1.2988524e-07 1.0622868e-07 3.6300577e-07 4.423737e-07
1.1410836e-07 3.595105e-07 1.7290188e-07 3.7001163e-07 4.3058319e-07 5.4625772e-08 4.2337188e-08 1.1446713e-07
2.2158845e-08 5.6107897e-08 1.26805e-07 1.1770108e-07 1.3285617e-07 9.549855e-08 3.311127e-07 4.5165837e-07
1.202562e-07 3.5152527e-07 1.6513768e-07 3.769294e-07 4.097016e-07 6.1223545e-08 4.2705274e-08 1.1918412e-07
1.7128881e-08 7.1621386e-08 1.175145e-07 1.0586491e-07 1.322687e-07 8.160175e-08 2.7032465e-07 4.173442e-07
1.0099227e-06 4.081003e-06 1.9581332e-06 4.0033988e-06 5.0634685e-06 7.007025e-07 2.5484442e-07 1.1068184e-06
1.7313786e-07 1.2871373e-06 1.1454899e-06 9.647086e-07 1.3227612e-06 8.63427e-07 2.558021e-06 5.0591016e-06
7.776916e-08 2.8910094e-07 1.3069608e-07 2.7603272e-07 4.2711522e-07 4.3817806e-08 4.078453e-08 1.027189e-07
2.0147697e-08 5.5072054e-08 8.500125e-08 9.498736e-08 1.2487783e-07 1.0679718e-07 3.745275e-07 3.9774392e-07
1.4529822e-07 4.0808166e-07 1.982366e-07 4.3981993e-07 4.5200085e-07 6.432111e-08 4.610115e-08 1.3769606e-07
2.001308e-08 9.144711e-08 1.17419944e-07 1.2212911e-07 1.4174549e-07 8.896044e-08 2.8820705e-07 4.722803e-07

exp_avg f4 [784, 16]
00000000: 654f 7fb7 9f9c a8b6 56f0 2f37 07f2 2737
00000010: 393e 8638 832e 1437 9619 72b7 0610 94b7
00000020: 3499 abb6 164f 7b38 102d bbb7 072f 2937
00000030: 0bb4 f5b7 9388 a1b7 7afd acb5 c195 0db8
00000040: 088d 7fb6 46cd 8835 91c3 3836 9501 fdb4
00000050: 3007 f835 41a2 2cb3 f5ab 9b34 2b42 b9b5
00000060: b9f0 9cb5 9218 2e36 0b5d 97b3 9b91 50b6
00000070: e57a 2836 b2b2 cb34 ef31 b1b5 ab2f e7b2
00000080: f3fd 4435 a1cc f435 50ab 3434 4340 e935
00000090: f2ba 3eb6 a1f0 6ab4 eb61 2635 4ff2 e2b5
000000a0: d9b4 49b5 c98b ea34 42cf e9b5 63fe 28b5
000000b0: 77c9 e735 f70c c035 4ecd 43b6 13df 0d36
000000c0: bda5 5535 16d6 2836 750d df34 ba13 2f36
000000d0: 9d41 e6b5 8134 ee32 5c5c 02b6 de0c f0b5
000000e0: 164a 13b6 451d f834 dfa3 9db5 046c 7ab5
000000f0: 51b9 e935 0a28 b035 bf98 f9b5 9e02 e835
00000100: 3e18 52b5 9ea4 dfb5 b57e b735 ac8f 8ab5
00000110: a65f 4236 5ad2 1836 f5b9 5435 7480 8134
00000120: 132e e933 c474 1436 d8b4 a8b5 687a 97b5
00000130: 1b50 0ab6 af40 0db5 267c 2735 0595 0ab6
00000140: a067 14b5 8755 d035 f86e e834 25d0 df35
00000150: 56d5 d0b5 8232 a2b4 b4d1 1135 ee7e f0b5
00000160: 23fe 57b5 5faa 2435 6d83 3fb5 7dc9 92b5
00000170: 75e8 b735 3bef 5f35 72c2 f7b5 e201 dd35
00000180: c575 a335 0520 bb35 cd35 0db4 5377 2936
00000190: 25be 0bb5 0def 0ab3 70d4 bfb5 04d9 31b5
000001a0: e5e0 17b6 9fe4 0ab4 4da0 b934 35f4 7bb5
000001b0: c96a f1b4 8c92 0bb4 1288 8c35 ca78 2834
000001c0: abcd b1b5 639a e935 4d6c d035 4672 c335
000001d0: f857 26b4 9a17 ee34 01c9 a8b5 2b69 e8b5
000001e0: d58a 79b5 ee01 8e35 c12e 51b5 34c4 98b5
000001f0: 2d0f 8534 905e ad35 83fa e5b5 3343 a635
00000200: 416e 3936 7776 1a37 dd86 9535 a5f1 4837
00000210: 1098 df34 c3bd 1035 5377 58b7 f229 96b6
00000220: ded0 cbb6 02a7 8635 94bf cbb6 9740 58b6
00000230: 2c00 35b5 ae4a 1c36 442d feb5 4b2b c836
00000240: ed4a 1db6 c47c 08b4 51c8 cd35 bbf4 eab4
00000250: ca74 da35 e8a5 9534 cdec 6735 d9fd 21b5
00000260: 7335 7cb4 e4b4 7635 15ed b8b4 83bc 51b5
00000270: ae41 bd34 6870 d6b1 a10d 39b5 66d0 e8b1
00000280: 1ab5 9b36 0e51 d135 2de0 c2b5 cd65 1336
00000290: e92b 7236 4e50 d136 f35d 78b6 5849 35b5
000002a0: bb01 b4b6 b9c4 fd35 2e3a f1b5 a9cc 45b6
000002b0: 976b 00b7 3a83 bbb6 a2c5 2337 33ee 3fb5
000002c0: 46f3 cfb5 1205 db35 1d61 3f35 816f ef34
000002d0: 103a 1435 c01a af34 5ba1 a5b4 72df dcb4
000002e0: 3a81 a8b5 5c4a 5335 a591 11b5 fa21 0cb6
000002f0: 5ae4 b035 ca13 7b33 d321 45b4 aedc 0735
00000300: ba2a afb5 e1e7 d8b4 81fa c735 827f 50b4
00000310: befd 0f35 5ae4 1235 d062 a035 ef15 60b5
00000320: c749 1fb5 76d7 4435 e9ce 11b5 39cc 14b5
00000330: efb5 3e35 9d8e ed34 ba7a c4b5 67a0 7f34
00000340: 23f7 b2b6 145c 0335 1942 3d36 079c deb5
00000350: fd9e 5436 3074 8835 285d 0636 90f7 7bb5
00000360: 1fe7 84b5 e78f 4136 c571 f1b4 7978 f7b5
00000370: d630 ef33 7af8 afb5 c680 8fb5 14f8 9335
00000380: e20b 6a35 e8ff 4336 72f3 efb4 d699 1036
00000390: 9351 32b6 e221 8134 a026 4c35 9b16 bcb5
000003a0: be1d 5eb5 3f80 d8b3 4c44 17b6 34be 02b6
000003b0: ba45 0c36 35b7 b134 1034 11b6 0c16 2336
000003c0: 1681 82b6 fb71 8b34 41ea 0a36 e8b9 8bb4
000003d0: cbfc 7236 6f94 b9b5 d1ec db35 4d95 e7b5
000003e0: 81da 3535 1300 7436 c4c3 13b5 352a 4cb6
000003f0: 5fad ae35 944b dbb4 31aa 03b6 8b01 9232
-1.521767e-05 -5.0250233e-06 1.048677e-05 1.0010327e-05 6.401208e-05 8.832317e-06 -1.4430281e-05 -1.7650436e-05
-5.1140323e-06 5.9916718e-05 -2.2313121e-05 1.0084134e-05 -2.9290115e-05 -1.9256293e-05 -1.288877e-06 -3.375649e-05
-3.8080052e-06 1.0192532e-06 2.7531971e-06 -4.7126073e-07 1.8479532e-06 -4.019444e-08 2.8996115e-07 -1.3802832e-06
-1.1692965e-06 2.5942322e-06 -7.04841e-08 -3.1079169e-06 2.5105485e-06 3.7941714e-07 -1.320206e-06 -2.6913616e-08
7.3385235e-07 1.8238972e-06 1.682613e-07 1.7378555e-06 -2.8421023e-06 -2.1880489e-07 6.198231e-07 -1.6908833e-06
-7.5141503e-07 4.3687604e-07 -1.7420173e-06 -6.295506e-07 1.7269475e-06 1.4308888e-06 -2.9176767e-06 2.1140484e-06
7.9589864e-07 2.5158565e-06 4.1546778e-07 2.6088514e-06 -1.7155431e-06 2.7730723e-08 -1.942527e-06 -1.7885138e-06
-2.194783e-06 4.6214896e-07 -1.1745104e-06 -9.328944e-07 1.7413787e-06 1.3124675e-06 -1.8596401e-06 1.7286109e-06
-7.8266373e-07 -1.6662705e-06 1.3671439e-06 -1.0323615e-06 2.8963927e-06 2.2772206e-06 7.924676e-07 2.4121584e-07
1.0858289e-07 2.2121685e-06 -1.2569608e-06 -1.1286002e-06 -2.061023e-06 -5.262072e-07 6.239301e-07 -2.0650343e-06
-5.528509e-07 1.5522099e-06 4.3294108e-07 1.6675373e-06 -1.5559297e-06 -3.02116e-07 5.432187e-07 -1.7918335e-06
-8.046356e-07 6.1342683e-07 -7.1344294e-07 -1.0936488e-06 1.3702216e-06 8.34221e-07 -1.8459525e-06 1.6466331e-06
1.2178722e-06 1.3941905e-06 -1.3151221e-07 2.5252418e-06 -5.205823e-07 -3.2348044e-08 -1.4292436e-06 -6.625344e-07
-2.263166e-06 -1.2935423e-07 3.457557e-07 -9.3860154e-07 -4.4967445e-07 -1.2998697e-07 1.0470415e-06 1.5690162e-07
-1.3247385e-06 1.7404785e-06 1.5528727e-06 1.456189e-06 -1.5491958e-07 4.4348127e-07 -1.2575475e-06 -1.7315955e-06
-9.2961756e-07 1.0580386e-06 -7.7926603e-07 -1.1381985e-06 2.4784222e-07 1.2917026e-06 -1.7134738e-06 1.2387521e-06
2.7631324e-06 9.2066975e-06 1.1140615e-06 1.1977191e-05 4.1647627e-07 5.392032e-07 -1.2902386e-05 -4.4752314e-06
-6.074187e-06 1.0032384e-06 -6.072174e-06 -3.2224104e-06 -6.7428005e-07 2.328928e-06 -1.8937649e-06 5.9655044e-06
-2.3438436e-06 -1.2711376e-07 1.533199e-06 -4.376396e-07 1.6276256e-06 2.7874125e-07 8.6398796e-07 -6.034657e-07
-2.3488774e-07 9.190537e-07 -3.444517e-07 -7.813289e-07 3.5251782e-07 -6.240999e-09 -6.8937703e-07 -6.775781e-09
4.640443e-06 1.5595303e-06 -1.451937e-06 2.1963963e-06 3.608637e-06 6.238034e-06 -3.7009565e-06 -6.7534484e-07
-5.3646195e-06 1.8907223e-06 -1.7972832e-06 -2.9474415e-06 -7.654445e-06 -5.588311e-06 9.761572e-06 -7.149967e-07
-1.5493504e-06 1.6318247e-06 7.1294363e-07 4.459835e-07 5.521879e-07 3.2615753e-07 -3.0851047e-07 -4.114077e-07
-1.2554585e-06 7.871183e-07 -5.422865e-07 -2.0881403e-06 1.3179481e-06 5.845849e-08 -1.835936e-07 5.061255e-07
-1.3050951e-06 -4.040185e-07 1.4899562e-06 -1.9417897e-07 5.3640895e-07 5.4721534e-07 1.1949687e-06 -8.347842e-07
-5.9339476e-07 7.3329227e-07 -5.4317803e-07 -5.543148e-07 7.1045264e-07 4.4248455e-07 -1.4638856e-06 2.380708e-07
-5.333584e-06 4.8935294e-07 2.8201669e-06 -1.6585699e-06 3.1683005e-06 1.0166605e-06 2.002178e-06 -9.386504e-07
-9.902031e-07 2.8843003e-06 -4.4972526e-07 -1.8437996e-06 1.1138188e-07 -1.3110832e-06 -1.0691808e-06 1.1024554e-06
8.7189085e-07 2.9206221e-06 -4.469435e-07 2.1547216e-06 -2.657155e-06 2.4052775e-07 7.605213e-07 -1.4013671e-06
-8.2744725e-07 -1.00816116e-07 -2.2540507e-06 -1.9482222e-06 2.0902212e-06 3.310212e-07 -2.1636988e-06 2.4301726e-06
-3.8893295e-06 2.59737e-07 2.0699956e-06 -2.6026032e-07 3.6207955e-06 -1.3826774e-06 1.6385694e-06 -1.7254293e-06
6.774572e-07 3.6358877e-06 -5.5046644e-07 -3.0422937e-06 1.3014468e-06 -4.084692e-07 -1.9619586e-06 1.6997339e-08

exp_avg_sq f4 [784, 16]
00000000: 8de0 4731 f2e0 9731 0afa f930 04d0 8c31
00000010: 3e57 8832 a229 6c30 29f4 fa31 445f 1531
00000020: 37d6 9e30 8509 8632 0fe1 5331 6f85 ae30
00000030: d4fd a931 1972 1131 03a3 ed30 758b bd31
00000040: 4aa1 892f 8b9b 612f 3ec2 5d30 d281 732e
00000050: 2414 2f2f 586c f62f d19c ff2e fa63 2730
00000060: 5542 572f 2ff1 692e 4e50 012e e86a 4f2f
00000070: 4732 0d30 522f 7c2e 0d53 382f 265d 692f
00000080: 5069 8e2e cbfb 3b2f 288e 592e ea1f 712e
00000090: 6814 222f 89fc db2e ef51 a02d 3a0c 622e
000000a0: e0ba d72e 0ffb 302f 1ec1 172f 018d 3d2e
000000b0: 1302 0e2e 838c f52d 4702 9a2f 252c 0e2f
000000c0: 34b1 1b2f a049 c72e db66 ce2e 121e 892e
000000d0: be68 982e 3514 992e 2629 cc2e f975 a42d
000000e0: a145 532f cdfb 9c2e ac0b 762e 3e17 6a2e
000000f0: c30c 492e 6b4a 6e2d 47ba 042f e4e1 252e
00000100: 771f 012f 2eb4 2a30 9de5 3f2f b3cd 0e2f
00000110: 28db 4530 3b68 3d30 4aea bf2d ad06 8d2e
00000120: 4bff ce2d 6417 0e30 21cf e92e e89f a32e
00000130: 9568 ea30 22d9 302f 2aa4 1a30 c5ca ed2f
00000140: eff6 bc2e 3292 f22e 8a93 1e2f dcdf 9b2d
00000150: 295c 932e be22 102f e7d8 462e cdae c82d
00000160: 15c3 642f 0af9 e42d a365 7d2e 5428 952e
00000170: 6411 332e c8a5 672d ce42 692f 72bf 3f2e
00000180: 550b d32e afcd 972e 9ef4 fd2e 9338 962e
00000190: a98f df2e 25f8 502e d563 852e 99f8 c62d
000001a0: dd23 f82d 300e 302e 50e1 9c2d df86 5d2e
000001b0: 386e 642f 2606 852e ceb1 832f 8a45 762e
000001c0: 5ede 7b2e efe4 172f f006 5c2f f084 582e
000001d0: 54ff 8b2e 0438 082f f2aa e32e 3521 342e
000001e0: 6e84 fc2e e7b9 0f2e 4195 4e2e 97dd 5d2e
000001f0: caed 8a2e ecd9 8f2d 581c 032f 8ce2 462e
00000200: a388 0f2f 24cf 1c30 fef6 a72f 767d c630
00000210: 8227 b92f af81 4e2f 4ce8 3631 207d 532f
00000220: 7f9c ff2f 1810 682e c587 c12f eef0 ff2e
00000230: 77af 342f adbc 4d2e 3094 012f 1b64 932f
00000240: ea0b 132e cf87 832e e999 cc2e f246 362d
00000250: dfc8 122e c25d 662e 1cc9 172d d772 1a2d
00000260: ada3 162e 7e8c a22d c880 c92d 4640 d22d
00000270: fa60 252e 32cc 822c 4972 352e f497 be2d
00000280: e826 5530 7a07 6630 d899 7630 5524 2030
00000290: 7c9a 1630 0621 0b30 5701 a52f b264 e12e
000002a0: 61f1 c42f edf2 032f 1e02 712f 12a3 2630
000002b0: a357 8230 da48 5330 2b6b 0031 7fea 3c30
000002c0: 35d2 292f 7881 682f 5b25 962f 348c 9f2d
000002d0: f6a5 332f 67c8 972f 5af8 7f2e 593d 9a2e
000002e0: 3a55 622f 430a 962e b679 722d 667f a82e
000002f0: 0c24 f12e 8479 9b2d 672d 3f2f 4427 102e
00000300: 7abd 102e b424 2d2e 9e1b 9b2e a61a 422d
00000310: 2c2a 342e 7559 0f2e 8b7f 3e2d cf3f c32c
00000320: a89d 212e 734c a92d e74a ac2d bb0c ca2d
00000330: 2f29 bb2d 8167 cf2c 336d 482e 19d8 8f2d
00000340: ebde 122f a6dc 712f 9f98 252f 3430 e72d
00000350: 52e1 3a2f b440 fb2e e597 8b2e 6c11 042e
00000360: bcc0 252f 4497 892e 2b18 822e c23a 122e
00000370: 0631 672e 167d d32d 8df6 922f d4cf 542f
00000380: 3d7e 8b2e 812d 8f2f cc55 062f 2407 512e
00000390: cb5c 0f2f 6d6a f72e 3c15 c12d 3fe9 1b2e
000003a0: efd4 072e c578 fb2d b546 c12e 25b5 4c2e
000003b0: 02a3 f72e 1859 122d 25f8 5b2f 701d 3e2f
000003c0: 3b5a c32f 113f 0130 f3cc 5a30 e811 a72e
000003d0: 5efe b82f 5636 b92f d287 ac2e 2212 832f
000003e0: 3411 5d2f 1884 c12f c007 0d2e 45d3 122f
000003f0: acb3 a62f ef92 4a2e d34e 962f eeb4 eb2e
2.9085954e-09 4.4202517e-09 1.81882e-09 4.098185e-09 1.5872157e-08 8.5915464e-10 7.3037154e-09 2.1736506e-09
1.1556897e-09 1.5603982e-08 3.0832472e-09 1.269809e-09 4.9474043e-09 2.1165134e-09 1.729035e-09 5.5164784e-09
2.5034758e-10 2.0518891e-10 8.0675366e-10 5.5367107e-11 1.5923313e-10 4.4824122e-10 1.16239136e-10 6.089632e-10
1.9577702e-10 5.319228e-11 2.940253e-11 1.8864521e-10 5.136695e-10 5.7340195e-11 1.6764208e-10 2.122432e-10
6.4761196e-11 1.7097006e-10 4.9466348e-11 5.48254e-11 1.4741064e-10 1.0003826e-10 1.822628e-11 5.139731e-11
9.810264e-11 1.60963e-10 1.3801979e-10 4.309886e-11 3.2288904e-11 2.7915675e-11 2.8014055e-10 1.2930508e-10
1.4160123e-10 9.062551e-11 9.386066e-11 6.23538e-11 6.930766e-11 6.961224e-11 9.2841554e-11 1.8697032e-11
1.9215075e-10 7.1387875e-11 5.594429e-11 5.3226083e-11 4.5713443e-11 1.3545258e-11 1.2071509e-10 3.7717288e-11
1.174366e-10 6.210169e-10 1.7452924e-10 1.2987904e-10 7.197962e-10 6.890592e-10 2.1818231e-11 6.4131235e-11
2.3532861e-11 5.169254e-10 1.0632407e-10 7.440787e-11 1.7055465e-09 1.6084248e-10 5.6258165e-10 4.3254125e-10
8.5931144e-11 1.10308554e-10 1.4422433e-10 1.7720873e-11 6.701157e-11 1.3109067e-10 4.5212636e-11 2.2814995e-11
2.0805786e-10 2.6031195e-11 5.761581e-11 6.782899e-11 4.0715334e-11 1.3167641e-11 2.121496e-10 4.359841e-11
9.597182e-11 6.903222e-11 1.1548561e-10 6.83126e-11 1.0166385e-10 4.751412e-11 6.0658735e-11 2.2620393e-11
2.8210262e-11 4.0030368e-11 1.7835206e-11 5.0369372e-11 2.0775637e-10 6.049232e-11 2.39551e-10 5.5995687e-11
5.7268294e-11 1.3814704e-10 2.0011348e-10 4.9230786e-11 6.3663436e-11 1.2389029e-10 1.0353131e-10 4.0956755e-11
1.14831575e-10 3.267955e-11 4.697154e-11 5.0446394e-11 6.317753e-11 1.6353995e-11 1.192445e-10 4.5221202e-11
1.3054317e-10 5.7046834e-10 3.0552622e-10 1.4442054e-09 3.3679376e-10 1.8781664e-10 2.6616531e-09 1.9234792e-10
4.6495427e-10 5.2764987e-11 3.5202966e-10 1.1638855e-10 1.6433242e-10 4.677918e-11 1.1785128e-10 2.6810273e-10
3.3434512e-11 5.981315e-11 9.304186e-11 1.0361255e-11 3.3374966e-11 5.237922e-11 8.6280115e-12 8.779386e-12
3.4251425e-11 1.8479659e-11 2.2908245e-11 2.3902779e-11 3.760279e-11 3.7174925e-12 4.125614e-11 2.166798e-11
7.754424e-10 8.368414e-10 8.9712904e-10 5.825929e-10 5.478922e-10 5.0614835e-10 3.0014277e-10 1.02497025e-10
3.5823702e-10 1.2000685e-10 2.1919574e-10 6.0622185e-10 9.483653e-10 7.686488e-10 1.868737e-09 6.872724e-10
1.5445141e-10 2.1146274e-10 2.7311384e-10 1.813847e-11 1.6338916e-10 2.7609134e-10 5.8200868e-11 7.014007e-11
2.0584859e-10 6.823033e-11 1.3783133e-11 7.662386e-11 1.09658144e-10 1.7675424e-11 1.7387479e-10 3.2776684e-11
3.2910098e-11 3.9368245e-11 7.05349e-11 1.103354e-11 4.0964718e-11 3.259389e-11 1.082857e-11 5.5493175e-12
3.674719e-11 1.9247026e-11 1.95874e-11 2.2970395e-11 2.1277728e-11 5.894785e-12 4.5571723e-11 1.6353184e-11
1.3357819e-10 2.1997212e-10 1.5060884e-10 2.6283066e-11 1.6996651e-10 1.1425652e-10 6.34797e-11 3.00288e-11
1.5075136e-10 6.256909e-11 5.916009e-11 3.3248744e-11 5.256686e-11 2.4043472e-11 2.673243e-10 1.9355123e-10
6.3434126e-11 2.604388e-10 1.221771e-10 4.752744e-11 1.3038741e-10 1.12511646e-10 2.195099e-11 3.5450084e-11
3.088457e-11 2.8589029e-11 8.789184e-11 4.654512e-11 1.12612156e-10 8.318922e-12 2.0006093e-10 1.7290858e-10
3.5534406e-10 4.701955e-10 7.959919e-10 7.5974615e-11 3.3650144e-10 3.3689912e-10 7.845781e-11 2.3841645e-10
2.0105945e-10 3.5200354e-10 3.206657e-11 1.335368e-10 3.032289e-10 4.6059986e-11 2.734085e-10 1.0718702e-10

exp_avg f4 [16]
00000000: 1a65 dcb8 2e7d ccb9 5563 eb38 eeda b339
00000010: 8a77 9dba 417b 0c3a f6f8 b038 f45d acb9
00000020: 1e76 6f38 f160 2fba a1d1 7fba a191 af37
00000030: 669c 373a 93bd 05ba 8225 683a db81 8c3a
-0.00010509249 -0.00039003178 0.00011224175 0.00034304656 -0.0012013775 0.00053589424 8.4387066e-05 -0.00032876397
5.7092046e-05 -0.00066901656 -0.0009758715 2.092944e-05 0.0007004201 -0.0005101796 0.0008855687 0.0010719852

exp_avg_sq f4 [16]
00000000: 457a 5137 c3c1 8737 bea3 0537 71d9 7937
00000010: fc69 aa37 6de3 8136 2428 9536 a33d 2c37
00000020: dbe2 0f36 f9c6 2337 295e 6337 9c9a c336
00000030: ffa7 7937 519b cc36 4361 3d37 3979 c937
1.2485839e-05 1.6183481e-05 7.965542e-06 1.4892184e-05 2.0314932e-05 3.8709754e-06 4.445219e-06 1.026635e-05
2.1440708e-06 9.761884e-06 1.3552178e-05 5.8294518e-06 1.4880671e-05 6.097755e-06 1.1287923e-05 2.4017516e-05

exp_avg f4 [16]
00000000: 1511 e3b7 e585 b039 e26b 0f39 c2a1 133a
00000010: 1fb6 3fb9 c7dd beb9 da86 52b8 8d97 dab9
00000020: 63ab 8ab7 8cde 5939 9580 dbb8 e988 4cb9
00000030: 21be 9039 32a3 113a a220 1cba f995 5c38
-2.7068463e-05 0.00033669095 0.00013677732 0.0005631709 -0.00018283025 -0.0003640486 -5.0193492e-05 -0.00041693114
-1.653069e-05 0.00020777638 -0.00010466684 -0.00019505959 0.00027607477 0.0005555629 -0.00059557904 5.259176e-05

exp_avg_sq f4 [16]
00000000: 45e5 a836 d715 2236 9376 4c36 d7c1 5536
00000010: 13fc 6636 6268 d335 dcc5 0436 6fa4 4f36
00000020: d7ff 1936 a881 4f36 0e47 1536 5c4e d535
00000030: 5a14 9336 4167 a835 19c6 1236 8d6d 7e36
5.0334806e-06 2.4152594e-06 3.0467388e-06 3.1852303e-06 3.4419397e-06 1.5751104e-06 1.9784702e-06 3.0941117e-06
2.2947695e-06 3.0920874e-06 2.224409e-06 1.5892542e-06 4.3833106e-06 1.2547026e-06 2.1871003e-06 3.7912716e-06

exp_avg f4 [16]
00000000: 6922 a5b9 9716 9cb9 6aca d338 348e 8c39
00000010: 3671 4fba 0ee9 ce39 1c6f 35b9 87ee 17b8
00000020: 6d5d 3238 d9d5 f1b9 0b92 cdb9 3128 5939
00000030: 268e c239 5513 dcb9 2134 2e3a d841 2c3a
-0.0003149689 -0.0002977147 0.000100989666 0.0002680883 -0.0007913293 0.0003946502 -0.00017302897 -3.622335e-05
4.2525517e-05 -0.0004612643 -0.00039209457 0.00020709705 0.00037108472 -0.00041976073 0.0006645341 0.0006571091

exp_avg_sq f4 [16]
00000000: 0b5e b336 d018 c536 cb9d 8436 c7dc f736
00000010: dac4 2037 395f 3136 7d29 3c36 cc81 a836
00000020: 6ccd d235 94ad 8036 188d 9036 4189 0236
00000030: 07ae cf36 aef6 7836 8f21 9f36 698c 2637
5.3455637e-06 5.873946e-06 3.952276e-06 7.3868755e-06 9.582576e-06 2.6430482e-06 2.8038332e-06 5.0219005e-06
1.5706005e-06 3.8349044e-06 4.30796e-06 1.9451402e-06 6.18934e-06 3.7098466e-06 4.742476e-06 9.927063e-06

exp_avg f4 [16]
00000000: eef5 6039 1cf7 4238 dcad adb8 c6bd 9a39
00000010: 0024 8fb9 4130 a1b9 57e0 a2b8 49b6 94b9
00000020: 5f0f 8c39 dae0 6a38 f7e3 c8b8 1e7d 88b8
00000030: 7bfb 1438 f466 083a b34a 81b8 4aac 61b8
0.0002145392 4.6483343e-05 -8.281667e-05 0.0002951456 -0.00027301908 -0.00030744265 -7.7665485e-05 -0.00028364573
0.00026714333 5.5999357e-05 -9.579205e-05 -6.50829e-05 3.552016e-05 0.00052033295 -6.165113e-05 -5.3804637e-05

exp_avg_sq f4 [16]
00000000: cc9b 9635 706f a935 181a 7f35 741a d435
00000010: 72ec f035 2311 b335 03b5 5135 8602 6d35
00000020: d807 b535 38d5 9d35 3721 2e35 c370 9535
00000030: 035b 9e35 0b71 6635 25f4 ad35 b63b c935
1.1221214e-06 1.2623914e-06 9.5032874e-07 1.580293e-06 1.7950208e-06 1.3341527e-06 7.8121974e-07 8.829305e-07
1.3487834e-06 1.1759466e-06 6.4868385e-07 1.1134183e-06 1.1798405e-06 8.5846176e-07 1.296056e-06 1.4993045e-06

exp_avg f4 [48, 16]
00000000: aaf2 d537 ce14 3036 4b70 40b7 6e23 0eb7
00000010: 4c50 d7b7 c3a6 6cb6 0ada 9937 2381 81b4
00000020: ef58 0f37 bd0d 84b3 77be a0b5 c78a e034
00000030: 421d a1b7 b583 0837 3a73 cb37 4f09 b7b7
00000040: f241 9135 a94b 35b7 7404 2d35 f52b 82b7
00000050: 3c7a 3b36 cbfb a335 5221 4737 fe80 a136
00000060: 4be9 fa36 a585 e636 0d97 a636 b5d7 6eb3
00000070: 6234 59b7 4b99 ddb5 4164 2f37 9d3c 4eb7
00000080: 4d22 0537 67c9 0eb7 6983 ed35 a4e3 1136
00000090: 4647 80b6 3f84 a7b6 5471 2c37 8379 a5b5
000000a0: ed76 8236 85e6 0d37 9a30 cfb6 19fe 7b36
000000b0: 66fa f5b5 7753 e3b4 f7d0 20b7 54b1 77b6
000000c0: ab77 5bb7 1047 41b6 ffe6 dd35 e3b2 cbb6
000000d0: 4f7f a337 33f1 29b7 5fdc 84b7 f96a 0834
000000e0: 6215 1e37 9691 0b37 4c4e 9237 d697 3237
000000f0: a8f1 7eb6 ed4f 1cb7 dd3e cbb6 64a5 8535
00000100: da93 26b8 cad9 f8b6 6901 4a37 3db4 c1b7
00000110: fa49 d037 b7f5 3437 b8f7 90b7 156e 9037
00000120: d702 8433 dc77 afb6 a5ad a937 a544 6537
00000130: ee72 4437 75ef 85b7 cde3 ce36 4eca a7b6
00000140: 0119 f2b6 64b7 3e37 4f9d c7b5 e521 b436
00000150: d8f1 a336 2bdb 0e37 7246 42b7 d0b2 83b5
00000160: 1f66 34b7 de1d 10b7 3af6 f1b5 e136 35b7
00000170: 49d4 0b37 1228 5f35 d014 6e36 1321 6237
00000180: b244 18b7 383c ff36 b8fe 7f35 0fe2 8935
00000190: 1b2a 6fb7 0816 7f37 758c a8b6 f8ba be36
000001a0: 1600 74b7 e61d 41b7 14b5 99b6 4b93 04b3
000001b0: af8f d037 cb55 81b6 9ec1 4e37 2703 63b6
000001c0: 010a 04b8 9601 9db7 5c70 6b37 4296 a5b7
000001d0: 49b7 3837 725f 44b6 335b 62b7 7a3d 2c37
000001e0: cc3a a736 5f79 2c37 1205 bf37 642c 9137
000001f0: e9b2 e436 b374 41b7 0b1d f436 5b72 f0b6
00000200: 094c 18b8 0f2f b0b6 c6bb a436 d1ae 0eb8
00000210: e2ad 9735 e127 56b7 e0c5 0a38 6abb 0c38
00000220: 957d 1937 170f 98b7 75ae 3937 f0e5 aa35
00000230: 7e63 5537 e4d6 03b7 a045 3c37 4a74 73b6
00000240: 4f8f c836 8efa f835 a0de feb4 9bab 6a36
00000250: 6c63 3336 afdf d3b5 0ddb 9a36 a995 b2b5
00000260: c87d 3136 71ca 9536 971c 74b6 8399 9db6
00000270: 3e21 c8b6 adbd d5b4 16c5 17b7 cc85 b835
00000280: 5127 3fb7 5d89 c536 5186 21b7 ed84 81b7
00000290: 1596 e5b6 923a feb6 1e13 b837 1064 a837
000002a0: 0a27 1f36 dd4b 23b7 a5af a7b6 9954 9e36
000002b0: f29e 9d37 1597 24b7 5d25 a3b6 7f5b 1237
000002c0: bf49 8db7 163c 66b6 4c37 bbb6 da9b 1db7
000002d0: 6e04 94b7 ea6c abb7 b610 3738 7aa5 a037
000002e0: fa4a ff36 a8eb 06b6 1552 9c36 33db 8436
000002f0: 0942 a536 f3d7 bdb6 c9d5 2bb7 3897 8b36
00000300: b7f1 6db5 8ee8 64b6 99c1 6436 38f3 56b7
00000310: fec7 c6b6 dbe3 f436 1da4 dcb6 56f2 8536
00000320: 31a9 cd35 cdee 18b7 b37c c736 52f0 df36
00000330: eac1 90b6 9728 6d36 5184 a937 d074 20b7
00000340: 5805 5738 8012 b6b5 9f67 32b6 5b55 3c38
00000350: bc1e 02b8 15bc 02b8 2b60 54b6 6f52 b2b7
00000360: 2ae8 55b6 35dc cb37 fed9 cfb6 fb3a 90b7
00000370: eba9 b5b7 3512 ba36 4c75 7536 7051 ed36
00000380: 34b7 3937 be07 1837 6afd 4236 9237 4137
00000390: 4baa 9a37 a39f 6a36 b326 c4b7 6f61 57b7
000003a0: 9b5d 2ab6 647f f836 076a 37b7 7f8f aab7
000003b0: 5522 5eb7 7574 3a37 1eba 9736 b489 bc36
000003c0: 814b bdb7 af9b 24b7 fc3d 4eb5 4dcc a9b7
000003d0: 3dcc 65b7 dc4f d9b7 f446 c237 6c8a da37
000003e0: d12b e136 19aa 11b7 7b5b 7637 033f 3837
000003f0: dc1f a737 98ba 8db7 e2d8 3e37 a447 cc36
2.5504578e-05 2.6238154e-06 -1.1470237e-05 -8.472109e-06 -2.5667388e-05 -3.5263809e-06 1.8340554e-05 -2.4122082e-07
8.544171e-06 -6.149228e-08 -1.1976362e-06 4.1824225e-07 -1.920632e-05 8.136897e-06 2.4253142e-05 -2.1819635e-05
1.0822534e-06 -1.0806057e-05 6.4454e-07 -1.5517677e-05 2.7936321e-06 1.2217728e-06 1.1869082e-05 4.8131906e-06
7.4777395e-06 6.8700924e-06 4.96477e-06 -5.5609878e-08 -1.2946404e-05 -1.6510397e-06 1.0454155e-05 -1.2292669e-05
7.935404e-06 -8.510752e-06 1.7696121e-06 2.1739188e-06 -3.8229946e-06 -4.9923833e-06 1.0278385e-05 -1.2328823e-06
3.8881467e-06 8.457927e-06 -6.1747387e-06 3.754982e-06 -1.8326798e-06 -4.2342774e-07 -9.585397e-06 -3.6909087e-06
-1.308128e-05 -2.8800605e-06 1.6533012e-06 -6.0706966e-06 1.9490397e-05 -1.01293435e-05 -1.5838245e-05 1.2704903e-07
9.422512e-06 8.3189425e-06 1.7441016e-05 1.0644979e-05 -3.7989612e-06 -9.316934e-06 -6.0571897e-06 9.957407e-07
-3.971518e-05 -7.41633e-06 1.2040467e-05 -2.3091323e-05 2.482998e-05 1.0786046e-05 -1.728149e-05 1.7217399e-05
6.1472456e-08 -5.22936e-06 2.022723e-05 1.3665446e-05 1.17092695e-05 -1.5966341e-05 6.165798e-06 -5.000539e-06
-7.215073e-06 1.13675815e-05 -1.4872438e-06 5.368364e-06 4.885933e-06 8.514889e-06 -1.1579703e-05 -9.812302e-07
-1.0752613e-05 -8.590023e-06 -1.8027561e-06 -1.0801218e-05 8.334472e-06 8.3132284e-07 3.5476878e-06 1.347835e-05
-9.0759e-06 7.6066026e-06 9.536557e-07 1.0273087e-06 -1.42553135e-05 1.5204314e-05 -5.0231415e-06 5.6842073e-06
-1.4543553e-05 -1.1510658e-05 -4.5808356e-06 -3.0867607e-08 2.486244e-05 -3.854487e-06 1.2323637e-05 -3.382747e-06
-3.148057e-05 -1.8716597e-05 1.4033252e-05 -1.9739502e-05 1.1009929e-05 -2.9261832e-06 -1.3491884e-05 1.02663125e-05
4.9838327e-06 1.0280258e-05 2.2771335e-05 1.7306018e-05 6.8157574e-06 -1.1530868e-05 7.2751477e-06 -7.16587e-06
-3.6310437e-05 -5.250687e-06 4.9094406e-06 -3.401825e-05 1.1300983e-06 -1.2764679e-05 3.308605e-05 3.3553144e-05
9.14875e-06 -1.8126839e-05 1.1067478e-05 1.2732908e-06 1.2718954e-05 -7.858242e-06 1.1221884e-05 -3.627751e-06
5.977148e-06 1.8550361e-06 -4.7473168e-07 3.4968605e-06 2.673095e-06 -1.5785826e-06 4.6150585e-06 -1.330559e-06
2.644827e-06 4.4641133e-06 -3.6375475e-06 -4.6968357e-06 -5.9643344e-06 -3.981235e-07 -9.046189e-06 1.3748008e-06
-1.1393641e-05 5.8870487e-06 -9.627621e-06 -1.5439897e-05 -6.8422037e-06 -7.5766084e-06 2.1943411e-05 2.0073756e-05
2.371557e-06 -9.73322e-06 -4.9974356e-06 4.7186154e-06 1.8789873e-05 -9.810338e-06 -4.862128e-06 8.723581e-06
-1.684285e-05 -3.4307645e-06 -5.5794717e-06 -9.394216e-06 -1.7645038e-05 -2.0435506e-05 4.3646163e-05 1.9150542e-05
7.6083206e-06 -2.0104726e-06 4.658718e-06 3.9594247e-06 4.9250707e-06 -5.6577787e-06 -1.024217e-05 4.160127e-06
-8.864112e-07 -3.4110012e-06 3.4087336e-06 -1.2812023e-05 -5.924142e-06 7.2982925e-06 -6.575616e-06 3.9919205e-06
1.5322931e-06 -9.115506e-06 5.945179e-06 6.673895e-06 -4.314109e-06 3.5339378e-06 2.0207985e-05 -9.563941e-06
5.126497e-05 -1.3565441e-06 -2.6584382e-06 4.4902186e-05 -3.102304e-05 -3.116958e-05 -3.1646439e-06 -2.125764e-05
-3.187461e-06 2.4302028e-05 -6.1944584e-06 -1.7193603e-05 -2.1656006e-05 5.5453515e-06 3.657612e-06 7.072631e-06
1.1069515e-05 9.061709e-06 2.905576e-06 1.1516635e-05 1.843753e-05 3.4961638e-06 -2.3383041e-05 -1.2837684e-05
-2.538646e-06 7.405806e-06 -1.0932336e-05 -2.03324e-05 -1.3240225e-05 1.1113579e-05 4.5218176e-06 5.6188674e-06
-2.2565715e-05 -9.81141e-06 -7.683118e-07 -2.0241505e-05 -1.3697017e-05 -2.5905603e-05 2.3159642e-05 2.6052083e-05
6.7106234e-06 -8.682277e-06 1.4684042e-05 1.0981926e-05 1.9922787e-05 -1.68954e-05 1.13753795e-05 6.088014e-06

exp_avg_sq f4 [48, 16]
00000000: 71bf ff31 c0f8 8131 c7e8 e631 5a39 ea31
00000010: 02fc eb31 2b14 b331 a1fb 2832 a592 f831
00000020: 35e1 e731 5975 3432 e093 0732 5d91 8231
00000030: 6cf7 2332 181e 7531 c45b f531 066a d831
00000040: f25f 0431 ee0b 8330 53eb 4630 919f 0d31
00000050: be6a b130 d563 6930 2ad6 8331 3fc8 1a31
00000060: f2a1 7930 8ec8 8731 3733 1431 1a4a 5c30
00000070: bbef 4631 7809 5730 bd4d 9030 8560 8730
00000080: bf73 0131 e281 6d30 443c 5130 adf6 3631
00000090: 59e1 6130 fb2c 5e30 bced 9831 d168 f930
000000a0: 887c 6c30 3d6b 1531 cb87 1f31 b30f 3b30
000000b0: a245 2331 ea28 7130 e8df 5930 15a7 9730
000000c0: d5e9 cb31 6443 1631 bd69 3731 7ca6 7831
000000d0: a613 5d31 8242 8131 c203 d231 68e3 b731
000000e0: fc5e 7531 ade1 1432 2425 c631 8cf8 3731
000000f0: ba1d a031 0673 1731 121f 6a31 ad0e 3831
00000100: d53b 6b32 4933 7031 9c10 8e31 d463 3232
00000110: b32d c431 520b c031 b164 4932 b1b2 6432
00000120: 9eb0 a231 ef47 8b32 a5c2 1c32 a548 8331
00000130: 8b58 3232 a1ae 5931 8fbb b331 cd68 9e31
00000140: bf6b 0731 3224 b030 cce3 b430 0146 6731
00000150: 00eb c930 b080 8330 146e ea31 5d71 e430
00000160: d01f aa30 d12d db30 c285 4b31 e36a 8530
00000170: 5c9f 6531 5692 b530 8a55 9c30 f16c e030
00000180: 38c6 d331 3733 4f31 b8df 9931 c779 a231
00000190: bd1a bf31 b7e8 8f31 9ecd 0932 de42 f531
000001a0: 041e 9a31 484b 4632 9939 bc31 b493 4c31
000001b0: 0fbe ec31 7db3 5f31 77c3 cf31 5da3 a731
000001c0: f9d1 4032 aa33 8131 ee0c 9831 8939 d631
000001d0: 2556 c331 7af0 d531 37b3 fc31 b60c 3a32
000001e0: 9ec6 be31 7667 9632 986f 1b32 4159 9d31
000001f0: 8adf 0f32 6ad4 5131 1e4e e231 bd26 8731
00000200: a7cf 3332 5aeb d830 9307 0331 9372 e331
00000210: 8719 4531 54b3 0431 a86f cc31 16b7 4732
00000220: 1685 2431 d5ed 2f32 ea2a 9231 c37c 4031
00000230: 2999 fb31 d969 c430 8ec0 1c31 b4f0 5531
00000240: 738e 2131 fe30 5930 6b20 c130 a579 c930
00000250: 7710 ac30 31bb 9730 1481 1e31 f06f 1731
00000260: 18a1 ec30 78ce 2331 18eb e430 db3d 8e30
00000270: ea52 3331 520a 6730 ef7a 9230 9924 a730
00000280: 0488 1d32 f120 1931 a44e 5e31 d947 c731
00000290: a267 6f31 31af 7231 a5ab bf31 2909 0c32
000002a0: f2f4 9b31 2074 0f32 49b9 9931 dc84 5331
000002b0: e3f6 1232 8230 3931 97c6 7431 94a8 9231
000002c0: a67d 0632 30b8 2e31 a31a 3d31 4b74 e731
000002d0: 81d4 9031 724e 5931 5ffb 5c32 4f92 0532
000002e0: e88c 6c31 9046 0232 c8e5 0032 9ad8 2731
000002f0: 2b21 0832 4b23 2b31 bf62 4131 1db8 6131
00000300: 8830 5b31 3257 9d30 57e1 c830 fbcf 3e31
00000310: 3682 de30 9696 d130 ec1f 3531 95f6 8231
00000320: 37b6 1231 27ac cd31 aff4 1131 191e d230
00000330: 9d3a 8a31 3d10 b330 bd79 de30 975e 2531
00000340: 0127 8332 9f94 6031 4203 a931 f334 1d32
00000350: cbb7 da31 fb00 cd31 5146 1432 76e3 2532
00000360: 7e3b ea31 7015 3832 a9e2 0d32 ed09 7c31
00000370: 7908 1b32 45fd 5b31 c257 c031 deb7 ae31
00000380: 6ef5 0632 c485 0331 cfbe 2c31 42d0 d631
00000390: e249 8931 de9c 1f31 b483 3b32 b183 0932
000003a0: 2cb9 7431 6996 3532 71fd f231 8aca 6731
000003b0: 79e4 2e32 bd2e 1331 2d48 1031 874f 5231
000003c0: 015d be31 a73e 0c31 5b54 2a31 66d6 a631
000003d0: 4cf1 5d31 2cd9 3a31 ea01 a731 b263 ce31
000003e0: 5012 6331 1742 a231 564c 3831 d045 1931
000003f0: 5289 f931 21df 0431 ae54 2831 92a0 4931
7.443241e-09 3.7826737e-09 6.7203447e-09 6.8168164e-09 6.86805e-09 5.2118785e-09 9.836101e-09 7.2344215e-09
6.748588e-09 1.0504061e-08 7.891657e-09 3.800024e-09 9.544106e-09 3.5669299e-09 7.140871e-09 6.298481e-09
1.9263067e-09 9.534895e-10 7.2366396e-10 2.0608903e-09 1.2908783e-09 8.4906776e-10 3.8369494e-09 2.2523776e-09
9.081581e-10 3.9518175e-09 2.1565947e-09 8.014084e-10 2.8949063e-09 7.823e-10 1.0499474e-09 9.849975e-10
1.8837765e-09 8.640467e-10 7.61194e-10 2.6624705e-09 8.217476e-10 8.082705e-10 4.4508095e-09 1.8146925e-09
8.603327e-10 2.1743312e-09 2.3214735e-09 6.8052514e-10 2.3759203e-09 8.773343e-10 7.926233e-10 1.1034184e-09
5.934661e-09 2.186618e-09 2.669011e-09 3.6183385e-09 3.2170901e-09 3.761955e-09 6.1122316e-09 5.351854e-09
3.5706185e-09 8.6660465e-09 5.766781e-09 2.6771287e-09 4.6599924e-09 2.2038775e-09 3.4069143e-09 2.6783866e-09
1.36924045e-08 3.4953749e-09 4.134632e-09 1.0383662e-08 5.709546e-09 5.5892224e-09 1.1722634e-08 1.3311976e-08
4.7348996e-09 1.6214441e-08 9.124652e-09 3.8208605e-09 1.0381096e-08 3.167692e-09 5.2309086e-09 4.6103197e-09
1.9706332e-09 1.2815973e-09 1.3161467e-09 3.3654717e-09 1.4691466e-09 9.56808e-10 6.8228108e-09 1.6621403e-09
1.237817e-09 1.5947369e-09 2.961642e-09 9.707403e-10 3.3414471e-09 1.3211074e-09 1.1374806e-09 1.6329108e-09
6.163443e-09 3.0151577e-09 4.47832e-09 4.728665e-09 5.5618714e-09 4.1883044e-09 8.0212015e-09 7.1380404e-09
4.4854023e-09 1.1542234e-08 5.478068e-09 2.9769867e-09 6.890111e-09 3.2552798e-09 6.0467147e-09 4.878912e-09
1.1223613e-08 3.7602677e-09 4.425252e-09 6.2347607e-09 5.6850404e-09 6.226455e-09 7.3545396e-09 1.0829515e-08
5.552308e-09 1.7509347e-08 9.047561e-09 4.5794484e-09 8.374522e-09 3.0534246e-09 6.5863466e-09 3.933421e-09
1.0466386e-08 1.5782959e-09 1.9067314e-09 6.619595e-09 2.8681784e-09 1.9310464e-09 5.9498753e-09 1.16249534e-08
2.3940792e-09 1.0240417e-08 4.254038e-09 2.8010596e-09 7.3224737e-09 1.4290961e-09 2.2810442e-09 3.1132403e-09
2.3509557e-09 7.901376e-10 1.4051812e-09 1.4659248e-09 1.2519327e-09 1.1039899e-09 2.3065398e-09 2.203702e-09
1.7217046e-09 2.3836986e-09 1.6656001e-09 1.034944e-09 2.609506e-09 8.4051976e-10 1.0657838e-09 1.2161251e-09
9.169529e-09 2.2283155e-09 3.2349954e-09 5.7998304e-09 3.4837986e-09 3.531522e-09 5.5783453e-09 8.151155e-09
4.538941e-09 8.350099e-09 4.4739505e-09 3.0780063e-09 8.554454e-09 2.6948617e-09 3.5619558e-09 4.2683244e-09
7.828396e-09 2.542503e-09 2.751826e-09 6.736206e-09 4.2151105e-09 3.1622247e-09 1.2862841e-08 7.774886e-09
3.4422616e-09 7.58304e-09 7.502827e-09 2.4424822e-09 7.923783e-09 2.4903837e-09 2.8141327e-09 3.2846466e-09
3.1896281e-09 1.1448036e-09 1.4615961e-09 2.7766862e-09 1.6189634e-09 1.524955e-09 2.6357112e-09 3.811531e-09
2.1349373e-09 5.9858567e-09 2.1239364e-09 1.5288065e-09 4.022992e-09 1.3028579e-09 1.6187226e-09 2.4064428e-09
1.5268144e-08 3.2680771e-09 4.9189177e-09 9.150642e-09 6.36553e-09 5.9663967e-09 8.630722e-09 9.655983e-09
6.81706e-09 1.0715084e-08 8.258817e-09 3.6676469e-09 9.024114e-09 3.2012661e-09 5.5979124e-09 5.08497e-09
7.855631e-09 1.9139046e-09 2.5137756e-09 6.251896e-09 3.9956243e-09 2.3226714e-09 1.0914778e-08 8.004393e-09
3.5611931e-09 1.0569786e-08 7.07194e-09 3.3730054e-09 1.0180082e-08 2.1417883e-09 2.0995785e-09 3.0604228e-09
5.540301e-09 2.0408295e-09 2.4786206e-09 4.85561e-09 3.2296894e-09 2.719001e-09 4.8605573e-09 6.006723e-09
3.3043257e-09 4.722334e-09 2.6818916e-09 2.2304114e-09 7.2624653e-09 1.9335362e-09 2.4495352e-09 2.9340623e-09

exp_avg f4 [48]
00000000: 6ceb 0db6 ff49 01b4 3bd7 2eb7 d48d f236
00000010: c66a 8d37 2eba a736 45fb 8eb5 8eea 0436
00000020: c2be 9737 44d8 92b5 77ff 9d37 e0d8 6535
00000030: 98a3 4f37 455d e6b7 3fc5 37b7 cd09 3e37
00000040: 2bb6 64b1 ada6 49b1 14c3 c930 f89e 5230
00000050: 3064 c6b0 614b b0b0 ee49 05b1 1509 3c30
00000060: 130b 08b1 c2b5 36b1 0680 4d31 c4ef d631
00000070: 7c6e 32b1 fd8c 2bb1 d018 29b1 4626 c92f
00000080: c341 d337 7257 2cb9 672b d0b7 8265 a838
00000090: 9424 8538 19f6 63b8 d81b 7c39 f55c 43b8
000000a0: fcdc 23b7 0737 0bb9 ddcb dab7 2922 5a38
000000b0: 68da 8038 a359 b138 1b92 cb38 f814 95b8
-2.114767e-06 -1.2040981e-07 -1.042132e-05 7.228673e-06 1.685823e-05 4.998662e-06 -1.0652954e-06 1.9806062e-06
1.8089431e-05 -1.0940789e-06 1.8834819e-05 8.562474e-07 1.2376251e-05 -2.7461569e-05 -1.0953575e-05 1.1327164e-05
-3.3281917e-09 -2.9344094e-09 1.4680119e-09 7.6623463e-10 -1.4434871e-09 -1.2827109e-09 -1.9396071e-09 6.840691e-10
-1.97969e-09 -2.6587803e-09 2.99042e-09 6.255478e-09 -2.5965212e-09 -2.4963918e-09 -2.460684e-09 3.6588882e-10
2.5183783e-05 -0.00016435774 -2.4815743e-05 8.0297716e-05 6.3487474e-05 -5.4350214e-05 0.00024042965 -4.6578196e-05
-9.767009e-06 -0.00013276572 -2.6082556e-05 5.2007064e-05 6.144197e-05 8.456714e-05 9.7070086e-05 -7.1087794e-05

exp_avg_sq f4 [48]
00000000: 81d7 d631 d644 4531 8f32 ee30 11bc 6031
00000010: c405 fa31 8808 0531 4b70 af31 c131 0632
00000020: ef39 bc31 8dde 5930 2e04 4831 e3e8 d031
00000030: de96 c030 7b98 a231 9d08 ca31 658c 1c31
00000040: 23e2 dc24 223a c924 b604 0e24 38a4 d424
00000050: 4a86 a024 072a 6024 9a02 cc23 b24f 0f24
00000060: fa91 e724 2b36 5324 d682 d824 f739 0125
00000070: 697f bc24 1ad7 f824 8062 7324 3a89 4e24
00000080: 1867 4b34 11c1 0f34 c276 9834 9e4f 3d34
00000090: 483c 0d35 4fd8 ad34 c03e e634 beea ec33
000000a0: 9088 9834 1378 2135 ec66 2d34 cb4d d534
000000b0: b4e5 a134 a9cc f634 e6b6 3234 cf90 e134
6.2527197e-09 2.8706402e-09 1.7331149e-09 3.2703193e-09 7.276613e-09 1.9358897e-09 5.1059366e-09 7.811139e-09
5.4781064e-09 7.9260404e-10 2.9106206e-09 6.080073e-09 1.4012718e-09 4.7321556e-09 5.879953e-09 2.2780793e-09
9.579288e-17 8.7268335e-17 3.0795332e-17 9.221854e-17 6.9616434e-17 4.8607856e-17 2.2118826e-17 3.1075687e-17
1.00427575e-16 4.5799214e-17 9.389671e-17 1.1208606e-16 8.1747845e-17 1.0791725e-16 5.2775658e-17 4.4785365e-17
1.8943354e-07 1.338815e-07 2.8398614e-07 1.7630961e-07 5.2614314e-07 3.2381146e-07 4.2886495e-07 1.1032306e-07
2.8411569e-07 6.0151905e-07 1.6149323e-07 3.9730944e-07 3.0155718e-07 4.596998e-07 1.664408e-07 4.2014878e-07
