models/mnist_gen.ckpt (torch_old, 371190 bytes, 304 tensors)

exp_avg f4 [16]
00000000: a405 2737 9220 87b7 f7cd cbb6 b3a3 f936
00000010: ed7f 83b7 fd47 4fb6 e63c 12b7 3e04 ca37
00000020: 8b5a e9b4 e5e8 f536 5ccf 7137 f58d 2bb6
00000030: 2e29 54b7 ce21 4436 3402 6437 1920 72b7
9.955289e-06 -1.610842e-05 -6.073849e-06 7.4398354e-06 -1.5675987e-05 -3.0887306e-06 -8.716457e-06 2.4082252e-05
-4.346551e-07 7.3286815e-06 1.4412999e-05 -2.5563616e-06 -1.2645773e-05 2.9225953e-06 1.3590372e-05 -1.4431797e-05

exp_avg_sq f4 [16]
00000000: b9b6 9e31 a465 6732 7a06 de31 a35d 9f31
00000010: 13c1 1532 b4d3 d930 28d3 b831 5644 ec32
00000020: d65f 6432 852f 2832 c64e 3a32 c0ca 4d31
00000030: 07cb 3432 b305 c030 658e 1f32 5074 7a32
4.6191784e-09 1.346908e-08 6.4617867e-09 4.6381543e-09 8.7168415e-09 1.5848998e-09 5.3791105e-09 2.7505092e-08
1.3293137e-08 9.789692e-09 1.0844536e-08 2.9946676e-09 1.0523542e-08 1.3971458e-09 9.287395e-09 1.4578362e-08

exp_avg f4 [16, 16]
00000000: f678 83b8 c5c5 1538 4ca2 2239 33fa e537
00000010: df31 b8b7 ddc2 62b6 243a 2139 dc0e 15b9
00000020: f8e1 ef37 1485 6739 8b90 e0b8 217c c636
00000030: a998 00b9 241f 2cb8 77d4 43b8 6a0e a7b8
00000040: 81c9 4c36 08dd 1bb7 50ea 54b6 57f4 ccb6
00000050: c5ad d837 fdff 4136 b310 d136 f034 7037
00000060: 0de5 adb4 061a b6b7 e080 83b7 a685 e436
00000070: ca21 39b7 7035 50b4 ca92 2a36 65cd c336
00000080: 70b2 9a36 4de7 9e36 832d c6b7 9080 13b6
00000090: 764c 2837 f45e 1a37 ef4f 82b7 0da3 a336
000000a0: d9df 65b4 27e4 4fb8 64bf 1138 259b 1ab7
000000b0: e817 a937 fa93 2a37 7e5f 89b7 1ba9 9837
000000c0: 6c92 be36 6d4b abb7 dabe ebb8 9a5f 6437
000000d0: 1631 96b7 113f 9b37 ded8 61b7 9dce bdb7
000000e0: 3711 c137 7f6d c2b8 5e68 ad38 5280 d8b7
000000f0: d302 cc38 8723 5437 8154 9837 c698 0d38
00000100: c8d4 22b7 e499 0c37 e595 9f38 4907 93b6
00000110: e4ae 2737 9e9c 46b7 cfd0 9237 e2fc 87b7
00000120: 09a6 2fb7 04c8 9838 0e24 71b8 182c 9137
00000130: 39f9 80b8 2876 14b7 3d38 27b4 1e98 b4b7
00000140: 9b89 2cb7 7c56 8b37 2e08 1837 7ebd e3b6
00000150: ce7f b338 55d6 9237 9f2b cfb7 6204 ab37
00000160: 96ad 3437 9ed9 46b7 ad96 1f38 1154 00b7
00000170: be72 36b7 6ecb 8737 3248 04b9 8e12 85b7
00000180: c565 dcb6 4b21 dfb6 1749 06b8 506a 9cb6
00000190: 8f33 10b7 074f 2937 63ba 1437 fbdd 38b8
000001a0: 1372 e936 877e 7b37 ebc4 6238 b24e 3ab7
000001b0: 0e70 1038 5b9c 9437 eb6d 4fb7 3ce4 b0b7
000001c0: 0824 13b7 19d8 8f33 7039 70b8 b3e8 a6b6
000001d0: 4fb9 c737 13ad 8e37 15f0 a2b6 a873 4ab8
000001e0: 4893 f337 7a22 1db8 6a3d 5138 93ff 29b7
000001f0: 9647 7d38 b7b6 c137 6ea4 e7b7 affa 83b6
00000200: 1b99 3a36 2557 8d36 0995 9737 c79d 29b7
00000210: a30e 7bb7 f59f 06b6 91fe 9035 442e 4037
00000220: a5a2 37b6 9e95 fa37 5573 c3b7 d346 6d36
00000230: 614a c5b7 3645 e4b6 d181 1337 1549 7436
00000240: 2113 5db7 6a45 0bb6 e604 8eb5 8c85 8eb6
00000250: f938 f436 ae4f 0a37 49fa 9f36 9c81 10b7
00000260: 16c6 2237 e235 d837 e462 e2b6 dc19 e435
00000270: 03a7 9a37 e6c6 fa35 ffca b3b7 284a abb7
00000280: 8b5a f0b6 b1ca 5cb7 259a a8b7 5f7c 72b5
00000290: ed49 8fb7 b23d 2937 26bc 3eb7 ffc0 92b6
000002a0: cc26 16b7 2838 0636 f291 9938 f4d9 f5b6
000002b0: 4289 1138 7942 d637 d882 f6b7 a6f3 d7b7
000002c0: da5d 3236 b2e4 fdb5 126d dbb7 9256 f235
000002d0: 4bd9 4c36 932b 8835 b782 21b7 ccd0 f5b5
000002e0: 064e 2d37 d00b e4b7 544b d337 1a38 8bb7
000002f0: fb59 c137 18d9 9fb6 cdbe 7036 beb0 9137
00000300: 90ef d9b6 db2b 8837 d3e9 8836 e70f fe35
00000310: ed1f 0cb8 d13f eeb6 5ba0 71b7 ae4c ca37
00000320: a37a 1fb7 a667 ec37 1f9a fcb6 3baf 8e37
00000330: c5a6 a837 f6d1 2db7 702f 8fb6 139d 9bb7
00000340: 3930 ef34 6e53 45b7 bfc0 d4b8 f758 a3b6
00000350: 0d78 7736 9a90 d637 9b36 95b7 20d7 40b8
00000360: 1a7c b437 fca1 91b8 4235 0739 fe2e 00b8
00000370: f4c6 ac38 7adf 3f38 8442 08b8 a355 ca36
00000380: 9070 9bb6 44e2 2a38 1a8f c538 f5f0 00b8
00000390: b795 fab8 18cc 3bb8 e73d dc37 01a4 4e38
000003a0: aec1 b6b7 ae1f b938 203f 42b9 1de7 6b38
000003b0: 815a 69b8 2f7d 70b8 0e16 3839 ffda 36b7
000003c0: 58a2 3637 9a88 56b7 ed4f ea37 ed6f c8b6
000003d0: e7e7 bab6 3e91 88b7 8fe6 9237 2211 c737
000003e0: 223f ebb7 7380 b437 ebd1 23b6 d51e c736
000003f0: 915d 57b8 b47a 51b6 0b5b c237 c2b2 abb6
-6.2690975e-05 3.5708556e-05 0.00015509984 2.7415435e-05 -2.1957732e-05 -3.379005e-06 0.00015375816 -0.00014215283
2.8596245e-05 0.00022079452 -0.000107080756 5.9153103e-06 -0.00012263902 -4.1036998e-05 -4.6689496e-05 -7.9658654e-05
3.051566e-06 -9.290183e-06 -3.172685e-06 -6.1081187e-06 2.5830124e-05 2.8908246e-06 6.2306294e-06 1.431744e-05
-3.2390417e-07 -2.1708209e-05 -1.5676429e-05 6.8104882e-06 -1.1034726e-05 -1.939095e-07 2.5417417e-06 5.835364e-06
4.6103305e-06 4.735694e-06 -2.3624632e-05 -2.197954e-06 1.0031383e-05 9.201223e-06 -1.553443e-05 4.87676e-06
-2.1408722e-07 -4.956513e-05 3.474894e-05 -9.215238e-06 2.0157502e-05 1.0167243e-05 -1.637614e-05 1.8198558e-05
5.679487e-06 -2.0419911e-05 -0.00011241222 1.3612118e-05 -1.790425e-05 1.8506807e-05 -1.3461538e-05 -2.2626768e-05
2.301541e-05 -9.271036e-05 8.268723e-05 -2.580896e-05 9.728004e-05 1.2644457e-05 1.8159162e-05 3.37593e-05
-9.705494e-06 8.380481e-06 7.609631e-05 -4.3817895e-06 9.994696e-06 -1.1838185e-05 1.750179e-05 -1.6211012e-05
-1.0469471e-05 7.2851806e-05 -5.7492456e-05 1.730588e-05 -6.149937e-05 -8.848998e-06 -1.5573546e-07 -2.1528507e-05
-1.0284038e-05 1.6610364e-05 9.0618105e-06 -6.787187e-06 8.5591906e-05 1.7504362e-05 -2.4696636e-05 2.038683e-05
1.0769252e-05 -1.1852388e-05 3.8048882e-05 -7.648968e-06 -1.0874761e-05 1.6187983e-05 -0.00012615396 -1.5863476e-05
-6.5683585e-06 -6.6497937e-06 -3.201616e-05 -4.6615387e-06 -8.595073e-06 1.0091585e-05 8.864884e-06 -4.4075754e-05
6.957221e-06 1.4990225e-05 5.4065993e-05 -1.1104787e-05 3.4436634e-05 1.7715784e-05 -1.2363754e-05 -2.1087115e-05
-8.770272e-06 6.698264e-08 -5.7273952e-05 -4.9742753e-06 2.380894e-05 1.7008313e-05 -4.8559255e-06 -4.8268266e-05
2.903644e-05 -3.7463826e-05 4.988668e-05 -1.01326905e-05 6.038657e-05 2.3092476e-05 -2.7613914e-05 -3.9332876e-06
2.780528e-06 4.2122724e-06 1.8070003e-05 -1.010992e-05 -1.4964174e-05 -2.0060663e-06 1.0802925e-06 1.1454864e-05
-2.7363797e-06 2.9871993e-05 -2.3299517e-05 3.5356977e-06 -2.3518865e-05 -6.8029867e-06 8.792108e-06 3.6401373e-06
-1.317708e-05 -2.0753018e-06 -1.058125e-06 -4.2474767e-06 7.278399e-06 8.243993e-06 4.7677063e-06 -8.613246e-06
9.702073e-06 2.5774298e-05 -6.7468372e-06 1.699485e-06 1.8436001e-05 1.8684339e-06 -2.143299e-05 -2.041932e-05
-7.163098e-06 -1.3160215e-05 -2.009894e-05 -9.033301e-07 -1.7081353e-05 1.00875495e-05 -1.1368689e-05 -4.3736068e-06
-8.94973e-06 2.0000243e-06 7.322793e-05 -7.326942e-06 3.4698525e-05 2.5541742e-05 -2.9386414e-05 -2.5743455e-05
2.6578696e-06 -1.8916528e-06 -2.6157624e-05 1.80556e-06 3.052485e-06 1.0145471e-06 -9.626782e-06 -1.831469e-06
1.032977e-05 -2.7185219e-05 2.5188237e-05 -1.6596216e-05 2.3049293e-05 -4.7638423e-06 3.5873848e-06 1.7367649e-05
-6.4949927e-06 1.6232885e-05 4.0803366e-06 1.8929103e-06 -3.3408334e-05 -7.100382e-06 -1.4402055e-05 2.4115983e-05
-9.505692e-06 2.8181657e-05 -7.5281273e-06 1.7009317e-05 2.0104819e-05 -1.0360489e-05 -4.2672546e-06 -1.8550583e-05
4.4552306e-07 -1.176154e-05 -0.000101448495 -4.8681354e-06 3.6875747e-06 2.5578123e-05 -1.7787612e-05 -4.5976718e-05
2.1515461e-05 -6.944311e-05 0.00012894443 -3.0561343e-05 8.238657e-05 4.5746077e-05 -3.2486874e-05 6.0300385e-06
-4.632464e-06 4.0741885e-05 9.420347e-05 -3.0741987e-05 -0.000119488155 -4.477435e-05 2.625487e-05 4.9266968e-05
-2.178628e-05 8.827388e-05 -0.00018524798 5.6243607e-05 -5.5635817e-05 -5.7337045e-05 0.00017555823 -1.0899034e-05
1.0885844e-05 -1.2787199e-05 2.7932192e-05 -5.9734944e-06 -5.570229e-06 -1.6280097e-05 1.7511918e-05 2.3730627e-05
-2.8043582e-05 2.1517486e-05 -2.441108e-06 5.9342515e-06 -5.1347135e-05 -3.121485e-06 2.3168997e-05 -5.1170073e-06

exp_avg_sq f4 [16, 16]
00000000: 44b0 2134 0cd8 d934 85e5 ab35 555b b834
00000010: 7ee6 6f36 d564 6a34 8a6a 4835 8fd5 5f36
00000020: 7f4f 1035 2360 ee35 8243 3a36 2d9c 9d34
00000030: e6d0 2036 675c b934 e444 a736 8f95 8935
00000040: 7c1d 8631 724a bd31 d9fe 1f33 be40 2a31
00000050: ca00 8233 fba0 7031 f78f df31 d986 c633
00000060: 3b27 e431 fbad 8533 0f3a 3a33 8c12 8d31
00000070: 6f2d 3333 a44e 5832 3a69 af33 2041 d532
00000080: 4d72 3831 a04a 8631 f308 1c33 28f8 1c31
00000090: 3ddf 6633 7911 2a31 1c62 9331 edc4 5733
000000a0: 379b 7831 6121 7d33 2bf0 1433 08aa 4531
000000b0: b67a 2233 e4dd 0732 7462 9633 674f a532
000000c0: b8d0 6b31 4d8c 9331 86ca 1d33 2e59 1631
000000d0: ed55 8133 cf1f 5f31 009f 8e31 6718 3933
000000e0: a59c 6f31 2a3c 8d33 acf1 2c33 1a17 4f31
000000f0: c8cf 2233 b1c1 0332 a4d2 b833 a477 ae32
00000100: 7a9c 3331 d427 7431 10d7 1333 8ed9 2131
00000110: f4b5 5b33 d9e1 2031 8626 4b31 afb5 f632
00000120: 0bf7 2b31 2823 7833 2956 1733 14b8 3531
00000130: ede4 1133 3f5a bf31 dce0 9933 604a a332
00000140: be3a 8e31 71bb aa31 f932 1933 ed2f 0b31
00000150: 857a 6233 05bc 4e31 a4b4 9031 249d e432
00000160: 478e 4831 4f58 7d33 3c3b 2133 4650 7431
00000170: c9fa 0f33 8387 c831 c1ca a633 a14d db32
00000180: e8c6 8b31 8e09 9b31 bf86 1033 b204 1431
00000190: e179 5d33 ea77 4c31 c774 8531 d6f9 d932
000001a0: fcfa 4131 deb5 8333 dad5 2233 5813 6331
000001b0: d57e 0033 a3b1 b931 ca18 a433 9742 df32
000001c0: d230 9231 70d2 9131 9b11 2433 2667 2931
000001d0: 3bdd 8033 6447 6131 663a 8531 b709 e432
000001e0: 9795 5731 81af 9633 5d69 4133 449e 6431
000001f0: 62ec 1833 c81b c631 8ca4 bb33 8ccb d832
00000200: 8607 9f31 4cc1 c331 5ba2 1533 69b5 2231
00000210: 132e 5e33 18b2 5031 3937 9b31 c464 c932
00000220: 8465 7031 fd12 8433 5c96 3f33 052d 8e31
00000230: 23d4 0433 2c13 b631 5b8f a333 267f 0c33
00000240: f939 6731 8113 5b31 4e9e fa32 797b 3031
00000250: 9ab2 5333 b01f 2231 e234 3331 7111 ba32
00000260: 45c1 2031 d826 6133 810a 2e33 a13d 4d31
00000270: 6fc5 dd32 332e 9431 8ba3 9633 a93a c232
00000280: 0eef ee31 6512 0532 8b96 1933 b131 3731
00000290: ad8f 6b33 bcef 7b31 304f 0132 d099 dd32
000002a0: fe97 8d31 e5cc 7333 4090 4f33 19bd c731
000002b0: 774c 1133 2c17 c531 2bf2 a633 bced 3133
000002c0: 41f3 8e31 5644 8e31 d05b 0f33 17b0 2731
000002d0: d92f 8233 1eb1 5331 1ac6 b931 113a f432
000002e0: 2977 8f31 562d 8a33 e006 7033 ac12 8c31
000002f0: 8f77 0933 4667 a031 e0a2 b833 e4c0 0233
00000300: 89e7 9431 a171 6e31 f6b0 0833 b799 3b31
00000310: 49b4 6133 06b8 2d31 3267 9831 9e8f f632
00000320: e092 8a31 d5d5 7f33 af77 7b33 af1a a131
00000330: d324 fa32 1e86 a531 39f4 9a33 3f0b 1233
00000340: d764 0532 ba9c 0132 607d 3333 286e 5331
00000350: d012 8d33 b008 8d31 c78f 3d32 4831 5e33
00000360: 8a2e 0e32 3498 9f33 51f8 ba33 e3ee 0a32
00000370: 9d89 4333 246a dc31 c91b cc33 5b11 8b33
00000380: 55ba b633 26bd 9134 95f2 9235 db26 5234
00000390: ebd9 8535 d950 e333 93bb ef33 f45d bf35
000003a0: 750e 2f34 26f3 fe35 d8a2 8935 7a35 4934
000003b0: de1f 7c35 216a 1734 6f7d 7c35 4081 f834
000003c0: fefd bf31 db43 e431 b2a5 1433 f8a0 2a31
000003d0: 4a70 5433 df0c 4931 6fc5 8832 77bb 0833
000003e0: 5bef cc31 be2e 5533 7876 7133 f0b8 0832
000003f0: 6a4e f832 e114 8731 e4bd 1033 dee9 0133
1.5058419e-07 4.0576595e-07 1.2807292e-06 3.4339124e-07 3.574794e-06 2.1829631e-07 7.466084e-07 3.3353897e-06
5.375986e-07 1.7760361e-06 2.7755455e-06 2.9357162e-07 2.3963453e-06 3.4526167e-07 4.9850078e-06 1.0250823e-06
3.9032653e-09 5.5090874e-09 3.7251855e-08 2.4775058e-09 6.05374e-08 3.5016103e-09 6.506521e-09 9.244622e-08
6.6401333e-09 6.224942e-08 4.3359304e-08 4.1057486e-09 4.1718007e-08 1.2590736e-08 8.168213e-08 2.4826079e-08
2.6840496e-09 3.908397e-09 3.632972e-08 2.2842048e-09 5.3754082e-08 2.4748188e-09 4.289417e-09 5.023769e-08
3.617698e-09 5.893651e-08 3.4677367e-08 2.8763925e-09 3.783017e-08 7.908486e-09 7.002828e-08 1.9244636e-08
3.4315644e-09 4.2942134e-09 3.6738605e-08 2.1878566e-09 6.0226604e-08 3.2468852e-09 4.15082e-09 4.3095863e-08
3.486812e-09 6.576768e-08 4.026667e-08 3.0135596e-09 3.790754e-08 7.669244e-09 8.606483e-08 2.0310672e-08
2.6136875e-09 3.5529313e-09 3.4421703e-08 2.355225e-09 5.1155396e-08 2.3411444e-09 2.9562286e-09 2.872079e-08
2.5024203e-09 5.7773974e-08 3.523579e-08 2.6443603e-09 3.396865e-08 5.5690914e-09 7.1655194e-08 1.900952e-08
4.139422e-09 4.968961e-09 3.5669448e-08 2.0254405e-09 5.2731156e-08 3.0083822e-09 4.211488e-09 2.6614153e-08
2.9184706e-09 5.898647e-08 3.7539607e-08 3.5552303e-09 3.352287e-08 5.836172e-09 7.766858e-08 2.5530257e-08
4.0680455e-09 4.51218e-09 3.3650164e-08 2.1539504e-09 5.156642e-08 2.975407e-09 3.8840855e-09 2.5375737e-08
2.8227864e-09 6.133244e-08 3.791306e-08 3.3043843e-09 2.9917675e-08 5.4044036e-09 7.641354e-08 2.5990898e-08
4.2547095e-09 4.2439794e-09 3.8200238e-08 2.465137e-09 6.000706e-08 3.278239e-09 3.8774486e-09 2.6547111e-08
3.137165e-09 7.016843e-08 4.503214e-08 3.326833e-09 3.5605247e-08 5.765717e-09 8.737797e-08 2.5238272e-08
4.6283644e-09 5.6972222e-09 3.4839427e-08 2.3677222e-09 5.1730307e-08 3.0369218e-09 4.517372e-09 2.3445303e-08
3.4982302e-09 6.150183e-08 4.4607404e-08 4.137862e-09 3.0926582e-08 5.2990767e-09 7.616355e-08 3.271193e-08
3.3647878e-09 3.187978e-09 2.9175819e-08 2.5681557e-09 4.9289703e-08 2.3592115e-09 2.6077989e-09 2.1661181e-08
2.3392925e-09 5.2422223e-08 4.0522085e-08 2.9866458e-09 2.5817569e-08 4.312619e-09 7.0146676e-08 2.2611248e-08
6.953889e-09 7.745801e-09 3.5760007e-08 2.6658251e-09 5.4845874e-08 3.666158e-09 7.526793e-09 2.5797732e-08
4.1209196e-09 5.6764197e-08 4.8327138e-08 5.81316e-09 3.3829988e-08 5.736089e-09 7.7740275e-08 4.1427242e-08
4.1603987e-09 4.140513e-09 3.3378285e-08 2.4401794e-09 6.0623e-08 3.080522e-09 5.40673e-09 2.8431744e-08
4.1753947e-09 6.434372e-08 5.5885607e-08 4.076659e-09 3.2006536e-08 4.6683537e-09 8.5977945e-08 3.0443417e-08
4.3336894e-09 3.4698149e-09 3.1825913e-08 2.7299458e-09 5.2550863e-08 2.5279419e-09 4.435514e-09 2.8703479e-08
4.0330264e-09 5.9566293e-08 5.8549343e-08 4.6887503e-09 2.9120576e-08 4.8173794e-09 7.215608e-08 3.4003502e-08
7.764547e-09 7.544424e-09 4.1790713e-08 3.0767158e-09 6.569246e-08 4.1046277e-09 1.1033939e-08 5.1733224e-08
8.27607e-09 7.4317e-08 8.7064684e-08 8.086974e-09 4.5527134e-08 6.4149095e-09 9.504544e-08 6.475849e-08
8.508929e-08 2.7145978e-07 1.0948448e-06 1.957191e-07 9.972695e-07 1.0585217e-07 1.1163424e-07 1.4257953e-06
1.6303404e-07 1.899524e-06 1.0254689e-06 1.8739038e-07 9.392369e-07 1.410158e-07 9.4059845e-07 4.6287641e-07
5.587707e-09 6.6433876e-09 3.4609634e-08 2.4829756e-09 4.9462223e-08 2.9256666e-09 1.5922266e-08 3.1835466e-08
5.964393e-09 4.963544e-08 5.6219932e-08 7.958292e-09 2.8906658e-08 3.9313908e-09 3.3700317e-08 3.0247854e-08

exp_avg f4 [784, 16]
00000000: a405 2737 9220 87b7 f7cd cbb6 b3a3 f936
00000010: ed7f 83b7 fd47 4fb6 e63c 12b7 3e04 ca37
00000020: 8b5a e9b4 e5e8 f536 5ccf 7137 f58d 2bb6
00000030: 2e29 54b7 ce21 4436 3402 6437 1920 72b7
00000040: 3080 59b5 63a4 a1b5 eb96 3236 68bc 1a36
00000050: 52f4 bb35 017f 41b5 6a39 1536 3c73 2cb6
00000060: 1832 1436 7b86 3ab6 d015 6c36 d187 ccb5
00000070: b935 95b5 a97f ba35 2f65 e435 6a6b e0b6
00000080: 7a1f 9834 2002 4db6 09f4 4d35 c973 7a36
00000090: 9383 3036 faf5 3235 a818 1c36 bc23 df34
000000a0: 4d78 d3b5 15ff 89b5 48d4 1136 ddf0 4eb6
000000b0: 18c7 37b6 9932 91b5 ace0 04b4 8650 a5b4
000000c0: f6b2 1735 9ba6 f4b5 0336 4d34 8caf 5036
000000d0: 6fe6 8e35 3980 74b3 efcf 4936 ab40 a0b5
000000e0: a7ea 96b5 a097 2d36 4003 0db5 b30c cdb5
000000f0: 3461 69b6 c17f 2ab5 8c93 6935 0d58 8ab5
00000100: 39cc cc33 816a 6334 15c7 3a36 4360 c635
00000110: 6f97 8436 51d4 7835 b01f 4436 04ae 16b6
00000120: 6541 87b5 c9fb 3b34 fb57 b4b5 6b2e 5bb5
00000130: bcf2 76b6 03b9 45b5 c2cf 7c33 9823 3ab6
00000140: 3514 ba35 7d36 ebb6 bd2c ad36 b4f2 0636
00000150: 0ef7 5335 45d9 ea34 fbd4 fe35 a850 9436
00000160: 05af b3b6 92e8 1036 9e14 6134 3116 aeb6
00000170: 8e30 0eb6 b044 e8b4 1fc1 3535 cd16 8035
00000180: 6d86 1435 ded0 33b5 31e8 91b4 7cf4 8735
00000190: 22dd 1eb5 910d 2735 db2c 5035 2738 8bb4
000001a0: eab4 b4b5 7782 6235 c5c9 3035 9d94 72b5
000001b0: 34d9 9fb5 8ca8 7634 9d6b 8b35 6f88 06b5
000001c0: 7c9b 7435 1b5d 4cb5 fbb8 1cb5 848f 0436
000001d0: b0b4 ac35 8089 c734 6d11 f135 64f2 deb4
000001e0: 17e6 89b5 1ca7 ae35 fb02 e735 e73e aeb5
000001f0: 4708 40b6 5934 3ab5 e363 9ab5 3188 19b5
00000200: e6fa ee34 e47e 77b5 aec5 2c34 4c35 8735
00000210: edc5 dcb4 77a3 4035 0b1c f235 56e5 1334
00000220: 4df4 69b5 9f79 9435 7d5b bcb3 0814 83b5
00000230: 53d0 00b6 b5b4 bdb4 0c14 8c35 5764 6cb5
00000240: bc11 be34 d81e a7b5 6134 c634 8a3a 1336
00000250: 6b2b 4736 90d7 f034 d7c3 8c35 2362 2633
00000260: 5cb1 f0b5 dce6 d4b4 0762 4136 17d4 04b6
00000270: 0721 0cb6 149b ceb3 0542 0bb6 ccd8 28b5
00000280: fdcd ddb4 cf52 c7b4 903d da34 7f89 a435
00000290: 7f5d c633 7a60 9c35 d712 8a35 b01a 21b5
000002a0: 47c5 54b6 9916 0336 b38a 0636 d1d2 1bb6
000002b0: a340 6cb6 48d2 f135 0b92 ec35 e711 8cb5
000002c0: 2b18 81b4 2f30 02b5 b35a a1b4 5835 ab35
000002d0: 2c46 1435 3d24 2234 6b6f ae35 3b40 2fb5
000002e0: 01ec d0b5 4e02 8934 7a35 1a36 ba23 d8b5
000002f0: e4bc a3b5 c691 8535 045c b433 bedb 62b5
00000300: 1175 3a34 3e70 05b6 89c5 ae35 6c60 71b4
00000310: 7e90 10b6 8fb4 df35 d933 16b5 20e3 0d36
00000320: bf3b cfb5 6653 0036 4130 0cb5 c291 23b6
00000330: 3e2a e433 b26f 19b6 1681 6a36 5647 7e35
00000340: 2c07 eeb4 00e9 51b5 606e 4235 c061 6e35
00000350: 9bcf 2035 21d6 6b35 a5c9 9535 3521 b234
00000360: fee6 29b6 6638 0636 2fea f835 f8ff eab5
00000370: 56df 39b6 2f49 1d35 4b73 1e35 3243 adb5
00000380: ad27 7b34 3155 38b5 3b48 6ab5 b3a6 1635
00000390: 78ef 3635 b996 a034 e4b3 1635 e59b 8634
000003a0: ad87 0db5 c4c3 1935 1b59 2d35 5696 22b5
000003b0: 4bc1 30b5 7877 6634 c90a 1ab5 1704 cfb3
000003c0: f6a9 dab4 363b 0ab6 237f 2336 2c55 5735
000003d0: 2ed2 4735 1a4a 0235 82e3 1036 0757 eb33
000003e0: 9d1a 4ab6 a3dd 3236 c4e4 1236 b13f 58b6
000003f0: f1d2 94b6 e0dd c635 7562 f535 41d7 ecb5
9.955289e-06 -1.610842e-05 -6.073849e-06 7.4398354e-06 -1.5675987e-05 -3.0887306e-06 -8.716457e-06 2.4082252e-05
-4.346551e-07 7.3286815e-06 1.4412999e-05 -2.5563616e-06 -1.2645773e-05 2.9225953e-06 1.3590372e-05 -1.4431797e-05
-8.1025337e-07 -1.2043278e-06 2.6611913e-06 2.3057455e-06 1.4003692e-06 -7.208292e-07 2.223615e-06 -2.5697072e-06
2.2082877e-06 -2.7794438e-06 3.5179437e-06 -1.5238712e-06 -1.1117e-06 1.3895234e-06 1.7016772e-06 -6.688225e-06
2.8335108e-07 -3.0548617e-06 7.672357e-07 3.7320299e-06 2.630263e-06 6.666811e-07 2.3260163e-06 4.1562987e-07
-1.5755737e-06 -1.0281534e-06 2.1730248e-06 -3.0836593e-06 -2.7385013e-06 -1.0818068e-06 -1.2375193e-07 -3.0792233e-07
5.6512306e-07 -1.8227905e-06 1.9111762e-07 3.1096597e-06 1.064689e-06 -5.6927295e-08 3.0072367e-06 -1.193975e-06
-1.1244164e-06 2.5867266e-06 -5.253132e-07 -1.5277386e-06 -3.4776285e-06 -6.351584e-07 8.7013973e-07 -1.0307427e-06
9.536638e-08 2.1179768e-07 2.783204e-06 1.4780165e-06 3.9515357e-06 9.269616e-07 2.922472e-06 -2.2453032e-06
-1.0077316e-06 1.7507331e-07 -1.3436651e-06 -8.1651405e-07 -3.6798147e-06 -7.3657446e-07 5.8862277e-08 -2.7736878e-06
1.3863961e-06 -7.009889e-06 5.16101e-06 2.0108828e-06 7.896314e-07 4.374398e-07 1.898646e-06 4.4201333e-06
-5.3549907e-06 2.1593046e-06 2.0962258e-07 -5.1881875e-06 -2.1187911e-06 -4.3263344e-07 6.770878e-07 9.543379e-07
5.532991e-07 -6.698664e-07 -2.7177296e-07 1.0129438e-06 -5.918138e-07 6.223209e-07 7.755131e-07 -2.5931624e-07
-1.3463698e-06 8.438141e-07 6.585872e-07 -9.0368286e-07 -1.1909638e-06 2.2971852e-07 1.0387627e-06 -5.0117427e-07
9.112334e-07 -7.613141e-07 -5.838371e-07 1.975307e-06 1.2867586e-06 3.7166683e-07 1.7960971e-06 -4.1527085e-07
-1.027426e-06 1.3012645e-06 1.7211709e-06 -1.2982317e-06 -2.8615048e-06 -6.9366575e-07 -1.1502965e-06 -5.7195126e-07
4.4513507e-07 -9.219932e-07 1.6090664e-07 1.0073795e-06 -4.1122203e-07 7.1763446e-07 1.8038567e-06 1.3773874e-07
-8.715477e-07 1.1062256e-06 -8.771074e-08 -9.76609e-07 -1.9194747e-06 -3.5335475e-07 1.0436647e-06 -8.8062865e-07
3.540316e-07 -1.2451446e-06 3.6918485e-07 2.1938781e-06 2.9678583e-06 4.4860326e-07 1.048781e-06 3.873914e-08
-1.7933012e-06 -3.965605e-07 2.88163e-06 -1.9792985e-06 -2.088085e-06 -9.620831e-08 -2.0751042e-06 -6.290036e-07
-4.1314334e-07 -3.712689e-07 4.0650457e-07 1.2258969e-06 9.2371e-08 1.1650984e-06 1.0287284e-06 -6.001601e-07
-3.1705292e-06 1.9533675e-06 2.004829e-06 -2.3219511e-06 -3.5204364e-06 1.8017099e-06 1.7625874e-06 -1.0436023e-06
-2.4045707e-07 -4.849889e-07 -3.005458e-07 1.2756018e-06 5.523641e-07 1.5100609e-07 1.2996437e-06 -6.528605e-07
-1.5565894e-06 2.5519915e-07 2.2978916e-06 -1.6103652e-06 -1.2199421e-06 9.951698e-07 8.398641e-08 -8.451133e-07
1.7365188e-07 -1.9883878e-06 1.30215e-06 -2.2479952e-07 -2.1541778e-06 1.6667344e-06 -5.59548e-07 2.1142841e-06
-1.544009e-06 1.912203e-06 -5.2224283e-07 -2.4373735e-06 1.0624761e-07 -2.2863792e-06 3.4943855e-06 9.472618e-07
-4.4336173e-07 -7.8197627e-07 7.243125e-07 8.8804154e-07 5.990675e-07 8.785592e-07 1.1160051e-06 3.3179245e-07
-2.5317418e-06 2.0000384e-06 1.8545596e-06 -1.7508855e-06 -2.7697147e-06 5.8593554e-07 5.902736e-07 -1.2909061e-06
2.339063e-07 -6.866931e-07 -8.72769e-07 5.6121934e-07 6.8148756e-07 2.9911988e-07 5.614113e-07 2.5072873e-07
-5.272403e-07 5.728182e-07 6.457719e-07 -6.056847e-07 -6.584639e-07 2.1463882e-07 -5.7385165e-07 -9.6399326e-08
-4.0729327e-07 -2.0598068e-06 2.4362896e-06 8.021768e-07 7.443913e-07 4.8536606e-07 2.15901e-06 1.09588704e-07
-3.0115837e-06 2.6653076e-06 2.1888854e-06 -3.2223581e-06 -4.4353005e-06 1.4816724e-06 1.8282577e-06 -1.7646017e-06

exp_avg_sq f4 [784, 16]
00000000: b9b6 9e31 a465 6732 7a06 de31 a35d 9f31
00000010: 13c1 1532 b4d3 d930 28d3 b831 5644 ec32
00000020: d65f 6432 852f 2832 c64e 3a32 c0ca 4d31
00000030: 07cb 3432 b305 c030 658e 1f32 5074 7a32
00000040: 262d 0330 000d 842f 18c6 0430 2e2c 702f
00000050: d68e 9030 e1d3 ad2f 82ed 1430 baf7 952f
00000060: e37d a12f 342d d930 2dfa 5d30 e0df 4b2f
00000070: 5efd c72f 7a17 182f e094 bd30 7e00 9830
00000080: 240a 282f ca17 5a2f b006 c92f 788d e82e
00000090: f7a1 df2f d0a5 d72e 4529 232f 267b 6d2f
000000a0: cc29 852f 5232 c12f d94b 2c30 1059 202f
000000b0: f683 c02f 8c38 3d2f 22c9 1d30 b464 e62f
000000c0: 5046 3d2f 4183 002f fb40 f72f 2c78 dc2f
000000d0: 28e1 962f f5eb 6f2f 1c86 882f 1f24 f62e
000000e0: 80a4 092f 9ca8 3730 3536 8e2f 6b84 3f2f
000000f0: 64fc 542f 21cb 7c2e 9a4b 0e30 4d3f a22f
00000100: a851 7c2e d7f6 522f 2e8b 4c30 f4d9 982e
00000110: 2141 aa30 d1dd b82e efe8 962f 9528 9b2f
00000120: 401c a12e 1f4b 6a2f 37c0 5830 35a0 c72e
00000130: f79f 4530 6700 e62e fa7a 1130 a8e6 0830
00000140: 0f37 302f 282b 1230 084b 2d30 a0e4 422f
00000150: 994e 172f c24d d92e acc1 e52e 706c 5730
00000160: 7dae 0b30 3e1d cd2f 2e19 802f b701 c42f
00000170: 957c fa2f c123 7a2f 460c f42f b1ac 842f
00000180: 614b 8f2d e804 f22d 7004 442e de5a ba2d
00000190: 28ee 422e 8e97 112d 1a09 5e2d 889b 862d
000001a0: f612 db2d 3740 932e 1e24 332e 915f 042e
000001b0: ea24 522e 161b dd2d 2931 fd2d 7c9e e32d
000001c0: 02d1 ec2d 3acc 222e 1280 d62e d731 e82e
000001d0: c5ac 362f 802f 682e ac3f 3a2e 8296 8e2e
000001e0: 546e 8e2e dc21 4b2f 2086 002f f1a5 832e
000001f0: 9d00 6e2e b935 942d 7a91 122f 3936 222f
00000200: 7b71 bb2d 070d b02d 2e7d 392e e5ed f92d
00000210: 2065 862e 08ea 632d d912 9d2d a8b5 b32d
00000220: 39ed 1a2e a107 6b2e 274a b72e 806c 092e
00000230: 2cfe 6d2e 1347 d62d 6cf7 5c2e f8af 3a2e
00000240: 7703 db2d 6a91 ec2d 591e 762e 658f 292e
00000250: 9a46 a32e 7f00 532e de01 472e 70cd 032e
00000260: 8e17 462e ca1c c12e 9609 4b2f 3c18 102e
00000270: 6efb 792e 1de3 812d a46e c92e 2a90 5e2e
00000280: 5164 1d2f 313b bb2f 6708 fb2f 604e b42e
00000290: e42b 1a2f 3fe8 182e 71b6 8f2e 4498 922e
000002a0: bbb5 2c2f c405 ab2f d542 752f 13dc 992f
000002b0: 0870 c32f c335 7e2f ef5c 222f 5865 dd2e
000002c0: 4ad6 f42d f0f1 442e afea ad2e c299 df2d
000002d0: f187 662e df0b 9d2d 7525 172e 7a8f f12d
000002e0: 5a34 152e 7d6f 9d2e b777 dd2e 1480 632e
000002f0: 5f3c c12e 69e7 262e 1f8d 482e 6d36 562e
00000300: 46be 0d2e a5e9 0c2f 4d51 172f fe9d 642e
00000310: 0446 9e2f ebf9 d12e b711 902e cf7c b72f
00000320: 17fa b72e cf9c 812f 5b16 162f 2cba 762e
00000330: 6006 3c2f 32cf ab2e 53b6 4a2f 9438 7a2e
00000340: 813f 802e e66c a02e c403 1f2f 4491 e52d
00000350: 6711 9e2e 26de 9c2d 52c8 ac2d a609 882e
00000360: f20b e22e e6e0 1c2f a108 c42e 9734 8a2e
00000370: d674 3f2f 9219 5e2e 3864 862e 498e 5e2e
00000380: 8287 f82c 5a88 6c2d 577b ae2d 4773 1a2e
00000390: 2bbf f82d 1278 7c2d a9b7 642d ff22 a02d
000003a0: 3efe c22d 39f9 152e 1cfc 612e afcc 432d
000003b0: 8018 6b2d 2da9 9a2c 7b1a 072e 9ab3 0d2e
000003c0: 8348 332f 3916 8c2f bcca ce2f c57a 872e
000003d0: 4605 292f 2a85 342e 8950 912e 96d7 4a2f
000003e0: ecc4 682f 4242 852f 695b 472f 1d23 3e2f
000003f0: a7be 1330 bf5b b92e 4863 8a2f 7111 bd2e
4.6191784e-09 1.346908e-08 6.4617867e-09 4.6381543e-09 8.7168415e-09 1.5848998e-09 5.3791105e-09 2.7505092e-08
1.3293137e-08 9.789692e-09 1.0844536e-08 2.9946676e-09 1.0523542e-08 1.3971458e-09 9.287395e-09 1.4578362e-08
4.772168e-10 2.4019897e-10 4.830283e-10 2.1843569e-10 1.0517975e-09 3.1619066e-10 5.4179605e-10 2.7278962e-10
2.9375177e-10 1.5801676e-09 8.0754853e-10 1.8542279e-10 3.6377917e-10 1.383266e-10 1.3793873e-09 1.1059595e-09
1.5283114e-10 1.9835436e-10 3.656644e-10 1.05752684e-10 4.0678547e-10 9.806522e-11 1.4839426e-10 2.1598776e-10
2.4222258e-10 3.514225e-10 6.268102e-10 1.4583557e-10 3.501836e-10 1.720954e-10 5.7402094e-10 4.190831e-10
1.721443e-10 1.1688163e-10 4.497521e-10 4.0103154e-10 2.7444824e-10 2.1820752e-10 2.4833546e-10 1.1193201e-10
1.251852e-10 6.681462e-10 2.5868166e-10 1.7418393e-10 1.9370955e-10 5.747858e-11 5.1766735e-10 2.9512606e-10
5.737069e-11 1.9187084e-10 7.4412554e-10 6.950876e-11 1.2387639e-09 8.406754e-11 2.745035e-10 2.822317e-10
7.3264506e-11 2.1308864e-10 7.8853496e-10 9.077931e-11 7.1895506e-10 1.04592605e-10 5.2925453e-10 4.9804294e-10
1.6026667e-10 5.317582e-10 6.304366e-10 1.7725421e-10 1.3761293e-10 9.88183e-11 1.04481174e-10 7.8370643e-10
5.081587e-10 3.731006e-10 2.3300956e-10 3.565341e-10 4.5563256e-10 2.275007e-10 4.4392062e-10 2.4133365e-10
1.6290693e-11 2.7514394e-11 4.456918e-11 2.1186105e-11 4.432202e-11 8.275948e-12 1.262126e-11 1.5303106e-11
2.4905838e-11 6.696193e-11 4.0731966e-11 3.0098205e-11 4.7781258e-11 2.513682e-11 2.8784601e-11 2.5877293e-11
2.6922912e-11 3.7015925e-11 9.754343e-11 1.0558992e-10 1.6614184e-10 5.279288e-11 4.2348056e-11 6.484148e-11
6.4770106e-11 1.8474772e-10 1.1689183e-10 5.9866674e-11 5.411548e-11 1.684951e-11 1.3330306e-10 1.4753078e-10
2.1309834e-11 2.0014669e-11 4.2175312e-11 2.8413669e-11 6.111578e-11 1.29554215e-11 1.7857204e-11 2.0430616e-11
3.5226242e-11 5.343959e-11 8.3350486e-11 3.124656e-11 5.411331e-11 2.4360547e-11 5.0241963e-11 4.2447795e-11
2.4898956e-11 2.689467e-11 5.596088e-11 3.855351e-11 7.424923e-11 4.7976286e-11 4.524902e-11 2.9968417e-11
4.504091e-11 8.781738e-11 1.8466148e-10 3.2763334e-11 5.683936e-11 1.476646e-11 9.1600755e-11 5.0605e-11
1.4314706e-10 3.405716e-10 4.5662604e-10 8.1993745e-11 1.4021811e-10 3.4767075e-11 6.535295e-11 6.666359e-11
1.5707873e-10 3.1108816e-10 2.2306364e-10 2.798691e-10 3.5549896e-10 2.3120265e-10 1.4766831e-10 1.0067919e-10
2.7834752e-11 4.4780124e-11 7.9088174e-11 2.5420447e-11 5.2416686e-11 1.7854105e-11 3.4366694e-11 2.7462244e-11
3.3925175e-11 7.159338e-11 1.0071182e-10 5.172758e-11 8.787348e-11 3.7949564e-11 4.5600076e-11 4.8706306e-11
3.2228685e-11 1.2815933e-10 1.3762254e-10 5.1981523e-11 2.8789782e-10 9.548614e-11 6.5515086e-11 3.3376188e-10
8.3663014e-11 2.3576383e-10 1.3650363e-10 5.6099278e-11 1.7100765e-10 7.812985e-11 1.8436568e-10 5.689367e-11
5.8320467e-11 7.295302e-11 1.4462304e-10 2.6098797e-11 7.1880994e-11 1.78338e-11 1.9643096e-11 6.186278e-11
1.0279412e-10 1.4268017e-10 8.914581e-11 6.284855e-11 1.7412857e-10 5.0499667e-11 6.111417e-11 5.060333e-11
7.0636283e-12 1.3445323e-11 1.9836284e-11 3.5117933e-11 2.8279231e-11 1.43512025e-11 1.300108e-11 1.8205435e-11
2.2168153e-11 3.4100032e-11 5.1382995e-11 1.11299156e-11 1.33636435e-11 4.3957255e-12 3.0718966e-11 3.2219206e-11
1.6305716e-10 2.5481642e-10 3.7615233e-10 6.1608975e-11 1.5372334e-10 4.1045535e-11 6.6081425e-11 1.8448384e-10
2.1170238e-10 2.4239638e-10 1.813142e-10 1.7292874e-10 5.374922e-10 8.4291234e-11 2.5172597e-10 8.597823e-11

exp_avg f4 [16]
00000000: 4881 8e39 1358 eeb7 51c7 a638 529b c4b8
00000010: bcf1 feb6 795b bb36 7815 6d39 31e4 9bb9
00000020: 7ad8 7cb9 5e68 db37 753c 9f39 518c 2ab9
00000030: d21e 8536 82d4 65b9 6fe2 ac38 1640 dd38
0.00027180673 -2.8412824e-05 7.9526224e-05 -9.374939e-05 -7.5979315e-06 5.583683e-06 0.00022610079 -0.0002973392
-0.00024113237 2.6155434e-05 0.00030371887 -0.00016264735 3.967297e-06 -0.00021918307 8.243776e-05 0.00010550038

exp_avg_sq f4 [16]
00000000: 466d d135 760f 9035 9bf2 7236 957c 9035
00000010: 4625 aa36 2d86 9234 f2fe ac35 8fc2 8e37
00000020: 1b0d fa35 3ff8 8737 32ed 6e37 2ef7 c235
00000030: 92bd 9636 1064 ce35 6947 bf36 25e3 8c37
1.5603516e-06 1.0733336e-06 3.6202025e-06 1.0765094e-06 5.070734e-06 2.7292245e-07 1.2889197e-06 1.7018318e-05
1.8630266e-06 1.6208853e-05 1.4241132e-05 1.4526065e-06 4.4924172e-06 1.5377318e-06 5.700557e-06 1.6795073e-05

exp_avg f4 [16]
00000000: 3d34 58b9 b91a 0339 a292 ef37 d816 02b9
00000010: ae56 04b9 7956 c738 bfbb 5839 d969 20b9
00000020: df9a fc38 92d0 a939 be30 2339 92d7 b938
00000030: 7f6e 0739 fcdf 6338 b04a 0bb9 addb abb9
-0.00020618826 0.00012503089 2.8559301e-05 -0.00012406276 -0.00012620792 9.505166e-05 0.00020669306 -0.0001529822
0.000120451434 0.0003238959 0.00015563049 8.8616405e-05 0.00012915766 5.432962e-05 -0.00013283896 -0.00032779333

exp_avg_sq f4 [16]
00000000: 813e 1436 6b25 3a36 87b5 1736 7927 ad36
00000010: e5ca 1237 0510 8c35 d196 e636 7191 a437
00000020: 97c0 c336 a68a b236 65bb 1937 80fa a836
00000030: 77e6 3037 8ce1 2036 5602 ff36 fa82 9137
2.20901e-06 2.773794e-06 2.2606416e-06 5.160397e-06 8.749518e-06 1.0435475e-06 6.8720915e-06 1.961805e-05
5.8338733e-06 5.320954e-06 9.163142e-06 5.035952e-06 1.0544077e-05 2.3973143e-06 7.599864e-06 1.7346338e-05

exp_avg f4 [16]
00000000: 0aba 103a fcbd e338 cfb6 cc39 d640 18b9
00000010: 7834 96b9 6594 51b9 29cd bf38 24bc 2eba
00000020: 97b3 ceb9 6171 d737 e865 cd39 9f25 20b9
00000030: 1308 5039 ef3a 1eb9 fcd0 ffb9 e583 b03a
0.0005520886 0.00010859591 0.00039046115 -0.00014520003 -0.00028649322 -0.00019987074 9.145804e-05 -0.00066656084
-0.00039425187 2.5682793e-05 0.00039176573 -0.00015272804 0.00019839434 -0.00015090009 -0.00048793096 0.0013467042

exp_avg_sq f4 [16]
00000000: c54d a436 d10a 3336 c169 d936 0d06 3b35
00000010: 87b2 6137 eba5 8036 b134 f336 b62d d137
00000020: 47b5 5a36 3cff 4f37 890c 8037 84a0 e635
00000030: 44e1 0e37 732f 3d36 6f75 9c37 771a 8d37
4.8966344e-06 2.6679375e-06 6.4794153e-06 6.9671734e-07 1.3452612e-05 3.8340127e-06 7.2480984e-06 2.4936027e-05
3.2590049e-06 1.2397588e-05 1.5264626e-05 1.7183052e-06 8.516308e-06 2.8190814e-06 1.8651333e-05 1.6820833e-05

exp_avg f4 [16]
00000000: 249f dbb9 fb91 e838 8078 83b6 025f 8bb9
00000010: 8db1 42b9 fc95 2b39 bad2 80b7 c77f 2bb9
00000020: 5c2f bd39 c08e 5db7 16ba 06b8 825e bd38
00000030: b1e2 8738 75ec 2c39 8b4d dc38 3edf 35b9
-0.00041889504 0.00011089813 -3.9181323e-06 -0.00026582932 -0.00018567425 0.00016363704 -1.5356916e-05 -0.00016355432
0.00036084175 -1.3205863e-05 -3.2121396e-05 9.029826e-05 6.479526e-05 0.00016491285 0.00010504861 -0.0001734467

exp_avg_sq f4 [16]
00000000: dfc3 be36 9662 9836 a73f 9c36 00c0 5636
00000010: 0218 e136 c72a 8536 c8ae 2436 cf6f d036
00000020: 1d89 ab36 1978 8c36 c9f1 5e36 2556 ac36
00000030: 9ab1 8a36 bbbc a336 850e a236 d10c 1a37
5.6852437e-06 4.54143e-06 4.6565724e-06 3.2000244e-06 6.7083174e-06 3.968689e-06 2.453964e-06 6.2118993e-06
5.112159e-06 4.1863063e-06 3.3221315e-06 5.136028e-06 4.133396e-06 4.8797497e-06 4.8296665e-06 9.182099e-06

exp_avg f4 [48, 16]
00000000: 0196 d236 61dd 4c36 1d91 0937 de33 afb6
00000010: 2d12 afb6 adce 4fb6 2173 3335 8460 95b5
00000020: 9f55 27b6 f453 af35 4424 04b7 1105 5f36
00000030: c66d 5cb6 6b2f 80b6 11a6 9d36 e93f 7d36
00000040: 0606 cb36 5e0e 5436 66bc 7137 d6cf bf36
00000050: a40a 8137 1eed 22b6 3196 5637 9ebc 84b7
00000060: ada6 3bb6 930b 3237 a186 9cb6 c35f 24b6
00000070: c440 95b7 4257 37b6 1b9c acb6 73f3 a2b7
00000080: 516f 5db7 878a 7137 8062 a335 a5ac 40b7
00000090: f232 c637 794b 8c35 c7cd 65b7 65d1 c337
000000a0: 11ca 6eb7 81ae 8637 68c5 7136 e733 f637
000000b0: 9ded 83b7 6475 1837 e868 a6b7 384b afb7
000000c0: 2aec 3537 6fc0 04b8 ebb7 3e35 025b 5e37
000000d0: 19f7 b8b7 21b6 a335 3509 1138 b8b3 b8b7
000000e0: d23e 2c37 65c0 d936 86b1 1437 38aa 97b7
000000f0: 3a08 98b7 69e1 acb6 40aa dd37 0d1d 27b7
00000100: baf3 64b6 aa12 1337 0715 b5b6 d9a1 5bb7
00000110: e85a ae35 9282 0537 5008 b2b7 115a 5f37
00000120: 7c8b e136 23df ebb7 e7ed 7637 2606 4d37
00000130: 752d c137 a073 3137 d147 adb7 b1e8 56b6
00000140: 75e9 99b6 c81c 7537 478d 4336 faf2 42b6
00000150: 3170 c2b7 061a ceb6 3fe8 4a36 1e1f e3b7
00000160: 25a5 4337 a0a3 3235 9ba1 ab36 ebef d736
00000170: c0a2 1937 46c5 b736 366d f436 a4e8 79b6
00000180: d04d 9534 4908 afb3 cd7b b7b6 8744 0ab7
00000190: 8ea6 81b8 39f4 2db7 30ce 7237 d49d 18b8
000001a0: c86f 3537 cfd1 fa36 ec72 2a36 e950 5d36
000001b0: a4be a135 1e1b bc37 1aad b037 611c c437
000001c0: 071d 9fb7 94f8 6538 8091 8136 0570 4c36
000001d0: b8b5 6c39 7b85 7d38 24e0 f2b7 d854 0e38
000001e0: 2b62 ceb7 b32f 9ab7 13f2 2839 056d a036
000001f0: ebf9 68b8 605f d037 f751 4ab9 3cbc 36b9
00000200: 8a60 d1b7 1509 ce37 d0f0 8d36 0e7f ca37
00000210: 225a 13b7 4140 1f36 b99e 6737 fd56 81b8
00000220: 6ac2 f235 5086 e137 ac36 0b38 2910 6836
00000230: 3cfa 12b7 7314 a436 8406 03b7 36ed f7b7
00000240: 18cc 7737 c966 e137 a0cf 9c37 660a 06b8
00000250: fd17 2037 da85 ce36 5f70 44b7 3ab0 e237
00000260: 0341 18b7 6af4 bfb6 ced9 0db8 590d 9e37
00000270: 4582 f4b7 7f6d aa35 6e93 bcb7 dcc0 ae37
00000280: 3ad5 11b5 0446 9b37 b985 cf37 5ea2 56b7
00000290: 2ccb 9935 4055 cdb5 105d 7637 6289 9eb6
000002a0: c413 fe36 bf55 6336 475b c2b7 5daa 9936
000002b0: 64a7 c6b7 d7dc 79b5 ba4b 58b6 632b adb6
000002c0: 7d9f 8e37 dbf1 40b7 c7be 5fb7 6584 1037
000002d0: 57e9 8ab6 6986 b9b6 b93e 8fb7 1d32 2338
000002e0: 78e4 21b7 2497 ddb6 5ca7 34b5 9044 43b7
000002f0: a301 e037 43fa 7bb7 7d91 67b6 bcec f536
00000300: eb07 f2b7 b11c b4b8 ddd6 0837 e9cd e137
00000310: 9d10 5637 a6bc 3037 bd56 ac38 e573 a3b8
00000320: f6ca 2238 b3e7 8b37 7803 8b38 2842 49b7
00000330: 9036 e9b7 b8ac 3e38 87c3 5837 2b5e c9b8
00000340: 6434 ceb6 e85b 8136 ea69 a7b6 6e5d a5b7
00000350: 310f efb6 6f80 d4b5 d78b a2b7 109d cf37
00000360: aff4 a137 0fdd fab6 a5a4 66b7 1a41 a737
00000370: 5dd9 4b37 c722 34b6 7ebe 0cb7 64c8 9037
00000380: 2daa a237 643b 6ab4 5591 4f37 9ff7 8fb7
00000390: 32be 12b8 408d bab7 2305 adb7 19de dd38
000003a0: 7a7d efb7 dcb6 2337 a2f9 e5b8 450d 6d36
000003b0: 93d9 d3b7 5252 10b8 7261 b937 4077 f538
000003c0: aba8 ae37 f82d e1b7 e8fe bdb7 8792 fdb7
000003d0: 17c0 1f38 1764 7137 9caf 5bb4 8300 2137
000003e0: 79d0 9337 b1b7 b0b8 d9f1 6b38 641f 13b6
000003f0: 15bd ba37 c150 ff37 899c 81b7 97aa a6b7
6.2759505e-06 3.0527228e-06 8.199623e-06 -5.2214446e-06 -5.2175224e-06 -3.0965705e-06 6.685023e-07 -1.1129455e-06
-2.4934777e-06 1.306295e-06 -7.876257e-06 3.3232538e-06 -3.2846451e-06 -3.8202174e-06 4.6982973e-06 3.7737138e-06
6.0505727e-06 3.1598825e-06 1.4408584e-05 5.716439e-06 1.5382953e-05 -2.4277902e-06 1.2790363e-05 -1.5823458e-05
-2.796219e-06 1.0612322e-05 -4.664835e-06 -2.4493645e-06 -1.7792343e-05 -2.7319916e-06 -5.1441725e-06 -1.942527e-05
-1.3198544e-05 1.4396973e-05 1.2173114e-06 -1.1484289e-05 2.3627163e-05 1.0452778e-06 -1.3697375e-05 2.3343318e-05
-1.4232953e-05 1.6055305e-05 3.6026704e-06 2.9349654e-05 -1.5727064e-05 9.087238e-06 -1.9837593e-05 -2.0896652e-05
1.0843427e-05 -3.165047e-05 7.104815e-07 1.3253421e-05 -2.2049573e-05 1.2197453e-06 3.457927e-05 -2.2018197e-05
1.0266625e-05 6.4895016e-06 8.86282e-06 -1.8079867e-05 -1.8123643e-05 -5.1522406e-06 2.6424532e-05 -9.96074e-06
-3.4116515e-06 8.766228e-06 -5.3966683e-06 -1.30911e-05 1.2990467e-06 7.9578185e-06 -2.1223124e-05 1.3312806e-05
6.7217607e-06 -2.811809e-05 1.4718134e-05 1.2220384e-05 2.302856e-05 1.0576943e-05 -2.065665e-05 -3.202393e-06
-4.5869333e-06 1.4609839e-05 2.9139499e-06 -2.9049684e-06 -2.3178845e-05 -6.142308e-06 3.023553e-06 -2.7074999e-05
1.1661356e-05 6.6548273e-07 5.1150105e-06 6.4354294e-06 9.157404e-06 5.4767906e-06 7.2844805e-06 -3.7239306e-06
2.781003e-07 -8.1505796e-08 -5.4682373e-06 -8.241396e-06 -6.1822226e-05 -1.0368466e-05 1.4472331e-05 -3.6386613e-05
1.0814467e-05 7.4750055e-06 2.5398867e-06 3.2978662e-06 1.2050918e-06 2.2423974e-05 2.1061442e-05 2.3378236e-05
-1.8967794e-05 5.482936e-05 3.861438e-06 3.0463573e-06 0.0002257441 6.0444214e-05 -2.8953022e-05 3.3934455e-05
-2.4602827e-05 -1.8380442e-05 0.00016111908 4.781063e-06 -5.5545865e-05 2.4839945e-05 -0.00019294755 -0.00017426995
-2.4959696e-05 2.4561343e-05 4.2301617e-06 2.4139441e-05 -8.7828685e-06 2.3730247e-06 1.3805628e-05 -6.167402e-05
1.8086987e-06 2.6884634e-05 3.31911e-05 3.45801e-06 -8.76054e-06 4.8899615e-06 -7.8097255e-06 -2.9555154e-05
1.47698665e-05 2.6869953e-05 1.8693332e-05 -3.1957774e-05 9.542328e-06 6.154861e-06 -1.1708674e-05 2.7023361e-05
-9.075043e-06 -5.720697e-06 -3.3819866e-05 1.8841283e-05 -2.9147728e-05 1.2697855e-06 -2.2479999e-05 2.0832224e-05
-5.4326995e-07 1.8510043e-05 2.4738592e-05 -1.2793198e-05 1.1458519e-06 -1.5298501e-06 1.468441e-05 -4.7247604e-06
7.572091e-06 3.3875547e-06 -2.3169106e-05 4.579588e-06 -2.3681387e-05 -9.308109e-07 -3.2230587e-06 -5.1608527e-06
1.7001987e-05 -1.1500403e-05 -1.3336255e-05 8.613894e-06 -4.139885e-06 -5.529077e-06 -1.7076136e-05 3.89089e-05
-9.649542e-06 -6.6039083e-06 -6.7298765e-07 -1.1638869e-05 2.6703643e-05 -1.5019034e-05 -3.4506368e-06 7.3291285e-06
-2.8852335e-05 -8.588413e-05 8.156258e-06 2.6917975e-05 1.2759262e-05 1.0534341e-05 8.2177554e-05 -7.794033e-05
3.8812832e-05 1.6677985e-05 6.6286826e-05 -1.1995937e-05 -2.7801172e-05 4.5460387e-05 1.2920128e-05 -9.601967e-05
-6.1453775e-06 3.855199e-06 -4.989318e-06 -1.971304e-05 -7.1245236e-06 -1.583261e-06 -1.9377023e-05 2.474946e-05
1.9306635e-05 -7.476315e-06 -1.3747403e-05 1.9938267e-05 1.2150352e-05 -2.6842333e-06 -8.389003e-06 1.7259452e-05
1.939115e-05 -2.1814554e-07 1.2371999e-05 -1.7162236e-05 -3.4986246e-05 -2.2238703e-05 -2.0625599e-05 0.0001057947
-2.854945e-05 9.758132e-06 -0.00010966069 3.5323476e-06 -2.5254476e-05 -3.4408942e-05 2.2099095e-05 0.000117047224
2.0820959e-05 -2.6843496e-05 -2.2649256e-05 -3.0228182e-05 3.808745e-05 1.4388023e-05 -2.045985e-07 9.596467e-06
1.7620843e-05 -8.426549e-05 5.6253604e-05 -2.1922979e-06 2.2260976e-05 3.0435973e-05 -1.545089e-05 -1.986818e-05

exp_avg_sq f4 [48, 16]
00000000: e893 8b31 025a ab31 ed42 3d31 37b3 8530
00000010: 7913 c531 d66d a330 2552 d630 7ac1 8232
00000020: 4556 8731 c389 0232 e63b bd32 d9da 5430
00000030: d17d df31 9835 6a31 d26e bd31 034c a132
00000040: 1151 db31 a98b 1432 c355 bc31 5920 0e31
00000050: 2e79 4932 d2bb 1431 ee60 3d31 143f 0633
00000060: b6b8 e231 4353 7732 a56f 2033 e608 9630
00000070: 9ce3 3f32 0fe6 b231 f3da 0632 6a36 0b33
00000080: aef6 2c33 baeb 0533 1123 dc32 5bc4 1032
00000090: 0a9b 9c33 e138 6f32 05dc 8e32 3ae8 5234
000000a0: d1f9 4433 8da1 5333 d438 5734 a1a1 0432
000000b0: 1bd2 8133 0bcb 1233 e3d8 2233 3a5e 0b34
000000c0: 753c 7132 8d47 8032 0abf 5e32 0e19 a631
000000d0: 7bac b332 e59c b931 c9d8 1e32 73ba 5033
000000e0: edc2 7232 d166 1133 9c8c 9733 9bf6 5531
000000f0: 68f5 ee32 5b34 5432 8e7b c332 41b9 5533
00000100: 6e68 d131 a4f3 0932 dd93 e231 789e df30
00000110: 7bbb 8232 a172 4831 d2e9 7331 92ef eb32
00000120: 6b35 0332 3a65 7f32 02fc 3433 5eb7 f230
00000130: 9151 8332 72fc cf31 0b31 4432 71e4 fe32
00000140: caae c431 f656 2632 1bf6 2032 9fb5 c130
00000150: 3461 4f32 3693 0931 535c a731 012d ec32
00000160: 3dc9 bb31 1f8a af32 5f52 2433 a872 0331
00000170: 5013 9f32 7b3a aa31 cc55 3432 7cb1 eb32
00000180: 4dbe 5532 7196 d032 8da8 7f32 21f4 8131
00000190: 1057 2333 9ada ea31 1339 0232 92f7 8833
000001a0: b72b 4d32 825d 1133 b8c8 9233 7383 6f31
000001b0: c48a 0133 7ad2 3832 ee04 c032 9ad4 8633
000001c0: ff49 1635 9034 4435 f984 5b34 8a62 aa33
000001d0: 0230 3335 3b29 d833 3997 0334 e8f1 f235
000001e0: 727c 9834 3413 9435 e617 7536 378b 6733
000001f0: cebf 4735 29d4 b634 6fa4 0435 c0cf 5636
00000200: 7cfe 9131 b803 fc31 18bd 0b32 b41c cd30
00000210: 1f67 4d32 e7ef eb30 cac9 8e31 0dc8 2033
00000220: 5720 0132 e4fa 8732 a993 7632 3b24 be30
00000230: b01f 3032 a3c4 6c31 6840 1632 e245 6332
00000240: 490a 8231 4a4c c831 e873 0532 0aa5 3531
00000250: 9b76 5232 d9be 9631 f8ab cf31 4b04 f532
00000260: cd74 b031 b40e 9232 9d98 bd32 4431 ef30
00000270: cb13 5432 4e02 a931 19ba 2f32 0fcf 8532
00000280: a93e 5231 4cb8 9f31 f681 a431 b62b ec30
00000290: b7ff 2732 80ec 1d31 cf4d 7131 d19d cb32
000002a0: 8be1 a831 2f0a 3132 58b4 6232 9561 cf30
000002b0: 5f36 0132 7512 9a31 fa97 1a32 7f1f 2b32
000002c0: 2f88 b731 e09f 0432 ab2e 1032 84c0 1831
000002d0: 07a9 3d32 22a0 8331 544f f131 e16e 4e33
000002e0: 78c7 0832 a109 8532 81dc 2033 42bf 0f31
000002f0: 68f3 5c32 d1d3 2d32 99dd 9732 7376 8732
00000300: 236b 5833 3be8 b133 881b db33 fc54 fd32
00000310: 532b 6c34 5d84 ae33 c6bb 2b33 47bc c034
00000320: 9ccd 8633 f67e 0d34 f9d0 9734 1fc5 b532
00000330: dc76 ce33 5b46 8d33 9773 3734 2a26 9e34
00000340: c603 2c32 69c3 8532 9ad5 ce32 3201 8631
00000350: 94b4 ca32 23f6 a131 70cf 4b32 f5f5 9f33
00000360: 3ef9 8d32 ae1e 6033 a1ff 9233 6f60 2e31
00000370: cece 3533 7c87 9132 3b8f f532 4725 4533
00000380: 80d8 8332 8107 1533 016b ac32 3db7 e731
00000390: c330 8b33 08be be32 9cab 6332 168f bd33
000003a0: 77f9 9232 a510 2733 a389 1b34 99f0 b031
000003b0: b40c 1e33 529e b032 170f 6433 6d44 bd33
000003c0: 1053 6732 2b4c 3b33 b7a0 0a33 6c3c 5032
000003d0: 7863 8333 a446 d132 b4ae c132 21f7 0934
000003e0: f6bd d332 5130 8d33 a92e 3534 67d4 1532
000003f0: a12b 3933 7811 1433 b1c3 9533 0da3 a633
4.0622474e-09 4.9869877e-09 2.7541163e-09 9.72796e-10 5.7356684e-09 1.1891028e-09 1.5593896e-09 1.5221975e-08
3.938825e-09 7.598319e-09 2.2029734e-08 7.743615e-10 6.504458e-09 3.4081946e-09 5.5132228e-09 1.8777433e-08
6.382955e-09 8.646489e-09 5.48127e-09 2.0682107e-09 1.1727293e-08 2.1643598e-09 2.7558218e-09 3.1256675e-08
6.598465e-09 1.4396224e-08 3.7354443e-08 1.0916466e-09 1.1169416e-08 5.2066365e-09 7.84961e-09 3.241295e-08
4.0271225e-08 3.1180868e-08 2.5627317e-08 8.426549e-09 7.2925175e-08 1.3924564e-08 1.6631029e-08 1.9642258e-07
4.5862013e-08 4.9274195e-08 2.004411e-07 7.720161e-09 6.0452486e-08 3.417794e-08 3.791582e-08 1.2979663e-07
1.4041793e-08 1.4933699e-08 1.2965538e-08 4.8340842e-09 2.0916778e-08 5.4020455e-09 9.246102e-09 4.859835e-08
1.4130575e-08 3.3853954e-08 7.057062e-08 3.1135758e-09 2.7818444e-08 1.2351928e-08 2.2757174e-08 4.9761415e-08
6.094573e-09 8.029847e-09 6.594276e-09 1.6270425e-09 1.5219248e-08 2.916899e-09 3.5494065e-09 2.7466545e-08
7.637349e-09 1.486597e-08 4.2138716e-08 1.7659934e-09 1.52875e-08 6.0531926e-09 1.1419853e-08 2.9673375e-08
5.724222e-09 9.682244e-09 9.369184e-09 1.4094218e-09 1.2071087e-08 2.0019804e-09 4.8708357e-09 2.7494481e-08
5.4652944e-09 2.0435492e-08 3.825914e-08 1.9128183e-09 1.8518818e-08 4.9542996e-09 1.0496887e-08 2.7438311e-08
1.2441501e-08 2.42828e-08 1.48812775e-08 3.7821484e-09 3.8030578e-08 6.8351484e-09 7.579973e-09 6.378026e-08
1.194251e-08 3.3845488e-08 6.835165e-08 3.4853798e-09 3.016136e-08 1.0758066e-08 2.2353984e-08 6.278533e-08
5.5987033e-07 7.309218e-07 2.044434e-07 7.934166e-08 6.6752557e-07 1.00657836e-07 1.225534e-07 1.8100809e-06
2.8402752e-07 1.1032448e-06 3.6521756e-06 5.3910494e-08 7.441239e-07 3.4054509e-07 4.9413114e-07 3.2009411e-06
4.248987e-09 7.334588e-09 8.13386e-09 1.4923871e-09 1.19560175e-08 1.7166685e-09 4.1556847e-09 3.7434848e-08
7.5161415e-09 1.583016e-08 1.4352659e-08 1.3834617e-09 1.0251753e-08 3.4454295e-09 8.745793e-09 1.32290285e-08
3.7846672e-09 5.829439e-09 7.767973e-09 2.643278e-09 1.22505766e-08 4.3872714e-09 6.0440435e-09 2.8523706e-08
5.135553e-09 1.7003323e-08 2.2071896e-08 1.7403541e-09 1.23445245e-08 4.9188094e-09 1.0228654e-08 1.5577397e-08
3.059464e-09 4.648461e-09 4.787803e-09 1.7183683e-09 9.778822e-09 2.2980942e-09 3.5114345e-09 2.3704077e-08
4.915085e-09 1.03050715e-08 1.3195937e-08 1.5088967e-09 7.521151e-09 4.484088e-09 8.998535e-09 9.960671e-09
5.3414833e-09 7.719763e-09 8.392514e-09 2.2228344e-09 1.103968e-08 3.830807e-09 7.0230417e-09 4.8063956e-08
7.961596e-09 1.5487617e-08 3.745345e-08 2.0917956e-09 1.286103e-08 1.0118087e-08 1.7679485e-08 1.5769933e-08
5.038886e-08 8.284447e-08 1.020299e-07 2.9491723e-08 2.1994974e-07 8.126583e-08 3.998482e-08 3.5899777e-07
6.2772614e-08 1.3177836e-07 2.827799e-07 2.1160814e-08 9.614243e-08 6.578622e-08 1.7085254e-07 2.945756e-07
1.0012576e-08 1.55721e-08 2.4078691e-08 3.900049e-09 2.3598012e-08 4.713699e-09 1.1863321e-08 7.448754e-08
1.6527903e-08 5.2181967e-08 6.8451534e-08 2.5375149e-09 4.2330434e-08 1.6941833e-08 2.8586888e-08 4.590154e-08
1.534886e-08 3.469859e-08 2.0072095e-08 6.7438166e-09 6.4815616e-08 2.2205327e-08 1.32521585e-08 8.8270255e-08
1.711008e-08 3.8897856e-08 1.4485572e-07 5.149627e-09 3.6798795e-08 2.0561092e-08 5.309911e-08 8.813445e-08
1.3464856e-08 4.3608605e-08 3.2276798e-08 1.2120932e-08 6.118256e-08 2.4362926e-08 2.2547603e-08 1.2849024e-07
2.4650017e-08 6.574613e-08 1.6873913e-07 8.721236e-09 4.311335e-08 3.4474823e-08 6.973949e-08 7.759636e-08

exp_avg f4 [48]
00000000: a3fa 9cb4 5b6b 4637 b536 d2b7 a774 9a37
00000010: 60b1 a1b7 deff 69b7 84a0 a6b5 beef 8eb8
00000020: 820c fb35 0ae8 1fb7 31b8 b736 186d c937
00000030: 896a a3b8 35e7 8ab7 659a ee37 6b76 a8b8
00000040: 2784 77ac ee40 4cac e1f4 28ae 1f1b 332d
00000050: d3c8 3a2d a28a 91ad 2425 5dae e445 38ae
00000060: 487f 34ae ca0a 122e 5cba 6e2d 607a 9aae
00000070: c3fe 81af 3530 5b2d b2d8 5ead 9fba 59ae
00000080: 36d9 e338 3fcc e638 4a45 c5b5 c84b fdb6
00000090: 101e 63b8 cf8a 1e39 268b 23b8 be61 db37
000000a0: ce01 be37 d35f 2eb5 1398 8936 ef38 20b9
000000b0: 6c6a 25b8 64dc ef37 016e 1a39 9531 1438
-2.9239627e-07 1.1826715e-05 -2.5059426e-05 1.8412551e-05 -1.9275292e-05 -1.3947456e-05 -1.241468e-06 -6.815743e-05
1.8704598e-06 -9.531164e-06 5.4752677e-06 2.4011868e-05 -7.7922894e-05 -1.6558546e-05 2.8443706e-05 -8.032921e-05
-3.517417e-12 -2.9026187e-12 -3.8416274e-11 1.0180994e-11 1.0617468e-11 -1.6546157e-11 -5.028257e-11 -4.189883e-11
-4.104031e-11 3.320614e-11 1.3570114e-11 -7.0248474e-11 -2.3645982e-10 1.2459413e-11 -1.2667355e-11 -4.950584e-11
0.00010864662 0.000110052984 -1.469781e-06 -7.5488097e-06 -5.4149015e-05 0.00015119764 -3.899182e-05 2.615235e-05
2.2650605e-05 -6.4959494e-07 4.100622e-06 -0.00015279998 -3.943818e-05 2.8593648e-05 0.00014727564 3.5332127e-05

exp_avg_sq f4 [48]
00000000: 57a8 c531 bc8e 3d32 0cae 9e33 2265 bf32
00000010: 9f00 5732 4fb2 7232 f499 d732 19cb 2d35
00000020: 6a50 3d32 604d 7832 afd3 0032 f22e d032
00000030: fa40 bc34 e247 2a33 43a9 9833 6b5d 1a34
00000040: de46 541a b79c 4f1b 9ebd 491d a6f6 861c
00000050: 4faf 5c1b cc3c 901b 4246 6e1c 99b6 c31d
00000060: c889 e61c efd8 ef1c 09db 991c 08a9 761d
00000070: f73f 801f f979 c71c e684 111d 67c8 cb1d
00000080: 5d15 3a36 e26e 7935 a012 2732 b1bc 1532
00000090: c564 8435 e412 c735 a311 8536 05aa 8935
000000a0: 2c9a 8b33 9e9e 0336 eca8 0634 8d3b 9136
000000b0: 2c1e 7e35 4562 0235 13c6 6336 59a9 f333
5.7525926e-09 1.1033702e-08 7.389107e-08 2.2281316e-08 1.2514788e-08 1.4126797e-08 2.5099304e-08 6.474307e-07
1.1019532e-08 1.4453093e-08 7.498712e-09 2.4235735e-08 3.5065005e-07 3.9646586e-08 7.10884e-08 1.4376353e-07
4.389782e-23 1.7173276e-22 2.6700158e-21 8.931133e-22 1.8254619e-22 2.386209e-22 7.88384e-22 5.180487e-21
1.5255739e-21 1.5871769e-21 1.018131e-21 3.2645216e-21 5.431593e-20 1.3200245e-21 1.9259297e-21 5.3940864e-21
2.7728595e-06 9.2921084e-07 9.724914e-09 8.715845e-09 9.864094e-07 1.4832153e-06 3.965762e-06 1.0256778e-06
6.5007356e-08 1.9612849e-06 1.2541176e-07 4.3282694e-06 9.466628e-07 4.8571775e-07 3.394093e-06 1.13463734e-07
