models/mnist_gen.ckpt (torch, 574376 bytes, 304 tensors)

exp_avg f4 [16]
0	0xb60c4710	-2.090299e-06
1	0xb6ec6d4f	-7.0460733e-06
2	0xb60fb010	-2.1411142e-06
3	0xb6ac4f51	-5.135233e-06
4	0xb613e308	-2.2036857e-06
5	0xb6c14a6c	-5.760512e-06
6	0x376fdc5a	1.4296815e-05
7	0xb7875703	-1.6133772e-05
8	0x3652f52f	3.1435154e-06
9	0xb66487f5	-3.4053785e-06
10	0x378f39a8	1.7073777e-05
11	0xb70c9778	-8.379917e-06
12	0xb3d04353	-9.698001e-08
13	0x37236a46	9.740301e-06
14	0xb69c0eba	-4.6508767e-06
15	0x37569236	1.2789436e-05

exp_avg_sq f4 [16]
0	0x320bc390	8.135331e-09
1	0x31ea5e6f	6.821032e-09
2	0x31852eac	3.8761154e-09
3	0x3244ffa8	1.1466831e-08
4	0x31accb87	5.028997e-09
5	0x32879bd5	1.5786933e-08
6	0x321f8521	9.285288e-09
7	0x321449e1	8.631532e-09
8	0x329846f4	1.7727395e-08
9	0x312b3fe3	2.492009e-09
10	0x32bb188c	2.1780828e-08
11	0x31fbf085	7.3324053e-09
12	0x31b755db	5.3357616e-09
13	0x3242ff44	1.1350327e-08
14	0x3239a375	1.0805583e-08
15	0x32b7cf86	2.1398375e-08

exp_avg f4 [16, 16]
0	0xb7fe1348	-3.0288138e-05
1	0x3884433e	6.306775e-05
2	0x395ae380	0.0002087485
3	0xb99bdb89	-0.0002972747
4	0xb90bf950	-0.00013348949
5	0x384e3ecb	4.9172708e-05
6	0x388df50e	6.769049e-05
7	0xb985fd7b	-0.00025556594
8	0x3987d51c	0.00025907985
9	0xb92705c4	-0.00015928509
10	0x38976539	7.219095e-05
11	0x3889ab57	6.5645836e-05
12	0x3970776f	0.00022932676
13	0x397e1bcd	0.00024233684
14	0xba02a53f	-0.000498373
15	0x38f564c9	0.00011701283
16	0x37cedf62	2.4661134e-05
17	0x36e3be18	6.787257e-06
18	0xb8132602	-3.508293e-05
19	0xb79da893	-1.8794357e-05
20	0x37873738	1.6118967e-05
21	0x3831d588	4.2398955e-05
22	0x37777b40	1.4751044e-05
23	0x36a9a434	5.0557082e-06
24	0xb8677ed9	-5.5192828e-05
25	0x37e67b50	2.7475558e-05
26	0xb7c4e486	-2.3471435e-05
27	0x36f1769e	7.1961686e-06
28	0xb7473704	-1.1874134e-05
29	0xb7c8feb1	-2.3960458e-05
30	0x3807d27f	3.2382548e-05
31	0xb70dc9e0	-8.451258e-06
32	0x38ad3044	8.258273e-05
33	0x36c4d946	5.866549e-06
34	0xb8d4ac68	-0.00010141061
35	0xb7f58f10	-2.9272895e-05
36	0x384a9e5f	4.8308048e-05
37	0x38d057df	9.93458e-05
38	0x3761128f	1.3415366e-05
39	0x3845fa17	4.7201374e-05
40	0xb95335e4	-0.00020142604
41	0x38f5ef28	0.00011727057
42	0xb8d3290c	-0.000100689096
43	0xb73e773b	-1.1352643e-05
44	0xb78fd7d7	-1.7147437e-05
45	0xb9030082	-0.00012493323
46	0x39350e7d	0.00017266902
47	0xb4e58ec2	-4.2758444e-07
48	0xb75dd8ce	-1.3223105e-05
49	0x370a94f4	8.260122e-06
50	0x37e16538	2.6869224e-05
51	0x38682b68	5.5353536e-05
52	0xb6fcce81	-7.5342255e-06
53	0xb8a3b7a7	-7.8066536e-05
54	0xb6f269f5	-7.224497e-06
55	0x3815bceb	3.5700312e-05
56	0x3824cdc7	3.9292292e-05
57	0xb7a6c491	-1.9880275e-05
58	0x3760b587	1.3393706e-05
59	0xb7fb0bef	-2.9927089e-05
60	0xb725d661	-9.88468e-06
61	0xb780b703	-1.534401e-05
62	0x37bbc218	2.238252e-05
63	0xb7a92cd3	-2.0167243e-05
64	0x3939c7d5	0.00017717418
65	0xb8390c86	-4.41191e-05
66	0xb995e876	-0.00028592692
67	0xb9842ba2	-0.0002520951
68	0x3895044b	7.105673e-05
69	0x3a015d8f	0.0004934901
70	0xb82c2484	-4.1042003e-05
71	0xb8edb3a0	-0.000113344984
72	0xb9e7c26d	-0.00044204612
73	0x39a4ee52	0.0003145808
74	0xb983c4b0	-0.0002513281
75	0x38d2e7cb	0.00010056755
76	0x38f0b638	0.00011478033
77	0xb91d42bf	-0.00014997552
78	0x395033f6	0.00019855783
79	0x38e5fecc	0.000109670305
80	0xb839d8d1	-4.4309363e-05
81	0xb7d542e5	-2.5422729e-05
82	0x382e1eb7	4.151344e-05
83	0xb820a164	-3.829728e-05
84	0xb8100746	-3.433905e-05
85	0x36840c25	3.9353204e-06
86	0xb73ac0e4	-1.1131375e-05
87	0xb8b70ec2	-8.728869e-05
88	0x38c7c340	9.5254276e-05
89	0xb83eaa55	-4.5458164e-05
90	0x383f845b	4.5661214e-05
91	0x37c624be	2.3620549e-05
92	0x384bc889	4.8585734e-05
93	0x38e22be0	0.00010784692
94	0xb90a191e	-0.00013170062
95	0x385821cb	5.1529885e-05
96	0x36e9a58c	6.9632133e-06
97	0xb73a8f3d	-1.1119814e-05
98	0x37b5cc68	2.1672065e-05
99	0x37e8a7a8	2.7734626e-05
100	0x3610691d	2.1518856e-06
101	0xb7a3482c	-1.9464722e-05
102	0xb6cf6577	-6.180893e-06
103	0x38364341	4.3454816e-05
104	0xb674a146	-3.6452707e-06
105	0xb7082a49	-8.116077e-06
106	0xb736f4c1	-1.0905032e-05
107	0x37035f35	7.830376e-06
108	0xb801d331	-3.0952684e-05
109	0xb7a9dab7	-2.0248217e-05
110	0x37eeb524	2.8456161e-05
111	0xb7e7c7de	-2.7630416e-05
112	0x388f8aed	6.844648e-05
113	0xb71cc244	-9.343556e-06
114	0xb92d440b	-0.00016523914
115	0xb940cdac	-0.00018387166
116	0x36e21103	6.7373053e-06
117	0x39910bca	0.0002766534
118	0xb7106ff2	-8.609133e-06
119	0xb91ae943	-0.00014773481
120	0xb93c7048	-0.00017970905
121	0x391b3b20	0.00014803978
122	0xb8bf7db6	-9.131005e-05
123	0x3897e960	7.2437106e-05
124	0x38d18f9f	9.992648e-05
125	0x377190af	1.4398406e-05
126	0xb56713f7	-8.608326e-07
127	0x38d1cc2f	0.00010003929
128	0xb73bb8af	-1.1189069e-05
129	0x382deb0c	4.146532e-05
130	0x3869c343	5.573338e-05
131	0x38e7ab05	0.00011046793
132	0x379b99b2	1.854901e-05
133	0xb93605b1	-0.00017358993
134	0x3836dea0	4.3599517e-05
135	0x390bb393	0.0001332297
136	0x380816c9	3.2446147e-05
137	0xb88114fe	-6.1551094e-05
138	0x3800bf02	3.0695468e-05
139	0xb8629166	-5.401801e-05
140	0xb8b4e483	-8.6256325e-05
141	0xb8677049	-5.5179265e-05
142	0x388b0ec0	6.630784e-05
143	0xb8be3be0	-9.0710586e-05
144	0x38c3f60d	9.344155e-05
145	0xb7e500b9	-2.7299264e-05
146	0xb8caacfb	-9.664331e-05
147	0xb885ebcc	-6.385855e-05
148	0x384f7643	4.9462786e-05
149	0x392fa0ef	0.00016749253
150	0x3659e469	3.2468472e-06
151	0xb5b51d9b	-1.3494167e-06
152	0xb960f814	-0.00021454721
153	0x3906dd7a	0.00012861742
154	0xb8d06954	-9.937832e-05
155	0xb683b721	-3.9254232e-06
156	0xb717c895	-9.047003e-06
157	0xb8d51b78	-0.00010161748
158	0x390e2889	0.00013557276
159	0x38271162	3.983209e-05
160	0x37f3bce2	2.9055813e-05
161	0x38555e26	5.087084e-05
162	0xb899ab32	-7.327496e-05
163	0xb82069e8	-3.8245606e-05
164	0xb7cb2147	-2.4214982e-05
165	0x3819a1cd	3.662873e-05
166	0x383be8ad	4.480097e-05
167	0xb809fded	-3.2899832e-05
168	0xb8239fed	-3.901117e-05
169	0x3781cbe7	1.5472948e-05
170	0x37599de2	1.2970968e-05
171	0x37ce6116	2.4602323e-05
172	0xb7b00705	-2.0984104e-05
173	0x37f2b166	2.8931256e-05
174	0xb5c9732c	-1.5009186e-06
175	0xb75d7f47	-1.3202261e-05
176	0xb786c8ef	-1.6067612e-05
177	0xb80c8bec	-3.3508913e-05
178	0xb8542b30	-5.058496e-05
179	0xb8f0b0bc	-0.00011477011
180	0xb7149adb	-8.8575425e-06
181	0x391795b4	0.00014456251
182	0xb77fa897	-1.5238437e-05
183	0xb916f49c	-0.00014396239
184	0x368bef78	4.1704006e-06
185	0x3807713c	3.2291966e-05
186	0x35198620	5.719212e-07
187	0x38531b72	5.033188e-05
188	0x38b8d23d	8.812964e-05
189	0x38b81380	8.777436e-05
190	0xb8e62a53	-0.00010975138
191	0x38b210fe	8.4908665e-05
192	0x377b5eda	1.498285e-05
193	0xb6150d2f	-2.2210404e-06
194	0x37952a59	1.7781904e-05
195	0x38880150	6.48523e-05
196	0x381a38bc	3.67693e-05
197	0xb83df1bb	-4.528624e-05
198	0xb6a7df70	-5.0029994e-06
199	0x38dd1c12	0.0001054333
200	0xb8404f4d	-4.585022e-05
201	0x36d411ae	6.3201505e-06
202	0xb80a335d	-3.29496e-05
203	0xb7ad84d6	-2.0685064e-05
204	0xb829d8aa	-4.0494524e-05
205	0xb8c961de	-9.602656e-05
206	0x38d4d9fa	0.00010149549
207	0xb877f690	-5.911902e-05
208	0xb93c95a3	-0.00017984821
209	0x36752fb3	3.653561e-06
210	0x3a155f18	0.0005698069
211	0x3a11347e	0.0005539133
212	0xb7c71882	-2.3734061e-05
213	0xba605ddf	-0.000855891
214	0xb8ac3d56	-8.213024e-05
215	0x3a06f69f	0.0005148444
216	0x39e0d02b	0.00042879707
217	0xb9b2dea0	-0.00034116674
218	0x394a80b4	0.00019312167
219	0xb96b1adc	-0.00022421352
220	0xb99e8d92	-0.00030241587
221	0xb9020c46	-0.00012402338
222	0x38c2f3fe	9.296088e-05
223	0xb96a8a1b	-0.00022367427
224	0xb699e228	-4.5860834e-06
225	0x372d54de	1.0331363e-05
226	0x376616ba	1.371436e-05
227	0x385f7a44	5.3281212e-05
228	0x36495a73	3.0003982e-06
229	0xb88bceab	-6.6665314e-05
230	0x374bbd90	1.2143879e-05
231	0x3835d050	4.334777e-05
232	0x37a3a498	1.950776e-05
233	0xb7a5eecf	-1.9780737e-05
234	0x379ca949	1.8675479e-05
235	0xb7e47093	-2.723214e-05
236	0xb814c8d1	-3.5472975e-05
237	0xb7b54c10	-2.16123e-05
238	0x37f51bf9	2.9219302e-05
239	0xb7e9ceb9	-2.7872027e-05
240	0xb90983fe	-0.00013114509
241	0xb72605be	-9.895708e-06
242	0x390a2d9c	0.00013177696
243	0x37a505be	1.9672207e-05
244	0xb8a7bc40	-7.998245e-05
245	0xb8f36985	-0.000116067975
246	0xb818d58e	-3.6438512e-05
247	0xb8fa75b1	-0.00011942851
248	0x39a07010	0.0003060107
249	0xb923d559	-0.0001562437
250	0x39195947	0.00014624475
251	0x37605481	1.33711155e-05
252	0x3887faed	6.48404e-05
253	0x3957da7b	0.00020585388
254	0xb98d20f8	-0.0002691818
255	0x38006741	3.061374e-05

exp_avg_sq f4 [16, 16]
0	0x364fcbc8	3.096402e-06
1	0x35240863	6.1106965e-07
2	0x36dac218	6.5195018e-06
3	0x36c13dfa	5.7590632e-06
4	0x36021844	1.9385634e-06
5	0x37383cac	1.0981381e-05
6	0x362f7e9f	2.6150735e-06
7	0x36e50f10	6.8264853e-06
8	0x37a61074	1.9796404e-05
9	0x370d813b	8.434344e-06
10	0x36b74de8	5.4628945e-06
11	0x35ff92c2	1.9041693e-06
12	0x360c8aa2	2.094232e-06
13	0x373ef679	1.1382269e-05
14	0x3782b39f	1.558085e-05
15	0x36a081d3	4.783485e-06
16	0x33f4ac01	1.1393423e-07
17	0x32589f3e	1.2609062e-08
18	0x34a4e35e	3.0712812e-07
19	0x3487f48b	2.5323638e-07
20	0x33454aa5	4.5935526e-08
21	0x3547078c	7.414426e-07
22	0x3309b6dc	3.2064108e-08
23	0x3492c27c	2.7336125e-07
24	0x3526dd6f	6.216205e-07
25	0x34a1826a	3.0083476e-07
26	0x34435cb5	1.8194517e-07
27	0x3362453b	5.268269e-08
28	0x33cf64de	9.657536e-08
29	0x34866309	2.5031503e-07
30	0x34d091d1	3.8849115e-07
31	0x3436305d	1.6967665e-07
32	0x33d40fe2	9.8749084e-08
33	0x32e575c6	2.6712666e-08
34	0x349e6a47	2.950712e-07
35	0x348d5c7d	2.633059e-07
36	0x3350be13	4.8601645e-08
37	0x353aabd9	6.954047e-07
38	0x32e3ad9f	2.6505232e-08
39	0x34aa51d6	3.172451e-07
40	0x351c3729	5.81948e-07
41	0x3485fe7e	2.4958348e-07
42	0x343e3fa6	1.7718284e-07
43	0x33615191	5.246108e-08
44	0x33e0ab6d	1.0461995e-07
45	0x349fb4c7	2.974759e-07
46	0x34d7ef8a	4.0221158e-07
47	0x340304cb	1.220207e-07
48	0x33ca8637	9.4307715e-08
49	0x32bdaab0	2.2080116e-08
50	0x34a90548	3.1482546e-07
51	0x348cb3a5	2.620774e-07
52	0x334cc21f	4.7674003e-08
53	0x3534ffe8	6.742762e-07
54	0x32f95b79	2.9029012e-08
55	0x34a7d027	3.1257625e-07
56	0x3510dc95	5.396517e-07
57	0x3478cf73	2.317227e-07
58	0x3428c54e	1.5717998e-07
59	0x33474d18	4.6403414e-08
60	0x33df7f02	1.0407349e-07
61	0x34942121	2.7591253e-07
62	0x34c97175	3.7521718e-07
63	0x340192fe	1.2067537e-07
64	0x340344e3	1.2225387e-07
65	0x331ee295	3.6993317e-08
66	0x34b7470a	3.4138094e-07
67	0x34ace32b	3.2202783e-07
68	0x33684ca8	5.4086428e-08
69	0x356afbb6	8.753808e-07
70	0x32f0bd6f	2.8025822e-08
71	0x34c3d514	3.6476615e-07
72	0x3543b7fe	7.2910905e-07
73	0x34b0c685	3.2926997e-07
74	0x346bd8ee	2.1964999e-07
75	0x337a2e53	5.8249793e-08
76	0x340923d4	1.2772153e-07
77	0x34b0cc1b	3.293106e-07
78	0x34f84191	4.6241306e-07
79	0x3438914f	1.7189198e-07
80	0x34044069	1.231689e-07
81	0x3326eef5	3.8867217e-08
82	0x34b0765a	3.2868667e-07
83	0x34971255	2.813928e-07
84	0x33762d61	5.731761e-08
85	0x3553c40d	7.8888917e-07
86	0x32dc7f63	2.56693e-08
87	0x34ab31d4	3.1887487e-07
88	0x35454969	7.3495045e-07
89	0x34a594a3	3.0841792e-07
90	0x346907cc	2.1702652e-07
91	0x3368463e	5.4080594e-08
92	0x33edc912	1.1072747e-07
93	0x34b344f0	3.3391507e-07
94	0x34f9807b	4.6473346e-07
95	0x34171537	1.4070689e-07
96	0x33c630fa	9.229002e-08
97	0x330102dd	3.0037757e-08
98	0x349f74aa	2.9700942e-07
99	0x3483b8ec	2.45352e-07
100	0x33461989	4.612369e-08
101	0x352fb09f	6.54496e-07
102	0x32d7c31e	2.5118023e-08
103	0x3497de98	2.82879e-07
104	0x35123b84	5.4475845e-07
105	0x3479f096	2.3277457e-07
106	0x342cd7db	1.6097276e-07
107	0x3350006f	4.842917e-08
108	0x33d00634	9.686883e-08
109	0x348f2a9a	2.6666822e-07
110	0x34c278c1	3.6223176e-07
111	0x33f28bd1	1.12944356e-07
112	0x33e0452f	1.0443397e-07
113	0x32ce0250	2.3982608e-08
114	0x34ac0ee5	3.2048334e-07
115	0x34780063	2.309694e-07
116	0x3347d009	4.6522505e-08
117	0x351f59c2	5.936273e-07
118	0x32fbcbbb	2.9312892e-08
119	0x34993b3d	2.8541572e-07
120	0x3516c132	5.616049e-07
121	0x347322cf	2.2643802e-07
122	0x342312a2	1.5187337e-07
123	0x3328a823	3.9268468e-08
124	0x33dbe595	1.0239743e-07
125	0x3495a1b6	2.7871073e-07
126	0x34e3d206	4.2434857e-07
127	0x33f83054	1.1557191e-07
128	0x33fbe5ab	1.1729875e-07
129	0x32eb3260	2.7380509e-08
130	0x34ab1c4c	3.187182e-07
131	0x34919160	2.711413e-07
132	0x333a831e	4.342575e-08
133	0x3552fb3d	7.8596696e-07
134	0x330093fc	2.9936913e-08
135	0x34973149	2.8161801e-07
136	0x35326974	6.646362e-07
137	0x34a84c05	3.134775e-07
138	0x34538326	1.9698618e-07
139	0x33644f41	5.3157468e-08
140	0x33e2e255	1.0565115e-07
141	0x3489bcaf	2.5655524e-07
142	0x34cf87bb	3.8655512e-07
143	0x3427fe45	1.564559e-07
144	0x33d3067b	9.826632e-08
145	0x3307e914	3.164412e-08
146	0x3497d241	2.8278922e-07
147	0x3489716b	2.560076e-07
148	0x33506e58	4.852913e-08
149	0x35371967	6.820978e-07
150	0x32cc08ee	2.3752786e-08
151	0x34a364fc	3.0434592e-07
152	0x351e2ac7	5.8921836e-07
153	0x34890a34	2.5525662e-07
154	0x3441acb1	1.803735e-07
155	0x3358a3a9	5.0440267e-08
156	0x33db91c8	1.02245e-07
157	0x349f9077	2.972117e-07
158	0x34d862d9	4.0305056e-07
159	0x3404b85e	1.236053e-07
160	0x33d6bff0	1.0000065e-07
161	0x32f594fc	2.8589504e-08
162	0x34b19d20	3.3083143e-07
163	0x3487fc83	2.5329436e-07
164	0x333e887a	4.4361947e-08
165	0x3532a088	6.654377e-07
166	0x3302089f	3.0275825e-08
167	0x349cf5e6	2.923618e-07
168	0x3513eb23	5.5103936e-07
169	0x347b9dea	2.3433645e-07
170	0x34248376	1.5321515e-07
171	0x333cfcf0	4.4002206e-08
172	0x33db83a2	1.0221926e-07
173	0x348a288a	2.5734e-07
174	0x34c52a6e	3.672498e-07
175	0x33fcf58e	1.17793306e-07
176	0x33dbc831	1.0234397e-07
177	0x330fe151	3.3499706e-08
178	0x34ad5fbc	3.2293417e-07
179	0x348a9141	2.581019e-07
180	0x33639625	5.298911e-08
181	0x3539634b	6.906236e-07
182	0x331eabae	3.6943383e-08
183	0x34a55f61	3.0803042e-07
184	0x351e77e9	5.903408e-07
185	0x3486c047	2.5099345e-07
186	0x343ca6e2	1.7569576e-07
187	0x334c0bc2	4.7508145e-08
188	0x33e4c71f	1.0653297e-07
189	0x34a08c75	2.9904518e-07
190	0x34d83b17	4.027613e-07
191	0x3401e0ec	1.2095887e-07
192	0x33e36437	1.058874e-07
193	0x32e28513	2.6370378e-08
194	0x349a5eb9	2.8753655e-07
195	0x3484a428	2.4706355e-07
196	0x33367adb	4.2486914e-08
197	0x353fd865	7.146794e-07
198	0x330ad4cb	3.2324163e-08
199	0x348b1844	2.5908423e-07
200	0x352a57f2	6.345791e-07
201	0x349f06e5	2.9621074e-07
202	0x344a8c9f	1.8863874e-07
203	0x334759ca	4.641496e-08
204	0x33df50d4	1.0398949e-07
205	0x34879f63	2.526168e-07
206	0x34c1c756	3.6094087e-07
207	0x34131b06	1.3700273e-07
208	0x360070f0	1.9139225e-06
209	0x348b23a8	2.591671e-07
210	0x36f0ae89	7.172876e-06
211	0x36d27fc1	6.27336e-06
212	0x35703e62	8.9497746e-07
213	0x3795e296	1.7867696e-05
214	0x3457ca45	2.009702e-07
215	0x36c0b46c	5.7430498e-06
216	0x3735cace	1.083566e-05
217	0x36b83b22	5.4905113e-06
218	0x3651b3f8	3.1248182e-06
219	0x35db57c5	1.6342316e-06
220	0x363542bd	2.7009949e-06
221	0x367ebfc7	3.7960579e-06
222	0x36cf35e3	6.175354e-06
223	0x364c2061	3.0417216e-06
224	0x33ec06ea	1.0990864e-07
225	0x32f723a9	2.87708e-08
226	0x3495fa0f	2.7935354e-07
227	0x34495d38	1.8753497e-07
228	0x3367e468	5.3991613e-08
229	0x350ae976	5.1748736e-07
230	0x32da1951	2.5390053e-08
231	0x348b26ef	2.5919095e-07
232	0x351dbd80	5.8762816e-07
233	0x34703447	2.237076e-07
234	0x34274ea4	1.5581696e-07
235	0x33076131	3.1520532e-08
236	0x33b95dac	8.6317726e-08
237	0x34a0cd4d	2.9951698e-07
238	0x34f97193	4.64625e-07
239	0x33d68397	9.9890876e-08
240	0x33da1228	1.0154719e-07
241	0x32873bf5	1.5743334e-08
242	0x34908c89	2.6924343e-07
243	0x347086c2	2.2400766e-07
244	0x3330e0b5	4.1182563e-08
245	0x352c4cdb	6.418683e-07
246	0x33156ce9	3.479082e-08
247	0x3485e8c8	2.494255e-07
248	0x3518d7f5	5.693867e-07
249	0x34929563	2.7303312e-07
250	0x34336926	1.6708927e-07
251	0x334cb479	4.766159e-08
252	0x33c13879	8.997535e-08
253	0x347cbca0	2.353795e-07
254	0x34c37d18	3.6412598e-07
255	0x3421a8c9	1.5055697e-07

exp_avg f4 [784, 16]
0	0xb60c4710	-2.090299e-06
1	0xb6ec6d4f	-7.0460733e-06
2	0xb60fb010	-2.1411142e-06
3	0xb6ac4f51	-5.135233e-06
4	0xb613e308	-2.2036857e-06
5	0xb6c14a6c	-5.760512e-06
6	0x376fdc5a	1.4296815e-05
7	0xb7875703	-1.6133772e-05
8	0x3652f52f	3.1435154e-06
9	0xb66487f5	-3.4053785e-06
10	0x378f39a8	1.7073777e-05
11	0xb70c9778	-8.379917e-06
12	0xb3d04353	-9.698001e-08
13	0x37236a46	9.740301e-06
14	0xb69c0eba	-4.6508767e-06
15	0x37569236	1.2789436e-05
16	0x365d01af	3.2932546e-06
17	0xb5181e01	-5.6668074e-07
18	0x354ba6a2	7.5865876e-07
19	0xb6f5f920	-7.330571e-06
20	0x36869e2a	4.011924e-06
21	0x368b1b69	4.145714e-06
22	0xb5e4257f	-1.6998237e-06
23	0xb67cc690	-3.7666505e-06
24	0xb693bdad	-4.4030226e-06
25	0x36003c92	1.9108743e-06
26	0xb5ad604c	-1.291753e-06
27	0x34c22890	3.616483e-07
28	0x36aa6b99	5.078921e-06
29	0xb5c81edd	-1.4910144e-06
30	0x339dfdbf	7.3570384e-08
31	0x35759aef	9.149507e-07
32	0x3597bc86	1.1305244e-06
33	0x3629cd8e	2.530261e-06
34	0x369f29b1	4.743423e-06
35	0x35224230	6.044602e-07
36	0x35d3ac80	1.5770929e-06
37	0xb6009452	-1.915982e-06
38	0xb6d7be33	-6.4296414e-06
39	0x36aa5c8b	5.077168e-06
40	0x36fcebeb	7.5376497e-06
41	0xb68fd0d6	-4.286044e-06
42	0xb4e1670f	-4.19845e-07
43	0x3611b5d7	2.1712528e-06
44	0x34a4e6b4	3.071524e-07
45	0xb666728a	-3.4339341e-06
46	0xb5e50d38	-1.7065677e-06
47	0xb6fb389d	-7.4869736e-06
48	0xb380e1df	-6.00155e-08
49	0x36142214	2.2073555e-06
50	0x34b04997	3.2836098e-07
51	0xb5286256	-6.2727975e-07
52	0xb3c783fe	-9.290669e-08
53	0xb3e20062	-1.0524015e-07
54	0x3432cf06	1.6652857e-07
55	0x3350aba8	4.8584894e-08
56	0x363f3554	2.849226e-06
57	0xb6273af6	-2.491926e-06
58	0x357fc87d	9.528665e-07
59	0x3582f164	9.756009e-07
60	0x35504517	7.758658e-07
61	0xb465229c	-2.1339878e-07
62	0xb64bbf12	-3.0360575e-06
63	0xb5e12889	-1.6775604e-06
64	0x3658b58d	3.2292185e-06
65	0x35a6f5e2	1.2439525e-06
66	0xb5dc04cf	-1.6392677e-06
67	0xb6aeffd1	-5.215385e-06
68	0x35361533	6.783113e-07
69	0x36a6ceab	4.971245e-06
70	0x34e2b0f5	4.2224534e-07
71	0xb5c8c9a9	-1.4959852e-06
72	0xb696fe71	-4.4999692e-06
73	0x36395f0f	2.762248e-06
74	0xb66e2066	-3.5483622e-06
75	0x35b3f630	1.3408189e-06
76	0x363e20d0	2.8331306e-06
77	0xb6108e9e	-2.1540686e-06
78	0x35d9a2a4	1.6215095e-06
79	0xb5138b49	-5.4964454e-07
80	0x35651d7a	8.535204e-07
81	0x369de8f5	4.7060844e-06
82	0x364c9f3f	3.0491062e-06
83	0x33a8a577	7.8532075e-08
84	0x35062eb2	4.998684e-07
85	0xb66bc1c5	-3.5130518e-06
86	0xb69c05fe	-4.64986e-06
87	0x36115a8f	2.1659396e-06
88	0x36bb73fe	5.5865376e-06
89	0xb60e619b	-2.1216463e-06
90	0x353d0cc2	7.042655e-07
91	0x360749da	2.0159555e-06
92	0x3531e6dd	6.627359e-07
93	0xb625e128	-2.4717974e-06
94	0xb675a129	-3.6601652e-06
95	0xb683107c	-3.9060233e-06
96	0x35d4c6c6	1.5853082e-06
97	0x362965b1	2.5242155e-06
98	0x35d6079f	1.594646e-06
99	0xb579b8c7	-9.3028615e-07
100	0xb4b1d0ef	-3.3120838e-07
101	0xb5599493	-8.1055003e-07
102	0xb593560f	-1.09774e-06
103	0x359a0298	1.1474649e-06
104	0x35e9733c	1.739339e-06
105	0xb59ab242	-1.1525774e-06
106	0xb4753e6c	-2.2840112e-07
107	0x3534b1b8	6.731384e-07
108	0x358b365c	1.0372128e-06
109	0xb5f079a5	-1.7916797e-06
110	0xb5b5f13b	-1.3555758e-06
111	0xb62eb477	-2.6033065e-06
112	0x364a3abe	3.0134538e-06
113	0x34fa6d64	4.664572e-07
114	0xb54d27b8	-7.642625e-07
115	0xb6595f09	-3.2390838e-06
116	0x34c4c128	3.6648385e-07
117	0x36bfbb6d	5.714063e-06
118	0xb524b7ab	-6.1362033e-07
119	0xb547af8c	-7.438873e-07
120	0xb69e5fdd	-4.719927e-06
121	0x3639f954	2.7712276e-06
122	0xb699d061	-4.584014e-06
123	0x35b6189d	1.356722e-06
124	0x365d5b15	3.2984583e-06
125	0xb6a00e4f	-4.7700373e-06
126	0x3608b846	2.037284e-06
127	0x34dc7baa	4.106817e-07
128	0x35867297	1.0017128e-06
129	0x359a085a	1.1476325e-06
130	0x33f87770	1.15701255e-07
131	0xb5bc1962	-1.4014479e-06
132	0xb4d9cb0c	-4.0567136e-07
133	0x34841cad	2.460778e-07
134	0x35783294	9.24608e-07
135	0xb4ab4491	-3.190112e-07
136	0x3470b974	2.2419209e-07
137	0xb50449dc	-4.928131e-07
138	0xb47b6eee	-2.3416553e-07
139	0x34557977	1.988136e-07
140	0x359508b8	1.1103903e-06
141	0xb4cd5525	-3.8246176e-07
142	0xb53b1625	-6.9695153e-07
143	0xb58b2181	-1.0366058e-06
144	0x36121cee	2.1772535e-06
145	0x35b04db9	1.3135642e-06
146	0xb50a5240	-5.1528696e-07
147	0xb65f424f	-3.3268186e-06
148	0x35494ebb	7.4992903e-07
149	0x35dcaa7e	1.6440897e-06
150	0x34891e74	2.5540396e-07
151	0x351481f7	5.532342e-07
152	0xb6003406	-1.9103768e-06
153	0x3581c265	9.667825e-07
154	0xb600821c	-1.914922e-06
155	0x352f7314	6.536004e-07
156	0x3568a78a	8.6670536e-07
157	0xb51cc99a	-5.84079e-07
158	0x35e267cf	1.6868524e-06
159	0xb62f8d56	-2.61593e-06
160	0x371f270c	9.48623e-06
161	0x36c7037f	5.931069e-06
162	0xb6c4f384	-5.869604e-06
163	0xb73ce940	-1.1259981e-05
164	0x361db708	2.3501361e-06
165	0x37af4483	2.0893529e-05
166	0xb702d33e	-7.7977875e-06
167	0xb676bbbf	-3.676614e-06
168	0xb74a6e72	-1.2065853e-05
169	0x37384f0b	1.0985658e-05
170	0xb78af903	-1.6566837e-05
171	0x36fc2e04	7.515542e-06
172	0x3739855f	1.1057912e-05
173	0xb792bf40	-1.7493614e-05
174	0x3738f6f9	1.1024757e-05
175	0xb6977ba9	-4.5145466e-06
176	0xb643de0c	-2.9186513e-06
177	0x36ac749f	5.139576e-06
178	0x368aad49	4.1328935e-06
179	0x36631858	3.3839806e-06
180	0x34ea6b08	4.3663772e-07
181	0xb6463c4a	-2.9539392e-06
182	0xb693220a	-4.384904e-06
183	0x36a0917c	4.785308e-06
184	0x370f93e5	8.557899e-06
185	0xb68db5a8	-4.223275e-06
186	0x3589e959	1.0275209e-06
187	0x361651bb	2.2399315e-06
188	0x33fe554e	1.18433135e-07
189	0xb6876738	-4.0353298e-06
190	0xb6894275	-4.090655e-06
191	0xb6f21c03	-7.215423e-06
192	0x35788d42	9.2592757e-07
193	0x3614b557	2.2159272e-06
194	0x358cc616	1.0488463e-06
195	0xb5eeefe0	-1.7802195e-06
196	0x33ab3b67	7.973613e-08
197	0xb51fde45	-5.955556e-07
198	0xb4e95d14	-4.3467355e-07
199	0x3518196a	5.6661395e-07
200	0x35f2e901	1.8098218e-06
201	0xb587eb7f	-1.0126822e-06
202	0x32ef4d04	2.7858285e-08
203	0x34de6d55	4.1430272e-07
204	0x355dd72f	8.264205e-07
205	0xb56eaf19	-8.891671e-07
206	0xb532a528	-6.65505e-07
207	0xb62a4c8a	-2.5376526e-06
208	0xb3802b64	-5.968357e-08
209	0x35279fd7	6.2444946e-07
210	0x35b9d121	1.3844439e-06
211	0xb499c6f3	-2.8643225e-07
212	0xb4f86181	-4.6264543e-07
213	0x34c48c97	3.6610137e-07
214	0x352ec845	6.511148e-07
215	0xb5425276	-7.239063e-07
216	0x35f9cf9e	1.861237e-06
217	0xb5b3835e	-1.3374772e-06
218	0xb492ac00	-2.7319766e-07
219	0xb326e157	-3.8854832e-08
220	0x358693be	1.0026777e-06
221	0xb557933a	-8.0307984e-07
222	0xb6205172	-2.3889265e-06
223	0x3501f8a7	4.841808e-07
224	0x3612d5be	2.188011e-06
225	0x35bc8cf2	1.4048112e-06
226	0xb3aa2621	-7.9231775e-08
227	0xb661e4ae	-3.3660722e-06
228	0xb362661e	-5.27126e-08
229	0x35dbd303	1.6378184e-06
230	0x359724b6	1.1261061e-06
231	0xb5517901	-7.803465e-07
232	0xb51018bf	-5.368019e-07
233	0xb4417073	-1.8015434e-07
234	0xb5900ef6	-1.073319e-06
235	0xb2066cb5	-7.824544e-09
236	0x36103797	2.149003e-06
237	0xb59bdaa5	-1.1612034e-06
238	0xb58a52a4	-1.0305853e-06
239	0xb47f039f	-2.3750043e-07
240	0xb563ac2b	-8.4814627e-07
241	0x36260c66	2.4743144e-06
242	0x35f801b8	1.847794e-06
243	0x3553c028	7.888325e-07
244	0xb52e63b5	-6.4965144e-07
245	0xb5e2abec	-1.6888348e-06
246	0xb556ffd5	-8.0093497e-07
247	0x3584afb4	9.885903e-07
248	0x36821346	3.8765456e-06
249	0xb5bacef4	-1.3918311e-06
250	0x346f3e4e	2.2281276e-07
251	0x347dd1d9	2.3638803e-07
252	0x35a6d7df	1.243079e-06
253	0xb5b0f351	-1.3183836e-06
254	0xb61d8656	-2.3473017e-06
255	0xb630b746	-2.6332723e-06

exp_avg_sq f4 [784, 16]
0	0x320bc390	8.135331e-09
1	0x31ea5e6f	6.821032e-09
2	0x31852eac	3.8761154e-09
3	0x3244ffa8	1.1466831e-08
4	0x31accb87	5.028997e-09
5	0x32879bd5	1.5786933e-08
6	0x321f8521	9.285288e-09
7	0x321449e1	8.631532e-09
8	0x329846f4	1.7727395e-08
9	0x312b3fe3	2.492009e-09
10	0x32bb188c	2.1780828e-08
11	0x31fbf085	7.3324053e-09
12	0x31b755db	5.3357616e-09
13	0x3242ff44	1.1350327e-08
14	0x3239a375	1.0805583e-08
15	0x32b7cf86	2.1398375e-08
16	0x30ff518b	1.8576868e-09
17	0x30e3d47a	1.6576813e-09
18	0x309e5f93	1.1523177e-09
19	0x3215ad9b	8.712415e-09
20	0x2fdc3e80	4.0062176e-10
21	0x313d2283	2.7522737e-09
22	0x2fd5cfc5	3.8892103e-10
23	0x30aa5bb5	1.2395193e-09
24	0x30e6b929	1.6787328e-09
25	0x30273b21	6.0838273e-10
26	0x3113dc84	2.1516664e-09
27	0x306794ef	8.424896e-10
28	0x31584eaf	3.1476863e-09
29	0x3080ed67	9.3807e-10
30	0x30b2f7d8	1.3021646e-09
31	0x311d1833	2.2860263e-09
32	0x30ec6016	1.7198569e-09
33	0x3117f52c	2.2112756e-09
34	0x30ac6860	1.2544312e-09
35	0x30d9ef59	1.5856855e-09
36	0x2f2f9dc9	1.5972214e-10
37	0x3052dead	7.6713996e-10
38	0x310e6e4b	2.0726414e-09
39	0x30be80a9	1.3860887e-09
40	0x31b04646	5.1302633e-09
41	0x313939c7	2.6953886e-09
42	0x3114be89	2.1645141e-09
43	0x2faf4c4a	3.188652e-10
44	0x30336f8b	6.527833e-10
45	0x319cdb57	4.5651336e-09
46	0x310374e4	1.9129454e-09
47	0x310cc065	2.0482045e-09
48	0x2f9aefaf	2.8182742e-10
49	0x2f1c23bc	1.4200813e-10
50	0x300e96da	5.187367e-10
51	0x2f818880	2.3561952e-10
52	0x2e294ec0	3.8496095e-11
53	0x2ffaf3a2	4.5647847e-10
54	0x30d15ce9	1.5233158e-09
55	0x2f9e0bb3	2.8748345e-10
56	0x31044413	1.9247224e-09
57	0x300ce751	5.1260424e-10
58	0x2f1ab440	1.4070256e-10
59	0x3037ce02	6.6867767e-10
60	0x2fdfc0d5	4.070048e-10
61	0x3094bf4a	1.0822785e-09
62	0x30c55143	1.4356732e-09
63	0x2f818886	2.356197e-10
64	0x2ff79c9f	4.5040324e-10
65	0x2f841f8f	2.4033084e-10
66	0x2edfc174	1.017523e-10
67	0x30992c0b	1.1144733e-09
68	0x2dcc8e75	2.3255379e-11
69	0x307ac776	9.123292e-10
70	0x2ec3c7eb	8.903086e-11
71	0x2f29e8f1	1.5453218e-10
72	0x305117c6	7.606754e-10
73	0x2ff1480d	4.388884e-10
74	0x306da067	8.6448043e-10
75	0x2e89524f	6.2446597e-11
76	0x300e1732	5.169226e-10
77	0x302d1c9a	6.297768e-10
78	0x2f92bc03	2.6690836e-10
79	0x3006ed4f	4.908615e-10
80	0x30df3a5e	1.6241974e-09
81	0x3150fece	3.0412823e-09
82	0x30bbb620	1.3657804e-09
83	0x31232246	2.3739104e-09
84	0x3084a372	9.650718e-10
85	0x30d9a1c2	1.5834802e-09
86	0x30c3c1af	1.4243166e-09
87	0x318d05d0	4.104301e-09
88	0x31e0b5ed	6.5399406e-09
89	0x3153b4f9	3.0807412e-09
90	0x30f79973	1.8015228e-09
91	0x2fed794c	4.3196235e-10
92	0x3093efe5	1.076384e-09
93	0x31aa9585	4.9646496e-09
94	0x30eb41ec	1.7117237e-09
95	0x31b4739b	5.2518323e-09
96	0x2ff91a7b	4.5311652e-10
97	0x300beb45	5.0902244e-10
98	0x2f586761	1.9681813e-10
99	0x3060dcc1	8.1804435e-10
100	0x2df357e0	2.7664926e-11
101	0x2f85d0c0	2.4340885e-10
102	0x2f8e5c3e	2.5895192e-10
103	0x2eb59b96	8.258565e-11
104	0x3033c577	6.5400435e-10
105	0x2f83f816	2.4005037e-10
106	0x2f7f5e94	2.3225716e-10
107	0x2e248e8b	3.7415886e-11
108	0x2f49ac29	1.8342007e-10
109	0x301e3371	5.755317e-10
110	0x2f9c8549	2.847094e-10
111	0x2f3db78d	1.725466e-10
112	0x2ee48117	1.03911706e-10
113	0x2f023a3a	1.1844117e-10
114	0x30250e2b	6.0046784e-10
115	0x2f4bffe2	1.855365e-10
116	0x2dba9d22	2.1215533e-11
117	0x3057040e	7.8222306e-10
118	0x2ffecd56	4.634823e-10
119	0x2f04dcca	1.208377e-10
120	0x2f97b62c	2.759618e-10
121	0x2f8742ec	2.4603908e-10
122	0x2f8e6254	2.5899516e-10
123	0x2ecab014	9.217174e-11
124	0x2f4f2fc8	1.8843516e-10
125	0x2fdfb8d9	4.0694806e-10
126	0x2f6c445d	2.1488362e-10
127	0x2f342e93	1.6387451e-10
128	0x2eb152f3	8.063763e-11
129	0x2f45bd44	1.7984286e-10
130	0x2f2983d9	1.5417302e-10
131	0x2ec9c9a3	9.1762396e-11
132	0x2db79ce5	2.0874366e-11
133	0x2f05cacd	1.2168329e-10
134	0x2e9bef65	7.091109e-11
135	0x2d8a4063	1.5717377e-11
136	0x2fbb3ca8	3.40582e-10
137	0x2f2a80fe	1.5507237e-10
138	0x2ec2b6c3	8.8545636e-11
139	0x2d85399d	1.5145935e-11
140	0x2f24b42c	1.4979723e-10
141	0x2f96c416	2.7424168e-10
142	0x2f264d89	1.5125158e-10
143	0x2f099714	1.2513751e-10
144	0x2fc6617c	3.6085257e-10
145	0x2fa0664d	2.917652e-10
146	0x2eea9e25	1.066918e-10
147	0x3027cf89	6.104917e-10
148	0x2e5db31f	5.0408674e-11
149	0x2f4f6191	1.8861203e-10
150	0x2e37bb58	4.1775777e-11
151	0x2fa72e46	3.0410002e-10
152	0x2fd042aa	3.7882347e-10
153	0x2f315c1a	1.6130777e-10
154	0x30227721	5.910455e-10
155	0x2d38f814	1.05142735e-11
156	0x2f0776f5	1.232044e-10
157	0x2f0d118e	1.2830112e-10
158	0x302ae429	6.2169875e-10
159	0x30e58472	1.6699586e-09
160	0x30be2844	1.3835764e-09
161	0x31231c38	2.3735662e-09
162	0x30723f81	8.812933e-10
163	0x30b38a7a	1.3063322e-09
164	0x2f4be940	1.854561e-10
165	0x318fdba2	4.186817e-09
166	0x30afa5a7	1.2780007e-09
167	0x3093e69b	1.07612e-09
168	0x3104eaff	1.9342108e-09
169	0x30f42447	1.7763647e-09
170	0x316bcbcf	3.4312853e-09
171	0x3097f44c	1.1056129e-09
172	0x30f67609	1.7932403e-09
173	0x31d55c82	6.209633e-09
174	0x31155155	2.1728586e-09
175	0x31c7b36d	5.8120606e-09
176	0x301205c3	5.312268e-10
177	0x31745a7c	3.5558108e-09
178	0x307bd7ab	9.161975e-10
179	0x2fc6eca1	3.6184125e-10
180	0x2ff9b97e	4.5424636e-10
181	0x30cb42d3	1.4789187e-09
182	0x308d0d63	1.0262905e-09
183	0x3108cf4e	1.9908444e-09
184	0x310d0d0a	2.0525612e-09
185	0x3116ca5a	2.1942896e-09
186	0x3090ab96	1.0526147e-09
187	0x2f9761cd	2.7536232e-10
188	0x301c626f	5.689235e-10
189	0x313afb8a	2.7209546e-09
190	0x30b477b9	1.3130751e-09
191	0x31024e09	1.8961848e-09
192	0x30276faa	6.091293e-10
193	0x3012b808	5.3376015e-10
194	0x2f00b93f	1.1707345e-10
195	0x30463912	7.211308e-10
196	0x2e8d38a2	6.421998e-11
197	0x2f1733cc	1.3751772e-10
198	0x2f294215	1.5393938e-10
199	0x2e3e83bb	4.3318e-11
200	0x3055a6b5	7.7725854e-10
201	0x2f704437	2.1852108e-10
202	0x2fb88caa	3.3569353e-10
203	0x2e3eb4b9	4.3361512e-11
204	0x2ee9361f	1.0605227e-10
205	0x2fedc19d	4.324762e-10
206	0x2f98ea44	2.7815095e-10
207	0x301e8daa	5.768138e-10
208	0x2e4dd43c	4.6800105e-11
209	0x2eba81d7	8.481365e-11
210	0x2f29bb7d	1.543707e-10
211	0x2e92fef4	6.6846e-11
212	0x2db36ace	2.0397375e-11
213	0x2f5e8329	2.023738e-10
214	0x2f53d9f9	1.9267778e-10
215	0x2f226260	1.4768764e-10
216	0x2f9d632d	2.8628602e-10
217	0x2ee5ddc6	1.0453109e-10
218	0x2ed49084	9.666315e-11
219	0x2d8b0694	1.5805392e-11
220	0x2f1588d9	1.3600089e-10
221	0x2fdfec5b	4.0731404e-10
222	0x304da9bc	7.481977e-10
223	0x2fae8aa8	3.1748937e-10
224	0x3000e699	4.689383e-10
225	0x2fa5a78b	3.0132372e-10
226	0x2f88da05	2.4893168e-10
227	0x3024e139	5.9982913e-10
228	0x2d967db2	1.7108846e-11
229	0x2f458e44	1.7967589e-10
230	0x2fc2c037	3.542497e-10
231	0x2de61611	2.6157772e-11
232	0x2fa587f3	3.0109923e-10
233	0x2f15db0c	1.3629292e-10
234	0x2f56c614	1.9533558e-10
235	0x2e477353	4.534979e-11
236	0x2fef4973	4.3526036e-10
237	0x3035c77d	6.6130906e-10
238	0x2fcfbc15	3.778672e-10
239	0x2f247f68	1.4960977e-10
240	0x2ed98aa8	9.892648e-11
241	0x2fc5baff	3.596696e-10
242	0x2f4a7f29	1.841697e-10
243	0x2f49a9d9	1.8341186e-10
244	0x2eaa5033	7.744951e-11
245	0x2f56edef	1.9547718e-10
246	0x2f8465a5	2.4082883e-10
247	0x2ed3f4b5	9.638638e-11
248	0x301919d5	5.5697785e-10
249	0x2f3563ac	1.6497265e-10
250	0x2f1381c4	1.3415674e-10
251	0x2e29d496	3.8614965e-11
252	0x2f133173	1.338714e-10
253	0x2fbd3322	3.4415232e-10
254	0x3036569c	6.6334294e-10
255	0x2f72d986	2.2087052e-10

exp_avg f4 [16]
0	0xba5ca655	-0.00084171194
1	0xb776037a	-1.4663552e-05
2	0x39a7fc19	0.0003204055
3	0xb9b659ca	-0.00034780643
4	0x38925fe4	6.9796835e-05
5	0x3962bc74	0.00021623244
6	0x3a00b920	0.0004910398
7	0xba136845	-0.00056231424
8	0x3a6a5c41	0.00089401385
9	0xba0bc4a8	-0.0005331733
10	0x3a004903	0.0004893692
11	0x392f76eb	0.00016733601
12	0x3a00105f	0.0004885252
13	0xba4bb3b6	-0.00077706145
14	0xb9021ca1	-0.00012408431
15	0xba117815	-0.00055492047

exp_avg_sq f4 [16]
0	0x36ebc9bc	7.0270307e-06
1	0x3641ce82	2.8879444e-06
2	0x3818dac2	3.6443358e-05
3	0x3744456a	1.1698672e-05
4	0x3707a96d	8.086075e-06
5	0x3858288e	5.1536183e-05
6	0x37cbe4c6	2.4306017e-05
7	0x376dbc6f	1.4170174e-05
8	0x38a4e295	7.8623336e-05
9	0x3834fd9c	4.3151536e-05
10	0x37cff6b8	2.479121e-05
11	0x37995217	1.8277247e-05
12	0x3748e111	1.1973331e-05
13	0x3789a45a	1.6408205e-05
14	0x38319c77	4.2345808e-05
15	0x3840287a	4.5814064e-05

exp_avg f4 [16]
0	0x39163cce	0.00014327766
1	0x381343c2	3.5110636e-05
2	0x39e77144	0.00044144143
3	0xb95305c1	-0.00020124672
4	0xb8605b78	-5.349095e-05
5	0xb85b524b	-5.229031e-05
6	0xb88aeb1e	-6.624147e-05
7	0x3907f9ec	0.00012967706
8	0xb7f40c0d	-2.9092678e-05
9	0xb68fcc60	-4.2855245e-06
10	0xb953b23e	-0.00020188928
11	0xb802a960	-3.1152158e-05
12	0x38972497	7.2070565e-05
13	0xb935df58	-0.00017344707
14	0xb8be176f	-9.064271e-05
15	0x37908d87	1.7232042e-05

exp_avg_sq f4 [16]
0	0x365b20e3	3.2652686e-06
1	0x370d4635	8.420601e-06
2	0x36e76363	6.8959066e-06
3	0x3727aaab	9.993712e-06
4	0x36e4fd34	6.8244062e-06
5	0x379e425e	1.8865972e-05
6	0x37326f90	1.0635602e-05
7	0x36ce30f5	6.1449778e-06
8	0x3770d881	1.43555235e-05
9	0x372aa59e	1.017135e-05
10	0x36addb4c	5.1813313e-06
11	0x36fb2f20	7.485869e-06
12	0x36e5f1fc	6.8529025e-06
13	0x3728c3c6	1.0059162e-05
14	0x376a981e	1.3982904e-05
15	0x375e9378	1.3266566e-05

exp_avg f4 [16]
0	0xba27337a	-0.0006378215
1	0xb9299730	-0.00016173418
2	0x394e9b19	0.0001970347
3	0xb977af6a	-0.00023621102
4	0xb60c67a2	-2.0921948e-06
5	0x3911e94f	0.00013915192
6	0x39a3e586	0.0003126079
7	0xba027361	-0.0004976299
8	0x3a78d9e7	0.0009492919
9	0xba0b9f1b	-0.0005326138
10	0x3a1ac7de	0.00059044163
11	0xb903850c	-0.00012542697
12	0x39888934	0.00026042166
13	0xba0c4925	-0.00053514756
14	0x3922e522	0.00015534883
15	0x37bc99ed	2.2483024e-05

exp_avg_sq f4 [16]
0	0x3690eb9a	4.318962e-06
1	0x3655fdd3	3.1887218e-06
2	0x37a645be	1.9821218e-05
3	0x373d3ed5	1.1279907e-05
4	0x36a20898	4.8289767e-06
5	0x381ccf4e	3.7386366e-05
6	0x37a4dd9a	1.9653515e-05
7	0x371232ff	8.714152e-06
8	0x384aa998	4.83185e-05
9	0x37f782f7	2.950568e-05
10	0x378ba7c2	1.664821e-05
11	0x3731e904	1.0604275e-05
12	0x3728654e	1.0037167e-05
13	0x3755e88a	1.2749932e-05
14	0x37f3de55	2.9071389e-05
15	0x37d443f6	2.5304016e-05

exp_avg f4 [16]
0	0x379d2e25	1.8737346e-05
1	0xb90d739d	-0.00013489877
2	0x399372e4	0.00028123625
3	0x385fbfd9	5.3346015e-05
4	0xb87f7328	-6.0903985e-05
5	0xb90c6bdf	-0.00013391626
6	0xb887549e	-6.453063e-05
7	0x3981b549	0.00024739865
8	0xb8a528a7	-7.875385e-05
9	0x3898917e	7.275025e-05
10	0xb87a4f1b	-5.9678317e-05
11	0x38b3e988	8.578884e-05
12	0xb9258e75	-0.00015788696
13	0xb81514e5	-3.5543828e-05
14	0x38a8a8ef	8.0423306e-05
15	0x38b286ff	8.5128464e-05

exp_avg_sq f4 [16]
0	0x3681073b	3.8453413e-06
1	0x36a3cdf5	4.881755e-06
2	0x3687c81b	4.046609e-06
3	0x36ef8a9e	7.138892e-06
4	0x3697ac3c	4.5202014e-06
5	0x372f83f1	1.0461533e-05
6	0x3689beac	4.1051153e-06
7	0x36af0439	5.215898e-06
8	0x3724fe32	9.834346e-06
9	0x36b31a55	5.337681e-06
10	0x36bc6b58	5.615333e-06
11	0x36830b15	3.9053944e-06
12	0x36d2e759	6.28542e-06
13	0x36edca48	7.086699e-06
14	0x37189180	9.093783e-06
15	0x3705104b	7.931211e-06

exp_avg f4 [48, 16]
0	0x36a5d2ae	4.9419095e-06
1	0xb6c67ad1	-5.9151575e-06
2	0x3681e5fe	3.871274e-06
3	0x361d0697	2.339866e-06
4	0xb6bd640a	-5.644285e-06
5	0xb71122c1	-8.650765e-06
6	0xb733ba16	-1.0712558e-05
7	0xb5875abc	-1.0084691e-06
8	0x361b2743	2.3119653e-06
9	0x36f5cc18	7.3253286e-06
10	0xb57b5f34	-9.3643325e-07
11	0xb709cae6	-8.213077e-06
12	0xb60d7986	-2.1081373e-06
13	0xb511ac47	-5.4267406e-07
14	0x3741b86b	1.1546635e-05
15	0x374a2c0b	1.2050393e-05
16	0x362c8a32	2.5710438e-06
17	0xb72062e4	-9.559768e-06
18	0x36afc9c2	5.238894e-06
19	0xb639b566	-2.7672736e-06
20	0xb6a6e7b3	-4.974159e-06
21	0xb73bb09b	-1.1187188e-05
22	0x3822c27d	3.880494e-05
23	0xb7700021	-1.4305145e-05
24	0xb7e6657e	-2.7465398e-05
25	0x35610393	8.3824233e-07
26	0xb6eb127c	-7.0056976e-06
27	0xb825c2e9	-3.952059e-05
28	0x374c8f47	1.2192707e-05
29	0xb775a66c	-1.4641886e-05
30	0x378b765d	1.6625208e-05
31	0x384d2d34	4.8917907e-05
32	0xb7649c07	-1.3626187e-05
33	0x37910fb2	1.7292656e-05
34	0xb6d6b3e6	-6.39864e-06
35	0x365cc3d7	3.2896548e-06
36	0x36d90f57	6.4688898e-06
37	0x36bb23dc	5.577209e-06
38	0x3760e83c	1.3405512e-05
39	0x3755b22e	1.2737275e-05
40	0x37a1ecc1	1.9302943e-05
41	0xb793620c	-1.7569422e-05
42	0x325d04cd	1.2864985e-08
43	0x37ae0be1	2.0747948e-05
44	0x35674e81	8.6168444e-07
45	0xb62a7d7d	-2.5405018e-06
46	0xb807255f	-3.2221313e-05
47	0xb7de5c11	-2.6507334e-05
48	0x363e46df	2.8353459e-06
49	0xb781f226	-1.5490758e-05
50	0x3680bd96	3.836768e-06
51	0x36f2bea4	7.2343555e-06
52	0xb3f33ec6	-1.1326988e-07
53	0xb6dc1d99	-6.5599565e-06
54	0xb7ce0f5e	-2.456427e-05
55	0xb6c9bc0a	-6.0121574e-06
56	0x36be6852	5.6745857e-06
57	0x37a15f3f	1.9237048e-05
58	0xb599d26f	-1.1460633e-06
59	0x3477603e	2.303868e-07
60	0x369902a9	4.560065e-06
61	0xb687942f	-4.0405644e-06
62	0x373680ed	1.0878063e-05
63	0x36d7cbb3	6.431213e-06
64	0xb39fe759	-7.4460964e-08
65	0x3720102f	9.540511e-06
66	0xb722ebae	-9.710826e-06
67	0x36d3c41e	6.311121e-06
68	0x37445929	1.170327e-05
69	0x360c9a6b	2.0951509e-06
70	0xb5da4e99	-1.6265141e-06
71	0x37204f25	9.55517e-06
72	0x368b47e8	4.150894e-06
73	0xb752672f	-1.2541e-05
74	0x363e7014	2.8377444e-06
75	0x375e5741	1.32525465e-05
76	0xb5f6cca3	-1.8387985e-06
77	0xb6b330be	-5.34029e-06
78	0x3507b5bc	5.055588e-07
79	0xb7ffbf41	-3.0487428e-05
80	0x3687dca2	4.0489986e-06
81	0xb6b8120b	-5.485728e-06
82	0x37293cc1	1.008733e-05
83	0xb7211b35	-9.602682e-06
84	0xb784d729	-1.5835818e-05
85	0x37834c2b	1.5651885e-05
86	0xb88210da	-6.202022e-05
87	0xb54ad269	-7.555705e-07
88	0x3827c461	3.9998795e-05
89	0x37c7588d	2.3763883e-05
90	0x360905ba	2.0417924e-06
91	0x377c1b1c	1.5026682e-05
92	0xb747519e	-1.1880327e-05
93	0x37703596	1.4317591e-05
94	0xb7853922	-1.588144e-05
95	0x36c713bc	5.9329595e-06
96	0x36cbaeae	6.070207e-06
97	0x358c15bb	1.0437137e-06
98	0xb7087bb1	-8.135031e-06
99	0x3757ac3e	1.2855102e-05
100	0x36edf842	7.0920514e-06
101	0xb7738af0	-1.4516278e-05
102	0x3704d3cb	7.917125e-06
103	0x36c7f48a	5.9591302e-06
104	0xb6670bd5	-3.442857e-06
105	0xb6f2ae09	-7.2324224e-06
106	0x37749335	1.4577808e-05
107	0xb7252249	-9.842749e-06
108	0xb643c24d	-2.9170362e-06
109	0xb65aeb28	-3.262141e-06
110	0x3723d304	9.764688e-06
111	0xb7925a9e	-1.7446753e-05
112	0x36b7e0e0	5.480004e-06
113	0xb4b2f42e	-3.3332748e-07
114	0xb58beead	-1.0425771e-06
115	0x36ee496c	7.1015e-06
116	0x36b61dd4	5.427495e-06
117	0xb6da84c4	-6.5123622e-06
118	0x3721910e	9.630121e-06
119	0xb662ff95	-3.3825393e-06
120	0xb76b8b30	-1.4039499e-05
121	0xb6894c54	-4.091804e-06
122	0xb6afcf1c	-5.239517e-06
123	0xb7249f54	-9.812258e-06
124	0x372c3ef1	1.0266654e-05
125	0xb7462130	-1.1809447e-05
126	0x374b5a3e	1.2120754e-05
127	0x35c37c49	1.4564804e-06
128	0xb6d5c4d3	-6.370808e-06
129	0x33014634	3.0099002e-08
130	0xb5af05cd	-1.3040204e-06
131	0x366de693	3.5449964e-06
132	0xb600ce99	-1.9193742e-06
133	0x36f43920	7.278417e-06
134	0xb6c40bb5	-5.842618e-06
135	0xb65bd75b	-3.2758896e-06
136	0x3755bcff	1.2739793e-05
137	0xb7576cff	-1.2840376e-05
138	0xb5607812	-8.362123e-07
139	0x37750da0	1.460631e-05
140	0xb6d3f1d9	-6.316445e-06
141	0x36d8e933	6.4644496e-06
142	0x354f6ae3	7.726905e-07
143	0xb674a05b	-3.6452172e-06
144	0x3733cbaf	1.0716655e-05
145	0xb6c63c6f	-5.9078952e-06
146	0xb72671b8	-9.920848e-06
147	0xb6e79c90	-6.9025627e-06
148	0x368dbefd	4.2243614e-06
149	0x38068a20	3.207673e-05
150	0xb7ec5912	-2.8174869e-05
151	0xb7982c9e	-1.8140589e-05
152	0xb5e78c02	-1.7251589e-06
153	0x35fad456	1.8688249e-06
154	0xb70d0f86	-8.407869e-06
155	0x37cdd686	2.45378e-05
156	0x3706c9da	8.03402e-06
157	0xb6c420d2	-5.845076e-06
158	0xb4b722d1	-3.4111739e-07
159	0x364fd9bf	3.0972149e-06
160	0xb6ea9728	-6.9913403e-06
161	0x37148b7e	8.8539655e-06
162	0x3749949f	1.2015137e-05
163	0x3747d805	1.191162e-05
164	0x357bbcb6	9.3779397e-07
165	0xb82be1eb	-4.097998e-05
166	0x37f88568	2.9626026e-05
167	0x37a7447f	1.9939847e-05
168	0xb69d906f	-4.695779e-06
169	0xb677c82d	-3.6922386e-06
170	0x37338b50	1.0701668e-05
171	0xb80c8596	-3.3503013e-05
172	0xb77b3917	-1.4974058e-05
173	0xb6261622	-2.474881e-06
174	0x372a1bcd	1.01392625e-05
175	0x35a6b378	1.2420196e-06
176	0xb6343c34	-2.6857133e-06
177	0x370483ae	7.898472e-06
178	0x36c66efc	5.91378e-06
179	0x364805c0	2.980567e-06
180	0x373c2655	1.1214598e-05
181	0xb7ec6ac2	-2.8183105e-05
182	0x378e25ba	1.6945287e-05
183	0x379eb73a	1.892039e-05
184	0xb70c4b64	-8.3622035e-06
185	0x363d6469	2.822164e-06
186	0x345c8847	2.0538674e-07
187	0xb7aee302	-2.0848125e-05
188	0xb73f008a	-1.1384613e-05
189	0xb7184259	-9.075354e-06
190	0x3747d64f	1.1911222e-05
191	0x3441ce94	1.8049678e-07
192	0xb608f8e8	-2.0410462e-06
193	0xb69a22b0	-4.593596e-06
194	0xb45505ff	-1.9839352e-07
195	0xb60f76de	-2.137785e-06
196	0xb6a19075	-4.814991e-06
197	0x375409a0	1.2638426e-05
198	0xb79f8a69	-1.901873e-05
199	0xb7046b4a	-7.892793e-06
200	0x3739fc73	1.1085637e-05
201	0xb59f5bed	-1.1873177e-06
202	0xb6b2a9fd	-5.3246026e-06
203	0x377d3044	1.5091213e-05
204	0xb578849f	-9.258019e-07
205	0x36d9849a	6.482541e-06
206	0x364452b9	2.9254427e-06
207	0x3637e30d	2.7401286e-06
208	0xb545ec88	-7.3732417e-07
209	0xb6f2b37a	-7.233056e-06
210	0x36c31473	5.8138335e-06
211	0xb6882a53	-4.058043e-06
212	0xb6b246e8	-5.313068e-06
213	0x37523fac	1.25318e-05
214	0xb7c7edd9	-2.3833405e-05
215	0xb7188072	-9.089812e-06
216	0x3673ae96	3.6311444e-06
217	0x3728f1ec	1.0069907e-05
218	0xb677457f	-3.684632e-06
219	0x3717db50	9.051364e-06
220	0x3739f6bd	1.10843075e-05
221	0x35c53cc9	1.4695335e-06
222	0xb6c85a80	-5.971e-06
223	0x36e5d2bb	6.849264e-06
224	0xb6c3599c	-5.8218848e-06
225	0xb749ae5a	-1.2021128e-05
226	0x378c02ac	1.6690545e-05
227	0xb65f9a04	-3.3319238e-06
228	0xb79024cd	-1.7183274e-05
229	0x3734a4b2	1.0767182e-05
230	0xb76d08a3	-1.4128312e-05
231	0xb65da8ed	-3.3029894e-06
232	0x376ddfae	1.417838e-05
233	0xb5b0e85e	-1.318065e-06
234	0x37208bd6	9.569301e-06
235	0x369f283a	4.7432522e-06
236	0x371c58c6	9.318994e-06
237	0x3683b4bd	3.925145e-06
238	0xb71c9adb	-9.33438e-06
239	0x361855af	2.269964e-06
240	0xb63f6002	-2.8517102e-06
241	0xb5fb9b99	-1.8746242e-06
242	0xb60c0e54	-2.0869966e-06
243	0xb5d428d5	-1.5807115e-06
244	0x3405c576	1.2458426e-07
245	0x376b4e90	1.4025383e-05
246	0xb6b05db0	-5.2561154e-06
247	0xb6d11ccb	-6.2320373e-06
248	0x36869e42	4.011935e-06
249	0xb684eb0e	-3.9612705e-06
250	0xb5cc9ab4	-1.5244209e-06
251	0x37678cbc	1.380144e-05
252	0xb5b9b75c	-1.3836939e-06
253	0x363dc57a	2.8278141e-06
254	0xb6c47130	-5.854432e-06
255	0xb5193259	-5.7070207e-07

exp_avg_sq f4 [48, 16]
0	0x308cb1b3	1.0236846e-09
1	0x31178359	2.2048054e-09
2	0x318b480c	4.053623e-09
3	0x30bfe426	1.3961923e-09
4	0x31423164	2.825879e-09
5	0x315c43ce	3.2052756e-09
6	0x32cde118	2.3967502e-08
7	0x30d6f053	1.5638854e-09
8	0x31b1af3c	5.1713e-09
9	0x31cf9b40	6.042143e-09
10	0x3118aae6	2.2216056e-09
11	0x31a402da	4.7733524e-09
12	0x30f7e3c9	1.8036356e-09
13	0x31817e8a	3.76878e-09
14	0x318aa746	4.0353454e-09
15	0x322f29e9	1.019587e-08
16	0x317e29ed	3.6985697e-09
17	0x3269027c	1.356295e-08
18	0x32914005	1.6909334e-08
19	0x322b92f7	9.986926e-09
20	0x321167d7	8.463721e-09
21	0x32c3a4cb	2.2775927e-08
22	0x340a76c3	1.2895457e-07
23	0x328542fa	1.5513695e-08
24	0x3398553d	7.093556e-08
25	0x32972d81	1.7599406e-08
26	0x3224187b	9.551623e-09
27	0x3347785c	4.6442764e-08
28	0x321d7c1b	9.166821e-09
29	0x321076f6	8.408952e-09
30	0x324fb934	1.2091096e-08
31	0x33b50790	8.429845e-08
32	0x314feace	3.0255936e-09
33	0x31c478fd	5.7181055e-09
34	0x324d34b8	1.1944557e-08
35	0x3193c7aa	4.3009623e-09
36	0x31edf972	6.9259665e-09
37	0x32861b3a	1.5612034e-08
38	0x33a1c6cb	7.533307e-08
39	0x3180fa52	3.7537484e-09
40	0x32813b69	1.5044593e-08
41	0x3297fee7	1.769463e-08
42	0x3202d403	7.615202e-09
43	0x32b838bc	2.1446219e-08
44	0x31ca3654	5.88515e-09
45	0x31e2a680	6.5963945e-09
46	0x323fecea	1.1171531e-08
47	0x32e1bc64	2.6279118e-08
48	0x31cb73db	5.921249e-09
49	0x3232b332	1.0401708e-08
50	0x3240e49d	1.12278515e-08
51	0x320636dd	7.812301e-09
52	0x323d3b99	1.1014799e-08
53	0x32958be3	1.7409496e-08
54	0x33e9009e	1.085002e-07
55	0x31e358d0	6.6166663e-09
56	0x330a9f73	3.2275647e-08
57	0x32d0071a	2.4217616e-08
58	0x323b1805	1.0890294e-08
59	0x3306b672	3.136524e-08
60	0x32041e4d	7.690301e-09
61	0x32506984	1.2131185e-08
62	0x32d3abd1	2.4641766e-08
63	0x333afc1f	4.3535803e-08
64	0x304e6ea6	7.5099604e-10
65	0x31395f8c	2.6975355e-09
66	0x31b32e35	5.214839e-09
67	0x319280f7	4.263821e-09
68	0x3138869c	2.685204e-09
69	0x329d0826	1.8280911e-08
70	0x3385256d	6.200103e-08
71	0x318c8feb	4.090898e-09
72	0x32df3e29	2.5988884e-08
73	0x31f37eee	7.086661e-09
74	0x31c9adef	5.869644e-09
75	0x32e3ce67	2.6520139e-08
76	0x311ba4e7	2.2649205e-09
77	0x31091fc5	1.9954183e-09
78	0x317fb8e9	3.7212493e-09
79	0x32d0e6e5	2.4319386e-08
80	0x3144aacf	2.8618847e-09
81	0x3239e4b0	1.0820415e-08
82	0x32a52371	1.9224645e-08
83	0x320d0b78	8.209888e-09
84	0x31dca9ed	6.422161e-09
85	0x32fe58cb	2.960987e-08
86	0x33c93468	9.3693245e-08
87	0x32023de5	7.581069e-09
88	0x330f5cf3	3.337932e-08
89	0x328a6fc5	1.6116141e-08
90	0x327c066e	1.46697925e-08
91	0x332d952b	4.041537e-08
92	0x3227c057	9.764412e-09
93	0x3227d0ba	9.768138e-09
94	0x326ec8e6	1.3899102e-08
95	0x33331da0	4.170363e-08
96	0x310c6d9c	2.0434987e-09
97	0x3180cac6	3.748343e-09
98	0x31841252	3.8437884e-09
99	0x31ba9806	5.4305955e-09
100	0x3132eec8	2.603814e-09
101	0x32033ce1	7.639046e-09
102	0x330a1bf1	3.215604e-08
103	0x3173fc9f	3.5504752e-09
104	0x329e2e2a	1.8414614e-08
105	0x32370576	1.0653244e-08
106	0x31abc35f	4.998966e-09
107	0x324c911d	1.1907358e-08
108	0x3125375b	2.4042126e-09
109	0x3139e363	2.7050298e-09
110	0x31dc1166	6.4048207e-09
111	0x32800e8c	1.4907776e-08
112	0x3021c0c2	5.8845384e-10
113	0x30c1a49d	1.4089384e-09
114	0x3100b5f4	1.872988e-09
115	0x31a821fb	4.8933066e-09
116	0x312928c1	2.4615903e-09
117	0x327a26e7	1.4560761e-08
118	0x33051e67	3.0994126e-08
119	0x30fc6498	1.8364004e-09
120	0x31cf3b06	6.031203e-09
121	0x3218b2d2	8.8882235e-09
122	0x3200bdd8	7.493746e-09
123	0x3256368f	1.2468845e-08
124	0x30f23ae4	1.7624555e-09
125	0x315b54a6	3.1916811e-09
126	0x316d5637	3.4537047e-09
127	0x31ddbf8f	6.453724e-09
128	0x30380621	6.694752e-10
129	0x30dfb54f	1.6276916e-09
130	0x3112eb18	2.1379432e-09
131	0x306a1e6c	8.5171936e-10
132	0x304dadae	7.482538e-10
133	0x3157eee3	3.142241e-09
134	0x31e41f7d	6.639253e-09
135	0x30436dbe	7.109654e-10
136	0x318192e7	3.771095e-09
137	0x30f10f6e	1.7539443e-09
138	0x30889016	9.936254e-10
139	0x312b42d7	2.492177e-09
140	0x3042b60b	7.083549e-10
141	0x30b24509	1.2970826e-09
142	0x30af7fc3	1.2769238e-09
143	0x31976d01	4.4070707e-09
144	0x3120e2b8	2.341194e-09
145	0x31953f49	4.3436654e-09
146	0x316267f9	3.294643e-09
147	0x31948d41	4.3234256e-09
148	0x3185b790	3.891678e-09
149	0x32b159dc	2.0646375e-08
150	0x333343ae	4.173824e-08
151	0x3153c836	3.0818348e-09
152	0x32d08b95	2.4277861e-08
153	0x31e34615	6.614537e-09
154	0x32220cca	9.432549e-09
155	0x32d2c96b	2.4538812e-08
156	0x3181bd2f	3.775902e-09
157	0x32374b5b	1.0669136e-08
158	0x32abb65b	1.9989946e-08
159	0x32571cc4	1.2521188e-08
160	0x30de6655	1.618171e-09
161	0x31844df4	3.850568e-09
162	0x3153eded	3.0839786e-09
163	0x31840fa2	3.843483e-09
164	0x314da3d9	2.9924563e-09
165	0x32640550	1.3272555e-08
166	0x33070549	3.1436944e-08
167	0x3130e2a9	2.5740212e-09
168	0x32423468	1.1304202e-08
169	0x31b81b00	5.3581743e-09
170	0x31c76e7d	5.8042233e-09
171	0x3272a9eb	1.4124889e-08
172	0x31796307	3.629056e-09
173	0x31af5f91	5.104035e-09
174	0x32056924	7.765525e-09
175	0x3213d96e	8.605964e-09
176	0x30832b7d	9.543865e-10
177	0x3108627c	1.9846587e-09
178	0x31376316	2.6686329e-09
179	0x310911bd	1.9946207e-09
180	0x30fcb0fb	1.8385714e-09
181	0x31885dd8	3.9687897e-09
182	0x32875373	1.5754017e-08
183	0x30c7f3ae	1.4548414e-09
184	0x31b304a7	5.2101146e-09
185	0x317a76f2	3.64474e-09
186	0x311308c2	2.1396294e-09
187	0x31aa977a	4.964872e-09
188	0x311bf0a2	2.2692253e-09
189	0x313b00db	2.7212568e-09
190	0x31636aee	3.309363e-09
191	0x31b61f04	5.300423e-09
192	0x3017dd4c	5.524796e-10
193	0x30b43d71	1.3114186e-09
194	0x30ecf606	1.7241184e-09
195	0x306ba349	8.5724544e-10
196	0x306de4cb	8.654523e-10
197	0x31809b33	3.7429344e-09
198	0x321b8838	9.05316e-09
199	0x305788ac	7.8410767e-10
200	0x3190b514	4.211538e-09
201	0x30ec5e51	1.7198066e-09
202	0x30b46103	1.3124296e-09
203	0x319ac718	4.5046242e-09
204	0x308e1efe	1.0340668e-09
205	0x30b16855	1.2908098e-09
206	0x3113fa18	2.1533477e-09
207	0x31a51c03	4.8053166e-09
208	0x300ce904	5.126284e-10
209	0x30b698de	1.328569e-09
210	0x3111c1c4	2.121042e-09
211	0x30af9341	1.2774778e-09
212	0x30420a16	7.059112e-10
213	0x313e611a	2.7703835e-09
214	0x321b48e2	9.038759e-09
215	0x307b867a	9.150437e-10
216	0x313256ef	2.5951825e-09
217	0x30f0ce9e	1.7521022e-09
218	0x30a41a53	1.1940052e-09
219	0x3169dff4	3.4033265e-09
220	0x308c5f10	1.0213359e-09
221	0x30e509c5	1.666472e-09
222	0x3119c9b2	2.237908e-09
223	0x3133cda9	2.6164833e-09
224	0x314005c9	2.7942966e-09
225	0x31e9d197	6.80502e-09
226	0x32029e72	7.603022e-09
227	0x318271d5	3.796439e-09
228	0x31370b2e	2.663636e-09
229	0x32709c97	1.4005443e-08
230	0x32c7c6ad	2.3256996e-08
231	0x31624a0d	3.2929421e-09
232	0x3278ca0f	1.4481443e-08
233	0x31a96f1e	4.93118e-09
234	0x31b77fb4	5.340519e-09
235	0x32803124	1.4923508e-08
236	0x31765743	3.5847314e-09
237	0x31fe173e	7.3950153e-09
238	0x327ae3fb	1.4603752e-08
239	0x323ed00e	1.1106762e-08
240	0x3000373e	4.664463e-10
241	0x30e0d705	1.6359257e-09
242	0x30ffe771	1.8619472e-09
243	0x3043c9bf	7.1227285e-10
244	0x30a4aded	1.1982003e-09
245	0x313fca60	2.7909195e-09
246	0x322eac8d	1.01673665e-08
247	0x3026212d	6.0437594e-10
248	0x30fb3e95	1.828044e-09
249	0x311ab8a7	2.2514912e-09
250	0x30854409	9.69636e-10
251	0x30e32b9d	1.6528819e-09
252	0x2fa9e7a0	3.09055e-10
253	0x30cc5d96	1.4869552e-09
254	0x3045b4ca	7.19251e-10
255	0x3165af77	3.3423626e-09

exp_avg f4 [48]
0	0x367a0c5a	3.7260093e-06
1	0x38472ee2	4.748896e-05
2	0xb72b97b7	-1.0227718e-05
3	0xb743287e	-1.1632334e-05
4	0xb7817233	-1.5431177e-05
5	0xb7b63a55	-2.1723254e-05
6	0xb7566c58	-1.278062e-05
7	0x37113064	8.65394e-06
8	0xb59eb164	-1.1823545e-06
9	0xb6c24295	-5.7894017e-06
10	0x36e2388b	6.7419073e-06
11	0xb7128025	-8.732114e-06
12	0x358d6bad	1.0536656e-06
13	0x361a6ee0	2.3012326e-06
14	0x36e10306	6.7058745e-06
15	0xb59b89d3	-1.1588512e-06
16	0x2bedc352	1.6894075e-12
17	0xab4df208	-7.3166516e-13
18	0xadf33045	-2.7647338e-11
19	0xac8a7c1c	-3.935975e-12
20	0xad0740b1	-7.688226e-12
21	0xabd02c83	-1.4791643e-12
22	0xac4ae24a	-2.8831542e-12
23	0x2cd73035	6.1160196e-12
24	0x2cb54224	5.1516725e-12
25	0x2d78d2d4	1.4143981e-11
26	0xad8380dd	-1.4950203e-11
27	0xacd8ee03	-6.165514e-12
28	0x2da120bf	1.8318123e-11
29	0x2b56cdf3	7.6313885e-13
30	0xad4b78b2	-1.1566014e-11
31	0x2b6be54e	8.3806996e-13
32	0xb7f152a0	-2.8767914e-05
33	0xb7cfa957	-2.4755178e-05
34	0xb89bd7c2	-7.431164e-05
35	0x38b4df5f	8.624675e-05
36	0xb893cbdf	-7.04748e-05
37	0xb8560c3b	-5.1032966e-05
38	0x37c2c7d2	2.321965e-05
39	0xb923d9ce	-0.0001562603
40	0xb70d059f	-8.405564e-06
41	0xb7b2470f	-2.1252343e-05
42	0x37b682f6	2.1757074e-05
43	0x37fc0de9	3.0047218e-05
44	0x37dffb51	2.67007e-05
45	0x383ffa52	4.5771078e-05
46	0xb8ab3d41	-8.165325e-05
47	0x37f6a5f2	2.940276e-05
